p1_navigation/checkpoint.pth (torch_old, 28451 bytes, 6 tensors)

fc1.weight f4 [64, 37]
000000 a8 3b 51 3e 19 da 1b 3e 82 4c 25 3e fe 8a 50 3e
       0.20432913 0.15219916 0.16142467 0.20365521
000010 2c 38 9d bd 26 40 f7 3e 69 e6 86 be 01 f3 02 bf
       -0.076767296 0.4829113 -0.26347664 -0.51152045
000020 02 41 1e bf d0 2a e9 bf e7 f5 0f 3e 16 d1 4d 3e
       -0.61817944 -1.821619 0.14058648 0.20099291
000030 27 11 fe 3d 0c d2 7f 3d 0e 83 ec bd 08 ec 01 3e
       0.12405615 0.062456176 -0.11548434 0.12687695
000040 ec 9c 86 3d 16 9f 53 3d 67 50 62 3d 67 07 6c 3c
       0.06572899 0.051665388 0.05525246 0.014406062
000050 12 60 0a 3d a5 35 dc 3c 30 cc be bb 64 df bf 3c
       0.033783026 0.026881048 -0.005822681 0.02342195
000060 bd 4b 6d bc 51 7c 5e 3d c6 2b f8 bc 39 31 e3 3b
       -0.014483389 0.054317776 -0.03029431 0.006933358
000070 d7 e7 5a be 73 be ce be 62 88 02 3e 52 5f 2b 3e
       -0.21377502 -0.40379676 0.12747338 0.1673558
000080 0a cf 23 3e 45 c5 31 3e 66 55 b5 3c d8 b2 4b 3c
       0.15996948 0.17360409 0.022135448 0.012432776
000090 a6 16 39 bb 0a 33 66 3c 82 ff 0c 3e fe 29 74 3d
       -0.002824226 0.014050255 0.13769343 0.05961036
0000a0 91 16 41 3d d1 f3 eb bd a3 83 bf 3d c5 3a a3 3d
       0.04714066 -0.11521114 0.093512796 0.07970194
0000b0 a9 b5 10 3e f1 70 5f 3c 58 0c 5f bc 05 f8 3c bb
       0.14131798 0.013637767 -0.013613783 -0.0028834355
0000c0 10 8a fe 3c ce a2 82 bc c5 87 0b bd 7b 5f cc bd
       0.031071693 -0.015946772 -0.034065027 -0.09979149
0000d0 59 83 21 bd 65 7c aa 3d 28 f6 fb 3d 6c 75 9f 3d
       -0.039431904 0.083245076 0.1230281 0.07786068
0000e0 8b 44 8f 3d 1c e0 89 3e 94 86 8d bc 16 d7 ac be
       0.069954954 0.26928794 -0.017276086 -0.33757848
0000f0 d5 f0 24 bf fb a5 10 c0 14 eb db bb f7 18 d8 3c
       -0.6442998 -2.2601306 -0.006711373 0.026379092
000100 c5 2a 07 3e 0a 9d 0a 3e 15 ef 7f 3c 97 33 97 bd
       0.13199909 0.13536468 0.015620966 -0.07382887
000110 4a 8e d6 bd f2 91 65 3d 14 45 c6 3d 96 22 24 3c
       -0.10476358 0.056047387 0.09681144 0.010018012
000120 45 f8 6a 3c b1 92 0e bc 7c d9 e3 3c 23 51 e4 be
       0.014341419 -0.008701966 0.027813666 -0.44593152
000130 be ba 64 3d 28 58 25 bf e2 b5 8b bd 10 13 2d 3d
       0.055842154 -0.6458764 -0.06821801 0.042254508
000140 43 4f 30 bd f9 68 83 be 8d db b7 3d 60 cb 80 bf
       -0.04304434 -0.25666025 0.08977423 -1.0062065
000150 98 71 89 bd 83 28 2f be 65 95 7e 3e 92 3f 9f be
       -0.067111194 -0.17105298 0.24861677 -0.31103188
000160 a3 45 3f be dc 26 9c bd 7a 40 06 bd ba ad 82 be
       -0.18678908 -0.07624599 -0.032776333 -0.25523168
000170 44 e3 b6 3e e1 fc 55 3d 62 bd 2c be 1f 12 8b 3d
       0.35720265 0.052243117 -0.16869119 0.06790566
000180 b8 14 b0 3d a3 cd 7a be 29 9c 1e 3d ba d1 81 be
       0.08597702 -0.24492507 0.038723145 -0.2535532
000190 83 bc 95 bd 68 7a a7 bd 04 f1 67 3c c7 ef 60 be
       -0.073113464 -0.08177644 0.014156584 -0.21966468
0001a0 fa 92 1d 3d e0 ab 49 be 2c 1e 33 be 36 38 92 bd
       0.038470246 -0.19694471 -0.17491978 -0.07139628
0001b0 52 0f 16 bf a8 80 f8 bd 2e 25 ea 3c 98 e6 49 3c
       -0.58617127 -0.12133914 0.028582182 0.012323044
0001c0 e6 9d 44 3d 2b cb b0 bd 56 05 8e be 63 23 62 be
       0.048002146 -0.08632501 -0.27738446 -0.22083811
0001d0 a0 8a e7 bd d3 a4 1b bf c1 92 6f 3e 09 e6 85 bc
       -0.113057375 -0.60798377 0.23395826 -0.01634504
0001e0 d0 41 95 bf c1 38 24 be b9 cc 72 bd d7 f5 04 be
       -1.1660709 -0.16037275 -0.05927727 -0.12984405
0001f0 a3 4f 27 3e 22 57 ad be 44 3b b9 3d 7c b2 4a 3c
       0.16338973 -0.3385554 0.09044507 0.012371656
000200 c5 3a 32 b9 4b 7e bf bd 66 7c c3 be 6b 8e 01 be
       -0.00016997296 -0.0935026 -0.38180846 -0.12651984
000210 7f 9c 09 3e 9d 28 46 3d 7d c0 2f 3c 3e 97 43 bf
       0.13438605 0.048378576 0.010727045 -0.7640265
000220 3d 4c 3c be 83 11 0d bf 9e 9a c3 3e 98 cf 81 be
       -0.18388458 -0.55104846 0.382039 -0.25353694
000230 48 44 98 bf c9 be aa bb 18 42 d5 bd 75 e8 b7 bd
       -1.1895838 -0.0052107316 -0.10412997 -0.089798845
000240 5e ea a8 be 3d 79 09 bf d9 ae 93 3e 28 f6 ea 3c
       -0.32991308 -0.5370062 0.28844336 0.02868183
000250 40 c1 d6 3d 54 92 f9 be 3b 11 ff bd 02 96 84 3e
       0.10486078 -0.48744452 -0.12454458 0.25895697
000260 08 74 0f bf 12 8e 01 bb 7a a7 30 3e e9 74 8d bd
       -0.56036425 -0.0019768518 0.17251387 -0.069070645
000270 05 dd 19 be 35 75 8d 3d b4 8e 95 be af 9d 48 3d
       -0.15025719 0.06907121 -0.29210436 0.048978504
000280 0c b5 8c 3e 25 77 58 3e f3 d2 a6 3c 21 5a ed bd
       0.27481878 0.211392 0.02036426 -0.11589456
000290 fe 74 24 bd 3d 2e b6 3d 10 d9 01 be 67 5d 35 3b
       -0.040150635 0.08895538 -0.12680459 0.002767408
0002a0 fe 55 d7 3d 4b 71 e8 3d c0 bb b9 be bd ed e5 3c
       0.105144486 0.11349734 -0.36276054 0.028067464
0002b0 1b 88 0b be 37 7a 87 be 4e 83 92 ba 0c 42 dc 3d
       -0.13626139 -0.2646043 -0.0011178048 0.10754785
0002c0 a0 74 0e 3c 71 02 b6 bd f3 96 09 3e ee 7e 15 bc
       0.008694798 -0.088871844 0.13436489 -0.009124501
0002d0 0c 4c fd bd 91 1a 5f 3c 7f a9 89 bd c5 e4 10 3d
       -0.123680204 0.013617174 -0.06721782 0.03537442
0002e0 71 65 2e bc 87 2b 00 3d 16 19 0e 3e 63 a5 76 3d
       -0.010644303 0.03129151 0.13876757 0.06021632
0002f0 41 52 76 3d ed df 4f bd 75 85 69 3e ba 96 06 bf
       0.060137037 -0.05075066 0.22804816 -0.5257374
000300 4b 7f 40 3d 1f 42 22 bf 49 cc 18 c0 bb 77 2b bd
       0.046996396 -0.6338214 -2.3874686 -0.04186223
000310 b8 6e 86 3d be b9 9f 3c db fd 4c 3d 91 34 73 3d
       0.06564087 0.019497748 0.050046783 0.059376303
000320 3b 51 71 3d 2b 0a b2 bd c0 08 34 bc ed ac da 3d
       0.058915358 -0.08693346 -0.010988414 0.10677514
000330 46 a1 c3 3d fc 2e 09 be 28 c8 db bd b6 06 25 3b
       0.09552245 -0.1339683 -0.10731536 0.0025181002
000340 8c d3 31 ba 07 70 53 3e 99 36 1f 3d 41 73 ff 3c
       -0.0006783537 0.20648204 0.038870428 0.031182887
000350 4a 3d fe 3c ee 51 b5 bc 92 5f 93 3d 71 22 eb 3d
       0.031035084 -0.022133794 0.07195963 0.114811786
000360 02 d8 f3 3d a9 5d 54 3d 44 6e 6f 3d f9 50 5b bd
       0.119064346 0.051847134 0.058454767 -0.05354402
000370 92 3f d3 3c ba b7 e2 3b 31 fc 7f bd cb 2c 43 3d
       0.025787149 0.0069188746 -0.062496368 0.04765014
000380 48 1f 77 be 3a 16 dd 3d 3c 1e 00 3c 38 90 12 be
       -0.24133027 0.10795255 0.007819708 -0.14312828
000390 d2 f9 89 3d bb 6f 82 3c fe d2 b9 bd 79 35 3c be
       0.067371026 0.015922418 -0.09073447 -0.18379773
0003a0 6b 33 92 3d 65 22 85 3d 47 6f ed bc 06 0d 7d 3e
       0.071387134 0.06500701 -0.028983725 0.24712
0003b0 b2 fc a6 ba 07 8d 5f 3d 2b 44 3a be d1 8e 45 be
       -0.0012740104 0.054577854 -0.18190067 -0.19292761
0003c0 29 87 ce bd ac 38 41 3d d1 cd cf 3d c5 bc da bd
       -0.100843735 0.047173187 0.10146678 -0.10680536
0003d0 e1 f9 d1 be 45 79 aa be cf ea c4 bf 79 a3 ff 3b
       -0.41010955 -0.33295646 -1.5384158 0.00780147
0003e0 7f fa 05 3e e9 70 6a 3d b8 96 a8 bd 79 bc 97 be
       0.13083838 0.057236586 -0.08231872 -0.2963598
0003f0 9a 70 93 bd 9c 81 0d bc a5 76 d9 3c 51 c9 19 be
       -0.071992114 -0.008636858 0.026545832 -0.15018202

fc1.bias f4 [64]
000000 81 a9 fb 3c 4a b2 f4 3d 9c 42 88 3c f5 4c ab 3d
       0.030720474 0.119480684 0.016633324 0.08364288
000010 8f 74 61 be 8a 75 0f bd 03 22 27 bd 55 2c af bd
       -0.2201712 -0.035024203 -0.04080392 -0.085533775
000020 4e eb 2a be 8d c7 49 3e 41 8c 2b be 6c 35 65 bd
       -0.16691324 0.19705029 -0.16752721 -0.05595915
000030 bf 31 9d be 4d 6f 27 be b1 d2 34 be 40 73 7d bd
       -0.30702016 -0.16351052 -0.17658497 -0.06187749
000040 2d d4 83 bd 66 1c a4 3d 87 d8 c3 3e 32 12 4b bd
       -0.06436954 0.08013229 0.38251135 -0.0495779
000050 9c e5 a0 3c 39 86 c1 bd 9f 95 28 bd ae 08 bc bc
       0.019640736 -0.09449429 -0.041158315 -0.022953358
000060 92 c5 8a bd 3a cc a9 bd fd 13 f1 bd 40 52 68 be
       -0.06775965 -0.08290906 -0.117713906 -0.22687626
000070 c4 0a 81 3d 30 17 04 bd df eb 7c bd 71 c0 2a be
       0.063008815 -0.032248676 -0.06174838 -0.16674973
000080 38 40 e5 bd 6c cd 77 3d 32 6f e9 3d 06 64 10 3d
       -0.111938894 0.06049864 0.11398162 0.03525164
000090 bc f1 7a 3d b9 39 8c bd 9d 1d b3 3d 50 7b 6d be
       0.061265692 -0.06846947 0.08745883 -0.23191571
0000a0 84 e3 21 be 11 ad ac bb 74 8a a4 bd 6d b5 96 bd
       -0.15809447 -0.0052696546 -0.0803422 -0.07358823
0000b0 a9 20 fe bb 9b 7f a0 bd f8 a3 7c be b4 60 4b 3c
       -0.0077553582 -0.07836839 -0.24671924 0.012413193
0000c0 ae db 47 be 3a 3a 86 bd 9a 95 cc bd fe 51 0a 3e
       -0.19517395 -0.065540746 -0.09989472 0.1350784
0000d0 32 13 8d be 8d 16 65 be c0 14 aa bd a2 03 06 3e
       -0.27553707 -0.22371884 -0.08304739 0.13087323
0000e0 86 35 eb 3d b8 1e f0 bc 53 06 dc bd 12 1b 24 3d
       0.11484818 -0.029311523 -0.10743394 0.04006488
0000f0 1e 6f 36 3d 26 f4 96 bd 35 57 62 3d fe db b0 bd
       0.044539563 -0.07370786 0.05525895 -0.0863571

fc2.weight f4 [64, 64]
000000 7a 72 8c 3d 0d f3 96 3d 0c ca bb bd c4 81 98 3d
       0.06857772 0.07370577 -0.09169397 0.07446626
000010 dd 9c 8b 3d 83 6d 44 3d 6f d3 c4 3d e6 37 7d 3c
       0.06817029 0.047956 0.0961064 0.015455222
000020 cb fb 29 3d 6c 75 8d bd eb 90 2c 3e a8 6d 49 be
       0.041499894 -0.06907162 0.16852157 -0.19670737
000030 51 c1 fc ba e5 8d b6 bd 66 f9 9d 3d 9f 3a 7a 3d
       -0.0019283687 -0.08913783 0.077135846 0.06109106
000040 08 c3 f8 3d 81 10 bc 3d c9 2e 70 3e 22 76 22 bd
       0.12146574 0.09182835 0.23455347 -0.03966344
000050 29 13 24 3d b8 6a 07 be b7 cd 22 be da 55 d9 3c
       0.040057335 -0.13224304 -0.15898786 0.026530195
000060 69 4f 86 3d da eb 19 3e ad 9c 89 3e 1f 28 a1 bd
       0.06558115 0.15031376 0.26877347 -0.078689806
000070 f5 d3 40 3d 57 1d bc 3d 3f 4f 1f 3e 62 e6 6e 3e
       0.047077138 0.09185284 0.15557574 0.23330072
000080 c3 25 7a ba c8 b8 0c bd f2 66 6b 3e e5 38 c5 bd
       -0.000954237 -0.03435591 0.2298849 -0.096299924
000090 14 22 84 3e e0 7b f6 bd a0 38 a0 3c 61 b9 bd bd
       0.2580725 -0.12035346 0.01955825 -0.09263874
0000a0 a7 d9 17 bd 83 81 fd 3d 79 2a 65 bd a1 dd a7 bd
       -0.037072804 0.12378218 -0.05594871 -0.08196569
0000b0 22 91 18 be c7 03 a8 3d 6c bc 8f bd c2 80 9d bc
       -0.14899114 0.082038455 -0.070183605 -0.019226436
0000c0 dd f2 d8 3d 7c b8 5f 3d f1 e2 76 3e c1 87 4b 3e
       0.105931975 0.054619297 0.24110009 0.19876005
0000d0 f6 6e 10 bd 78 1d 80 bd cd 84 b1 bc ea 95 aa 3e
       -0.03526207 -0.06255621 -0.02166977 0.333175
0000e0 39 ac 0b 3e 41 89 1c 3e a0 8a e7 3c 49 6c 4e 3e
       0.13639916 0.15286733 0.028264344 0.20158495
0000f0 93 41 f7 3d a4 10 94 bd 93 44 52 3d 6d 05 a9 3d
       0.12073054 -0.072297364 0.05133493 0.08252988
000100 98 99 df 3d 3f 94 e5 bd 48 09 21 be 3f ab ae 3e
       0.109179676 -0.11209916 -0.15726197 0.34115025
000110 64 44 ad 3d 8e d0 d8 3d 7d e5 80 3d 5c 8a 42 be
       0.0846031 0.10586654 0.062937714 -0.18998092
000120 20 4d 02 ba fb dc cd 3e 0a 15 14 bc 43 3f 65 be
       -0.0004970599 0.40207657 -0.009038219 -0.22387414
000130 92 0f f5 3d 77 05 49 3d 30 c8 a8 bc 35 42 2e 3e
       0.119658604 0.049077477 -0.02060327 0.17017443
000140 07 e6 d5 bd c2 52 31 be e1 cb d5 3d 6a 35 79 3e
       -0.10444265 -0.17316726 0.104392774 0.24336782
000150 75 33 4d bd c6 1c 0b 3e 22 dd fe bd eb 25 4d bd
       -0.0500979 0.13585195 -0.124445215 -0.05008499
000160 b1 c5 ce bd a6 f4 7b bd 52 99 6a 3e c3 70 54 3e
       -0.100963004 -0.06151261 0.2291005 0.2074614
000170 9e c0 63 bb 27 1a c9 bd df ff bc bd ed 76 c6 bc
       -0.003475226 -0.09819441 -0.09228491 -0.02422663
000180 ee 35 4a be 9c b7 84 3e b7 ac d2 bc 03 53 07 be
       -0.19747135 0.25921333 -0.025717122 -0.1321526
000190 15 76 87 3e 34 24 1e 3e 9f dd 53 3e 3f 62 0d 3d
       0.26457277 0.15443498 0.2069001 0.034517523
0001a0 df 1c 93 3d 5e b5 89 bd 9d 08 9b 3e d0 84 ad be
       0.07183241 -0.06724046 0.3028001 -0.3389039
0001b0 7a 23 48 3e ad 87 a5 3d 9a 33 cd bd ed 54 20 3d
       0.19544783 0.08082519 -0.10019608 0.03914349
0001c0 ee 27 1e bd 74 f6 69 3e 80 ef d4 3d 4f f8 e1 3d
       -0.0386123 0.2284792 0.103972435 0.11033689
0001d0 7e 9f 81 bd 5a 33 bf bd 84 a5 a2 bd fc 7f 61 3e
       -0.06329249 -0.093359664 -0.07941726 0.22021478
0001e0 cf f8 0b 3b 29 b2 bd 3d 18 3a 9b bd e3 53 46 3e
       0.0021358018 0.09262497 -0.0757944 0.19367938
0001f0 a6 dd 6e 3e 7a f5 62 3b d3 fb fc 3c d8 06 18 3e
       0.2332674 0.0034631179 0.030881798 0.1484636
000200 b4 16 c9 3d 92 61 14 3b 2b da d3 3c 53 00 7a bc
       0.098187834 0.0022641164 0.025860867 -0.015258866
000210 26 60 88 bc 28 94 3c 3d 8e e1 c5 bd 02 69 37 3e
       -0.01664741 0.04603973 -0.09662162 0.17911151
000220 c7 86 53 3d 38 92 e5 bd a0 57 2b 3c 6b f9 ad bd
       0.051642206 -0.1120953 0.010457903 -0.08494838
000230 34 fd f5 bd 81 e5 a6 3c cd b5 15 3e 22 98 2b be
       -0.12011185 0.020373108 0.14620133 -0.16757253
000240 5d 63 ab 3d 45 de e5 3d 64 1a b6 3d 10 27 a2 bd
       0.083685614 0.11224035 0.08891752 -0.07917607
000250 0d 46 22 3d 87 5c b7 bd 46 55 48 bd dc 5e 92 3c
       0.039617587 -0.08953195 -0.048909448 0.017867498
000260 c4 c7 d7 bd 93 b5 d2 bc 77 32 f2 3d c4 21 b4 bd
       -0.10536149 -0.025721347 0.11826032 -0.08795503
000270 13 94 a2 3d 26 94 1c 3d ac 52 26 bd 89 47 9e 3d
       0.07938399 0.038227223 -0.040606186 0.07728488
000280 50 5a 16 3d 97 c0 db 3d c8 88 08 3e 98 3c ca bc
       0.036707222 0.10730093 0.13333428 -0.024687096
000290 6c 42 9b 3e d2 cd b9 3d b0 39 15 3e bb a3 43 3c
       0.30324113 0.0907246 0.14572787 0.011940892
0002a0 8b 46 a9 bd b2 0f 76 bb 66 b8 4d 3e f3 07 26 3d
       -0.08265408 -0.0037545976 0.20089874 0.040534925
0002b0 da e0 46 be c4 b8 16 3e f4 7d 90 bd fe 86 30 3d
       -0.19421712 0.1471892 -0.07055274 0.04309749
0002c0 7a 78 cf 3d aa 94 b1 3c d2 02 30 3e 9b 02 5d 3e
       0.10130401 0.021677334 0.17188576 0.21583025
0002d0 1a cc ab 3c 13 8c 13 be 1b 5b d6 bd 7c be a4 3e
       0.020971347 -0.14408903 -0.10466596 0.32176578
0002e0 64 e9 c6 3d ed af d9 3d 8c 3b ea 39 f7 28 d6 bd
       0.097124845 0.10629258 0.00044676324 -0.10457032
0002f0 4b 4a b8 3d 85 f4 03 be d8 50 b9 bc af 4b a7 3d
       0.08998545 -0.12886246 -0.022621557 0.081687324
000300 a4 2e 30 be 31 52 a6 3e 2c 23 53 3c ae c2 ee 3d
       -0.17205292 0.32484582 0.012886804 0.11658226
000310 74 84 9a bd 76 e6 07 bf 4c 7c c5 3e bc cf 3c 3d
       -0.07544795 -0.5308603 0.38571393 0.04609655
000320 bd e9 0a 3d f0 18 65 3c 17 0a 0a 3e 5a ed cb 3d
       0.033914316 0.013982996 0.13480411 0.099573806
000330 51 08 04 be 11 9b c7 bd 98 56 26 3c a0 3f 8b be
       -0.12893797 -0.097463734 0.0101524815 -0.2719698
000340 04 bc 0d be 64 8f f5 bc a5 33 09 bd 80 81 ff 3d
       -0.13841254 -0.0299756 -0.033496518 0.12475872
000350 94 ad 33 be d8 ee 51 3d 02 30 80 be c6 75 f8 3d
       -0.17546684 0.05125317 -0.25036627 0.121318385
000360 20 69 56 3d c9 b4 82 be d3 a4 37 be d2 e3 ed 3d
       0.05234635 -0.25528553 -0.17933969 0.11615719
000370 c7 f2 ed bb b4 02 09 3e dc 7e 39 3d 8e aa 87 bd
       -0.0072616073 0.13379937 0.045287 -0.066243276
000380 3c 1e 45 3e 21 d9 93 3d db f6 34 bd a9 13 2b 3d
       0.19249815 0.072191484 -0.044180732 0.041766796
000390 f7 50 c7 be 1c f5 3f 3d 6e 42 6f bd f3 af 90 bd
       -0.3892896 0.046864614 -0.05841296 -0.0706481
0003a0 59 0c 9e 3e fd 1c d4 bd b2 e2 47 be 24 7f 3a 3c
       0.30868796 -0.103570916 -0.19520071 0.011382852
0003b0 50 08 7d 3e f9 5d 80 bd d6 6a b1 3e 6c 53 66 3e
       0.24710202 -0.06267924 0.34651822 0.2249276
0003c0 40 03 d2 bd b8 ae 2b be 3d 8f 92 be 86 96 17 3f
       -0.10254526 -0.16765869 -0.28624907 0.59214056
0003d0 0a f3 0d be ce 3c 13 bd 7d 77 90 3d 4d a7 58 be
       -0.13862243 -0.03594666 0.070540406 -0.2115757
0003e0 5d 21 eb bd 38 81 87 be 61 ec b7 b7 90 5d 98 3b
       -0.11480973 -0.26465774 -2.1925372e-05 0.0046498254
0003f0 62 23 52 be 26 ec 02 3e 05 67 65 bd 3e d4 12 bf
       -0.2052131 0.12785396 -0.05600645 -0.57355106

fc2.bias f4 [64]
000000 07 bb 33 3f 3e cf 73 be 2c ae 0f 3f 92 64 28 bd
       0.70207256 -0.23809525 0.5612514 -0.041111536
000010 b3 64 db bd e7 2d 8c 3d 26 4f 7e 3d 7f 31 94 3d
       -0.10712566 0.06844693 0.0620872 0.07236003
000020 43 b3 3e 3e 09 03 a7 bd e4 8b 98 3e d2 f6 aa bd
       0.1862307 -0.08154876 0.29794228 -0.083478585
000030 c2 cc 79 3d a4 d4 8a bd 15 ad 15 be d8 3c a7 3d
       0.060986288 -0.06778839 -0.14616807 0.08165902
000040 25 96 26 be 64 4a b8 3e a6 90 e7 bd c9 cd 53 3e
       -0.16268213 0.35994256 -0.113068864 0.2068397
000050 41 6c 8d bd 2d f4 e1 bd d9 6c 02 3c 51 17 33 3f
       -0.069054134 -0.11032901 0.007960522 0.69957453
000060 ce 14 22 3f 9c 1d 26 be 5d 1c f1 3d 7f d2 fa 3d
       0.63312995 -0.16222233 0.11772988 0.1224718
000070 12 b1 46 be bc e6 b8 bd 31 e5 e2 3d 77 a9 16 be
       -0.19403484 -0.09028384 0.11078871 -0.14713083
000080 5f f9 70 bd f8 5a 82 3e 9d 72 a6 bd c7 82 56 be
       -0.05883157 0.2546003 -0.081273295 -0.20948325
000090 7f fe 0e 3f d6 ca ab 3d b9 fe 0e 3f 1a 4e e9 bc
       0.5585708 0.08388297 0.55857426 -0.028479625
0000a0 04 15 be 3e 63 be 01 be 40 fd d2 bd 56 bf 2e 3f
       0.3712541 -0.12670283 -0.1030221 0.68260705
0000b0 65 cb f5 3e 02 60 31 3f c1 23 1c 3e bf 74 e7 3e
       0.4800674 0.6928712 0.15248014 0.45206258
0000c0 19 f5 8c 3d 65 db ee 3c 11 ad cb bd 46 b3 b3 3d
       0.06882686 0.02915735 -0.09945119 0.08774428
0000d0 ce 95 99 be 4d 30 37 be 70 42 c3 3d 92 37 7b be
       -0.29997104 -0.17889519 0.09534156 -0.24532917
0000e0 8a 11 59 3e ab 99 0a be 9c a6 73 3d 8f c7 eb bd
       0.21198097 -0.13535182 0.059485063 -0.11512672
0000f0 af 15 9b 3d 95 19 81 be b3 75 2b 3c 3a ae f4 3e
       0.07572495 -0.2521483 0.010465073 0.47789174

fc3.weight f4 [4, 64]
000000 06 a0 82 3e 99 b1 0b be ed e3 4d 3e c9 d3 06 3f
       0.25512713 -0.13641967 0.20106478 0.5266691
000010 19 cd 71 3c f8 74 41 bd 32 ea 19 3f f7 ea 64 3e
       0.014758372 -0.04723069 0.6012298 0.22355257
000020 27 19 81 3e 70 2e 4a be 51 13 e1 3d f4 f6 49 be
       0.25214502 -0.19744277 0.109900124 -0.19723111
000030 d2 8c 35 bf a7 58 ca 3d 06 0d 8a bd eb 9d 50 3d
       -0.70918 0.0988019 -0.06740765 0.050931852
000040 33 75 e7 3e e8 32 79 3e 9e f0 0d 3e e0 7f 37 3e
       0.45206603 0.24335825 0.1386132 0.17919874
000050 b4 20 15 3e 8b 06 ca bd 71 81 b1 be 2d 6e 74 3e
       0.14563257 -0.09864529 -0.34669068 0.23870154
000060 1f 1b 47 3e ca ba f9 3d 6d 8b 9e 3e d2 25 88 3d
       0.1944394 0.1219383 0.30965748 0.06647839
000070 79 e9 60 be 1f 37 00 3f 62 4b 1f 3c c8 25 80 39
       -0.21964063 0.5008411 0.0097225625 0.00024442212
000080 46 f9 b9 3c 7e 5f 6f 3e dc e6 e8 3d f0 16 cc be
       0.02270187 0.23376271 0.11372158 -0.3986125
000090 85 8d 82 3e 75 b5 9d 3e 98 2a 15 3e 00 c3 55 be
       0.25498596 0.30802503 0.1456703 -0.20875168
0000a0 cd 37 2f 3e 1f b4 25 3f 36 b4 d5 3c e8 3e 71 3e
       0.1711113 0.6472797 0.026086908 0.23559153
0000b0 03 1a 49 3e 0a 53 60 3e d7 b2 63 3e 12 22 98 3e
       0.19638829 0.21906677 0.2223619 0.29713494
0000c0 ab b8 1e 3c c0 39 c1 be 2f 85 c3 be 48 35 fc 3d
       0.009687583 -0.37739372 -0.3818755 0.1231485
0000d0 76 19 86 be d3 f0 da bd ac 08 db 3e fc 9c 80 bd
       -0.261913 -0.10690465 0.42780054 -0.062799424
0000e0 70 2a bc 3d 4b f0 2f be e3 ff 37 3e df 99 b7 3c
       0.09187782 -0.17181508 0.17968707 0.022412239
0000f0 8c 21 3c 3e a3 27 99 be cd 4e df 3d d8 8a ef 3d
       0.18372172 -0.29913053 0.10903702 0.11696404
000100 4e ba 8a 3e 68 01 8a 3d 4b 88 66 3e f9 58 e7 3e
       0.27095264 0.067385495 0.22512929 0.45185068
000110 fe cf 0a 3e 76 a3 1b 3c d5 fc 17 3f 0b 0c 03 3e
       0.13555905 0.009499421 0.59370166 0.12797563
000120 f8 c1 a1 3e 02 95 36 be 26 72 25 3e 67 b6 17 be
       0.315933 -0.1783028 0.16156825 -0.14815675
000130 a6 4a 8a 3e 2c 07 c9 bc 17 66 2d bd 71 4b f5 3d
       0.27010077 -0.024539553 -0.04233369 0.1197728
000140 ca e3 e0 3e c8 46 52 3e 09 b3 d5 bd 36 44 1e 3e
       0.4392379 0.20534813 -0.10434539 0.15455708
000150 c5 50 02 3e ef ac 6a bd e7 14 b2 be 24 10 49 3e
       0.12726124 -0.05729383 -0.34781572 0.19635063
000160 67 67 4c 3e 32 9b b7 bd 32 c2 84 3e 87 82 03 3e
       0.1996132 -0.08965148 0.2592941 0.12842761
000170 29 22 d5 bd 6a 02 10 3f c3 38 3f 3d 44 fb 6f 3c
       -0.10406906 0.56253684 0.04668499 0.014647309
000180 33 a4 62 bd dd 10 3e 3e 03 9a 0d 3e 8f 1d bb be
       -0.055332374 0.1856112 0.13828282 -0.3654599
000190 aa 15 40 3e 81 3a 9e 3e c2 5b 39 3e 0a 73 cf bd
       0.18758264 0.3090401 0.18101409 -0.10129364
0001a0 42 08 9e 3d 7e 11 1c 3f 25 64 8c 3e 43 22 65 3e
       0.07716419 0.6096419 0.27420154 0.22376351
0001b0 83 9c 02 3e 67 5d 55 3e 96 db 31 3e 40 40 8a 3e
       0.12755017 0.20836411 0.17368922 0.27002144
0001c0 5d 81 01 bc 1a 43 eb bd f9 18 ab bd 4b 3d ca 3d
       -0.007904378 -0.11487408 -0.083543725 0.09874972
0001d0 16 e3 5a be c0 75 d0 bd 65 e3 0e 3f 7e 41 1c be
       -0.21375689 -0.10178709 0.55815727 -0.15259358
0001e0 ac c1 ab 3d d3 ed 4f be 06 42 60 3e 19 4e 2d 3d
       0.08386549 -0.20305566 0.21900186 0.042310808
0001f0 33 da 92 3e c8 a9 49 be 06 b4 88 3d 56 1a 2c 3e
       0.28682098 -0.19693673 0.06674962 0.16806921
000200 a3 82 7a 3e ed 94 72 bc 11 04 04 3e 35 2d 37 3e
       0.24463896 -0.0148060145 0.12892176 0.17888339
000210 96 b6 f3 3d ad 07 c7 3d 5f 28 08 3f d5 ff 36 3e
       0.1190006 0.09718261 0.531866 0.1787103
000220 6e 58 06 be 2f e9 ba bc 25 32 87 3e c0 43 c5 3b
       -0.13119671 -0.022816269 0.26405445 0.0060200393
000230 63 f2 5b be e2 c7 1b be d7 a6 a3 3e 9d ee c8 3d
       -0.21479182 -0.15212968 0.31963226 0.09811137
000240 b1 69 19 3f 76 cb 07 3e f4 c2 01 3f 68 ee db 3d
       0.599269 0.13261208 0.506881 0.10738832
000250 70 d3 8e 3e 1a aa ef 3d 0c 7a 31 bf ac 00 87 3e
       0.2789569 0.11702366 -0.69326854 0.263677
000260 97 3e 8a 3e 8a b5 db 3b d4 6a 39 3e 21 7e 93 3e
       0.27000877 0.0067049908 0.18107158 0.28807166
000270 08 1d 4a be 65 af 36 3f f4 d5 86 be 42 44 b3 bd
       -0.19737637 0.7136138 -0.26335108 -0.087532535
000280 4a cd d8 3e 56 9e 1a 3e d4 bb 86 be 93 45 3c be
       0.42344123 0.15099463 -0.26315176 -0.18385915
000290 4a 87 2e 3e 20 64 0f be 6a 93 76 3e 79 2c aa bd
       0.17043796 -0.14003038 0.24079672 -0.08309264
0002a0 2f 67 9a 3d 7d 88 96 3e 10 0d c9 3e 73 d0 31 3e
       0.07539212 0.29401007 0.39267778 0.17364673
0002b0 51 e6 57 3e 59 1e 66 3e 13 c1 10 3e 7c ae d0 3d
       0.21083952 0.22472514 0.14136152 0.1018953
0002c0 e0 82 d1 bd 0a 87 5a be 3c 6e 7d be 38 f8 8a 3d
       -0.102300406 -0.21340576 -0.24749082 0.06785625
0002d0 61 01 08 bc 23 b7 9f be 57 9c 13 bf 17 14 f7 be
       -0.00830111 -0.3119441 -0.5766043 -0.48257515
0002e0 2e bc 80 3e 01 52 41 3d ab b7 98 3c 0a 0e fe 3c
       0.2514357 0.047197346 0.018642267 0.031012554
0002f0 72 40 d7 3e 61 d8 e5 ba 40 08 d1 3d 94 0e 02 3e
       0.42041355 -0.0017535799 0.10206652 0.12700874
000300 f9 30 32 3e 61 b7 2e 3d 64 a2 15 3e 70 5f 01 3f
       0.17401494 0.042655353 0.14612728 0.5053625
000310 56 3b 8f 3e ea 02 6f 3e 1d 4c 08 3f 31 84 97 3e
       0.27974957 0.23340955 0.5324114 0.29593042
000320 8e fd 62 bb 3c 6b 37 be aa bf 3f 3e 3a b8 3f be
       -0.0034635994 -0.17912 0.18725458 -0.1872262
000330 9d 52 15 be 95 b1 df be 43 42 6a 3e 36 9a d9 3e
       -0.14582296 -0.43690172 0.2287684 0.42500466
000340 22 bb 89 3e 40 d1 5a 3e 6b c1 3d be 88 dd 49 3e
       0.26900584 0.21368885 -0.18530814 0.19713414
000350 81 1e b7 3d 8a 4f 4f be 88 ec dd be b6 10 8d 3e
       0.08941365 -0.20245185 -0.43344522 0.27551812
000360 10 1c 04 3e 16 c2 f0 bc 2e 14 1a 3e 96 2c f7 3d
       0.1290133 -0.029389422 0.1504676 0.12069051
000370 82 47 48 3e 61 c8 0b 3f 88 2a b0 3e 98 92 7e bd
       0.19558528 0.5460263 0.3440745 -0.06215152
000380 14 78 93 3e 80 cc 52 bd e1 b1 ea 3d 79 ea c2 3d
       0.2880255 -0.051464558 0.11459709 0.09517378
000390 b7 b7 36 3e ed 4f 0e 3d a4 88 61 3e be 3f 89 be
       0.17843519 0.034744192 0.2202478 -0.26806444
0003a0 86 f5 19 3e 6d c6 75 be 02 28 fe bd 61 3b 60 3e
       0.15035066 -0.24001475 -0.12409975 0.21897651
0003b0 4f 37 23 3e dd fc 82 3e 5a 1c 9d 3e 6e 84 ae 3e
       0.15939067 0.25583544 0.30685693 0.3408541
0003c0 95 a3 08 bf af 59 76 bd 1f 78 00 bf c5 8a 4d 3e
       -0.53374606 -0.060144123 -0.5018329 0.20072468
0003d0 d9 02 cb 3d 91 39 ef bd 68 65 a6 3e bb 64 7d be
       0.099126525 -0.11680902 0.32499242 -0.24745457
0003e0 7b 19 e6 3d 5d a9 9c 3d 3f db 89 3e b4 8a 27 3d
       0.11235329 0.07649491 0.26925084 0.040903762
0003f0 8a 0d d3 3d 37 60 af be 38 71 3c 3e e6 d9 38 3e
       0.10305317 -0.34253094 0.18402565 0.18051872

fc3.bias f4 [4]
000000 31 42 c3 3e 51 51 eb 3e 8e c2 e0 3e ba 0c e1 3e
       0.38136438 0.45960477 0.43898433 0.43955022
