Continious_Control/checkpoint_critic.pth (torch_old, 92470 bytes, 13 tensors)

fcs1.weight f4 [128, 33]
0	0x3d26f0ed	0.04075711
1	0xbcc3c566	-0.023897838
2	0xbe070c7f	-0.1318836
3	0x3e156ccd	0.14592285
4	0xbe9527de	-0.2913198
5	0xbdcbf174	-0.09958163
6	0xbd00dcc4	-0.03146054
7	0x3dc6ee9b	0.09713479
8	0xbe2638eb	-0.1623265
9	0x3cba1756	0.022716206
10	0xbcc25d37	-0.023726089
11	0xbd9517d0	-0.072799325
12	0xbd06275d	-0.032752384
13	0x3d02342e	0.031788044
14	0x3c2c13bc	0.010502752
15	0x3d8adcf2	0.06780423
16	0x3e2065c7	0.15663825
17	0xbd800bee	-0.062522754
18	0xbe927f3c	-0.28612697
19	0xbe299442	-0.16560462
20	0x3cf2bc77	0.029630883
21	0x3ccccb96	0.024999421
22	0x3d7e4df1	0.06208605
23	0xbdf287b6	-0.11842291
24	0x3b42d813	0.002973084
25	0xb9065cff	-0.0001281388
26	0x3cd70cb3	0.026251173
27	0xbd3fd3e5	-0.046832938
28	0xbc82b476	-0.015955191
29	0x3d51443a	0.051090457
30	0x3d8a8ad9	0.06764764
31	0xbc130b68	-0.008974887
32	0x3f3be199	0.7339111
33	0x3da515b8	0.08060783
34	0xbe73eb51	-0.23820235
35	0x3d3b83eb	0.045780104
36	0x3dbd419a	0.09241028
37	0xbe08845b	-0.1333174
38	0xbe9562c2	-0.2917691
39	0x3c9cfa8b	0.019162437
40	0x3d202693	0.039099287
41	0x3b827431	0.0039811363
42	0x3d6d349f	0.05791151
43	0xbd9cd19e	-0.07657169
44	0xbd9ea701	-0.07746697
45	0x3d506c0e	0.0508843
46	0xbc268b40	-0.010165036
47	0x3dfc3111	0.12314046
48	0x3c80b963	0.0157134
49	0xbdde56b9	-0.10856385
50	0xbe831385	-0.2560083
51	0x3d75adc5	0.059980173
52	0xbe526f43	-0.20550255
53	0xbc33b5ee	-0.010968668
54	0xbb8505ac	-0.004059514
55	0xbcc67612	-0.024226222
56	0x3c1c3f30	0.009536549
57	0x3db8fc89	0.09032542
58	0x3d1b0bac	0.037852928
59	0xbd5f297f	-0.054482933
60	0x3dd38ed4	0.10329977
61	0xbc49e3d2	-0.012322383
62	0xbbcb7be0	-0.0062098354
63	0xbd44e1cb	-0.048066895
64	0x3d67767e	0.056509487
65	0xbe221ae0	-0.15830564
66	0xbd9fb092	-0.0779735
67	0xbd8684fb	-0.06568333
68	0xbd182ced	-0.03715222
69	0xbec19e33	-0.3781601
70	0xbd910758	-0.07081479
71	0x3ddd09e1	0.107929
72	0xbdd18f8b	-0.10232457
73	0xbc456f98	-0.012050532
74	0xbdbb315f	-0.09140276
75	0x3d031722	0.032004483
76	0xbc6304db	-0.013856138
77	0x3ae0d5bd	0.0017153543
78	0x3b57af3e	0.003291085
79	0x3d7d4b6d	0.06183951
80	0x3d337c5d	0.043819774
81	0x3c91c323	0.017793244
82	0xb9859180	-0.00025476143
83	0x399c6b5a	0.00029834622
84	0x3eb46cad	0.35239163
85	0x3bd8618e	0.0066034263
86	0x3b3026bb	0.0026878554
87	0xbbeb5c49	-0.007182632
88	0x3b83c2cf	0.0040210257
89	0x3ca43a67	0.02004738
90	0xbb718e59	-0.0036858527
91	0x3bcaa9df	0.006184801
92	0xbdb0611e	-0.08612274
93	0xbab0c11d	-0.0013485287
94	0xbcd5fe79	-0.026122319
95	0x3d4d452e	0.050114803
96	0x3d7298f8	0.059227914
97	0xbbe3e950	-0.0069553033
98	0x3f1a34ce	0.60236824
99	0x3d99350f	0.07480823
100	0x3cdb0b8e	0.026738908
101	0xbd9418a6	-0.07231264
102	0x3bc1d67a	0.00591546
103	0xbe5b9f07	-0.21447383
104	0xbe40bd3b	-0.18822186
105	0xbcd646cd	-0.026156807
106	0xbd384c42	-0.0449946
107	0x3da0263c	0.07819793
108	0x3d49a09b	0.04922543
109	0x3cf45b94	0.029828824
110	0xbb278b66	-0.0025565266
111	0xbcd5f7da	-0.026119161
112	0x3d1d2679	0.03836677
113	0x3cfa36bb	0.030543676
114	0xbb08e9c1	-0.0020891281
115	0x3e7eb8c5	0.24875171
116	0xbd2c5a7c	-0.04207848
117	0x3e728ea9	0.23687233
118	0xbe04964d	-0.1294796
119	0x3e865f95	0.26244798
120	0x3ccdb63f	0.025111316
121	0x3be95e3d	0.00712183
122	0xbcb40192	-0.021973405
123	0xbaac49f5	-0.00131446
124	0xbc9dc417	-0.019258542
125	0xbd42cd0d	-0.047558833
126	0xbe1c6d58	-0.15276086
127	0x3df28698	0.11842078
128	0xbca6c5c4	-0.020357974
129	0x3d147d00	0.03625202
130	0x3d72adee	0.059247904
131	0x3de8a6f7	0.11359971
132	0x3e10ed73	0.1415308
133	0x3c1dce0b	0.009631644
134	0xbdffce1f	-0.12490486
135	0x3c4d0017	0.012512228
136	0xbda5de52	-0.08099045
137	0x3ddd5d14	0.10808769
138	0x3e0b222a	0.13587251
139	0xbcb47455	-0.022028128
140	0xba2f3ea5	-0.0006685055
141	0xbdee2bac	-0.116294235
142	0x3d249d08	0.04018882
143	0x3b5a5a61	0.003331803
144	0xbd18fd9c	-0.037351236
145	0xbe37e5ae	-0.1795871
146	0x3dad5736	0.084639
147	0x3dca79bf	0.098865025
148	0xbda27270	-0.079319835
149	0xbcd347d9	-0.025791096
150	0x3cf7c4d0	0.030245215
151	0xbd998fc1	-0.07498122
152	0xbbc83089	-0.0061093015
153	0x3a3595b0	0.0006926907
154	0xba11c2dd	-0.0005560348
155	0xbc15c046	-0.00914008
156	0x3cf6c41f	0.030122815
157	0x3cbc40e6	0.022980165
158	0x3e0cf009	0.13763441
159	0x3b689eff	0.003549516
160	0xbd0cd84c	-0.034385964
161	0x3ce18668	0.02752991
162	0xbd4a9bdf	-0.049465057
163	0x3d7ac44a	0.061222352
164	0x3e4727eb	0.19448821
165	0xbda3d5a5	-0.07999734
166	0xbdcc49a1	-0.09974981
167	0xbe1f7075	-0.15570243
168	0xbe3f1043	-0.18658547
169	0xbe2e36df	-0.17013119
170	0xbe1429fa	-0.14469138
171	0x3d83e85b	0.06440803
172	0xbd4a2948	-0.049355775
173	0xbe8db4a3	-0.27676877
174	0xbd236248	-0.03988865
175	0xbda665d3	-0.0812489
176	0xbd7cfef8	-0.061766595
177	0xbdbc42d6	-0.091924354
178	0xbdc41e58	-0.095761
179	0x3db943ef	0.090461604
180	0xbd94bf44	-0.072630435
181	0x3e100cf1	0.14067437
182	0xbe7da8ac	-0.24771374
183	0xbdf240a2	-0.11828734
184	0x3e274dbf	0.16338252
185	0xbc16aa0f	-0.009195819
186	0x3d8d23f6	0.06891625
187	0x3d122317	0.035677996
188	0xbabdfd92	-0.0014495126
189	0xbcd9e822	-0.026599947
190	0xbd02c2b1	-0.031923953
191	0x3d9eb420	0.077492
192	0x3ceab8e3	0.028652614
193	0x3d15b3e8	0.036548525
194	0x3c858284	0.016297586
195	0xbb4163a4	-0.0029508853
196	0xbcd712a0	-0.026253998
197	0x3dfb0311	0.12256444
198	0xbd950c1b	-0.072776996
199	0xbd4e9ad2	-0.050440617
200	0x3d3d898e	0.04627376
201	0xbe1d57d1	-0.1536553
202	0x3e1cea11	0.15323664
203	0xbcf083f3	-0.029359793
204	0x3d490fe3	0.049087416
205	0xbcaa3e6c	-0.020781718
206	0xbe14ba59	-0.14524211
207	0xbae86610	-0.0017730612
208	0xbdd46669	-0.10371096
209	0x3c32ab42	0.010905089
210	0x3d451a56	0.04812082
211	0x3cfce34c	0.030870102
212	0x3d1a0dca	0.037610807
213	0x3d6b2f83	0.057418358
214	0xbec700f4	-0.38867915
215	0x3c0c83d1	0.008576349
216	0xbd09ccc9	-0.033642564
217	0xbb930dba	-0.0044877203
218	0x3b3fda2a	0.0029274323
219	0x3beec877	0.007287081
220	0x3c8a1b3f	0.016858695
221	0x3bf4251d	0.0074507133
222	0x3c527a6a	0.012846569
223	0x3c11d1fd	0.008900163
224	0x3c9b7934	0.018978693
225	0x3e7c14cb	0.24617307
226	0xbe3177d7	-0.17330872
227	0xbd8b4c47	-0.06801658
228	0xbdfcc8e1	-0.12343002
229	0x3cd1af60	0.02559632
230	0x3ee92aa6	0.4554035
231	0xbd261ff7	-0.040557828
232	0x3ce36dde	0.02776235
233	0x3ccb8ada	0.024846483
234	0xbd40e0a1	-0.047089223
235	0x3e67603b	0.22595303
236	0xbe3dd72c	-0.18539113
237	0xbdb62c66	-0.08895187
238	0x3d525221	0.051347855
239	0x3d6434d3	0.05571444
240	0xbdf9ab2b	-0.12190851
241	0x3d65dc5f	0.056118365
242	0xbcf9aa55	-0.030476728
243	0xbc7108e9	-0.014711597
244	0x3d586d68	0.052838713
245	0x3b8427d0	0.0040330663
246	0xbcba441d	-0.022737557
247	0xbdc023ca	-0.09381826
248	0x3df650a9	0.120271035
249	0xbd7358bb	-0.05941079
250	0xbd111cd3	-0.03542788
251	0x3c25e5e3	0.01012561
252	0x3cf71deb	0.030165633
253	0xbbcd7f3f	-0.0062712724
254	0x3dd06d19	0.10177059
255	0xbc9b650d	-0.018969083

fcs1.bias f4 [128]
0	0x3e230f64	0.1592384
1	0x3e0d4351	0.1379521
2	0x3b5acdca	0.003338682
3	0x3dd8dd47	0.1058908
4	0xbc8a6416	-0.016893428
5	0x3aacf683	0.0013196025
6	0x3b206468	0.002447391
7	0xbe72c8cc	-0.2370941
8	0xbe69a741	-0.22817709
9	0xbd9558d0	-0.0729233
10	0xbe666d60	-0.22502661
11	0xba4dcab8	-0.0007850337
12	0x3e56952c	0.20955342
13	0xbd85c630	-0.06531942
14	0xbe394ad4	-0.18094951
15	0x3df950f0	0.12173641
16	0x3c59423f	0.013260423
17	0xbd186fe4	-0.037216082
18	0xbe4359f9	-0.1907729
19	0x3da263d1	0.07929195
20	0xbe7b0b8e	-0.24516127
21	0xbe4411f6	-0.19147477
22	0xbe6e45ff	-0.23268889
23	0xbdbba1ce	-0.09161721
24	0xbb5f208f	-0.0034046506
25	0xbc83fd7c	-0.016112082
26	0xbe5bc466	-0.21461639
27	0xbd68c3fd	-0.056827534
28	0xbe79bedc	-0.24389213
29	0x3e66c298	0.22535169
30	0xbd8ed5d7	-0.069743805
31	0xbe398968	-0.18118823
32	0x3db80d6f	0.08986937
33	0x3cd3b03c	0.025840871
34	0x3c255cec	0.010092955
35	0x3ddd49fb	0.10805126
36	0xbe5f79d1	-0.21823813
37	0x3d495e0e	0.049161963
38	0xbe8bc124	-0.27295792
39	0xbdf2d219	-0.11856479
40	0xbd4ff19a	-0.05076752
41	0xbd52e76c	-0.051490232
42	0xbd5bec67	-0.053692248
43	0x3cb2f26e	0.021844115
44	0xbe293cf0	-0.16527152
45	0x3ce3fd91	0.02783087
46	0xbdfcd7ad	-0.123458244
47	0x3df36aa2	0.11885573
48	0xbcbe6637	-0.0232421
49	0x3e355c1a	0.17710915
50	0x3e371a74	0.17881185
51	0x3dec7c25	0.11547116
52	0xbcc68f53	-0.024238264
53	0xbe9282e7	-0.28615496
54	0x3e76eeb6	0.24114498
55	0x3ce29539	0.027659046
56	0x3bbedb99	0.005824518
57	0xba0a3dcb	-0.000527349
58	0x3df28dfa	0.11843486
59	0xbe5d2540	-0.21596241
60	0x3e1c2099	0.1524681
61	0x3de455f5	0.111492075
62	0xbe3c47d9	-0.18386783
63	0xbe0c82db	-0.13721792
64	0xbe97894c	-0.29596937
65	0xbe120ff5	-0.142639
66	0x3e31248c	0.17299098
67	0xbdae6ba1	-0.08516622
68	0xbdba6764	-0.091017514
69	0xbe03eaeb	-0.12882583
70	0xbe81b562	-0.25333697
71	0xbdc3af74	-0.095549494
72	0x3c085dc9	0.008323141
73	0x3d9660e6	0.07342701
74	0x3ce5a1d2	0.028031264
75	0xbe599882	-0.21249583
76	0xbca87a31	-0.020566078
77	0xbe534315	-0.20631059
78	0x3dd3b967	0.10338097
79	0xbdf6131f	-0.12015366
80	0xbdf33000	-0.1187439
81	0xbe115a52	-0.1419461
82	0x3e3d7ebb	0.18505375
83	0x3de23c0f	0.110466115
84	0x3cb5cecd	0.022193337
85	0xbe7f672f	-0.24941705
86	0x3ca184c9	0.019716637
87	0x3dd35e66	0.103207394
88	0xbc668450	-0.014069632
89	0x3e16ad09	0.14714445
90	0xbdcdb8f4	-0.10045043
91	0x3ddbdc47	0.10735374
92	0xbe22ff0e	-0.15917608
93	0xbdb57901	-0.0886097
94	0x3d968cdf	0.07351088
95	0xbdbc1496	-0.09183614
96	0x3d1ebc54	0.038753822
97	0xbd361553	-0.04445393
98	0x3e8a357a	0.26993924
99	0x3ceb08ac	0.028690659
100	0xbe86826d	-0.26271382
101	0x3db0d6f0	0.08634746
102	0x3d76e72c	0.060279056
103	0x3d4a9fd0	0.049468815
104	0xbd943317	-0.07236307
105	0xbc4d7b31	-0.012541578
106	0xbe0a73f0	-0.13520789
107	0xbe21026c	-0.1572358
108	0xbdd04169	-0.10168726
109	0xbe432e27	-0.19060574
110	0xbdbd086d	-0.09230123
111	0x3d98aa3a	0.07454343
112	0x3da338d3	0.07969823
113	0xbc443fe1	-0.011978121
114	0xbcbebb52	-0.02328268
115	0xbd69b152	-0.05705387
116	0x3e6978e6	0.22800025
117	0x3cdd0dc6	0.026984107
118	0xbe72da5b	-0.23716109
119	0xbc8b9c8c	-0.01704242
120	0xbe4a7f1f	-0.19775055
121	0x3e063b97	0.13108669
122	0x3df71767	0.120650105
123	0xbd6353e4	-0.055499926
124	0x3e0c03a2	0.13673261
125	0xbde9fdee	-0.11425386
126	0x3d9e8315	0.07739846
127	0x3dd62162	0.10455586

fc2.weight f4 [128, 132]
0	0xbdaee7a1	-0.085402735
1	0xbc1932c4	-0.009350482
2	0xbde531a5	-0.111911096
3	0xbd9f9cd6	-0.07793586
4	0x3d17eddd	0.03709208
5	0x3c357448	0.011075087
6	0x3dda4d84	0.10659316
7	0x3b5c1db5	0.0033587043
8	0x3cc3bd7b	0.023894062
9	0xbdf19e3a	-0.117977574
10	0x3d7832ec	0.060595438
11	0xbc73559d	-0.014851955
12	0xbde9ca4f	-0.114155404
13	0xbd18842d	-0.037235428
14	0x3dcf0719	0.10108776
15	0xbdbf5b4b	-0.093435846
16	0xbc6d61c5	-0.014488642
17	0xbc3475d9	-0.011014425
18	0x3c99d7b0	0.018779606
19	0xbddf4dcd	-0.10903511
20	0x3d1a43fc	0.03766249
21	0xbc65e24d	-0.014031005
22	0xbd60f668	-0.05492249
23	0x3d38f57b	0.045155983
24	0x3ce9109d	0.028450305
25	0x3cb7d598	0.022440717
26	0x3d5ad3d5	0.053424675
27	0xbc609a21	-0.013708622
28	0xbd2845fc	-0.041082367
29	0xbda95ee6	-0.082700536
30	0xbd859380	-0.06522274
31	0xbe04952b	-0.12947528
32	0xbdfff391	-0.124976285
33	0x3de30e66	0.11086731
34	0xbdb0fd24	-0.08642033
35	0x3ced874c	0.028995179
36	0xbd6f9890	-0.058495104
37	0xbd804933	-0.06263962
38	0x3ccadf73	0.024764752
39	0x3cfcfca7	0.030882193
40	0x3d23c8b8	0.039986342
41	0x3cf6e0e7	0.030136539
42	0x3d4ff7e4	0.050773516
43	0xbdcb58a1	-0.09929014
44	0xba01a00c	-0.00049448083
45	0xbd2fc294	-0.042910174
46	0xbc22d762	-0.009939047
47	0x3e295059	0.16534556
48	0x3b9a712c	0.004713198
49	0x3c77b223	0.015118155
50	0xbe6247b1	-0.2209766
51	0xbda5ed75	-0.08101932
52	0xbcf8274b	-0.030292174
53	0xbdb0b85d	-0.086289145
54	0xbd74f0fe	-0.05980014
55	0xbb40200d	-0.0029315979
56	0x3dc1f205	0.0946999
57	0xbdcde5e9	-0.100536175
58	0x3b31d359	0.002713403
59	0x3e5a36f0	0.2131002
60	0x3d63e3a3	0.055637013
61	0xbd6e575a	-0.058188774
62	0x3c2d78c6	0.010587877
63	0x3cb661b8	0.022263393
64	0xbd317fad	-0.04333465
65	0x3cbc1c13	0.022962606
66	0xbdc9501c	-0.09829733
67	0xbe143f56	-0.14477286
68	0x3d417c20	0.047237515
69	0xbdcff860	-0.10154796
70	0xbdbf8c13	-0.09352889
71	0xbd989832	-0.07450904
72	0x3de7d353	0.11319604
73	0xbdcaa2f1	-0.0989436
74	0x3ca167b8	0.019702777
75	0xbc30fd72	-0.010802614
76	0x3d904d15	0.07045952
77	0x3d8f2274	0.06988993
78	0x3c0a3759	0.0084360475
79	0x3d1af8a0	0.037834764
80	0x3d080638	0.033209056
81	0xbdfa4eac	-0.12222037
82	0x3c386cd7	0.011256418
83	0xbe34fafc	-0.17673868
84	0xbd563cf8	-0.052304238
85	0x3b0d6ea1	0.0021580833
86	0x3d2d593a	0.04232142
87	0xbda15663	-0.07877805
88	0xbdd5c253	-0.10437455
89	0xbcfa6180	-0.03056407
90	0xbc8ec01d	-0.017425591
91	0x3e0dc1cf	0.13843463
92	0xbd46e017	-0.048553552
93	0xbda787c5	-0.08180193
94	0x3d1fb813	0.038993906
95	0xbd840c70	-0.06447685
96	0xbdc4db52	-0.096121445
97	0x3c995c8a	0.018720884
98	0xba55fe90	-0.0008163238
99	0xbda0268e	-0.07819854
100	0xbd242e43	-0.04008318
101	0x3e03fcd7	0.1288942
102	0x3dacff2f	0.0844711
103	0xbd57f58e	-0.052724414
104	0xbd265331	-0.04060668
105	0xbe04f3f9	-0.12983693
106	0x3cb6fce4	0.022337385
107	0x3cde1a37	0.02711211
108	0xbe3d60cb	-0.18493955
109	0xbe34fe57	-0.17675148
110	0x3d42bee4	0.04754533
111	0xbe5d92cc	-0.2163803
112	0xbe04417e	-0.12915608
113	0x3c2d38b5	0.010572602
114	0x3d080df6	0.03321644
115	0x3ca597e9	0.020214038
116	0x3d744c56	0.059643112
117	0x3e18f062	0.14935449
118	0xbdbd7052	-0.09249939
119	0xbc7ea4aa	-0.015542189
120	0xbd90bd1e	-0.07067321
121	0x3d34a059	0.044098232
122	0xbd00bccd	-0.031430054
123	0xbda10d55	-0.07863871
124	0x3c36e805	0.011163716
125	0xbe0bca01	-0.13651277
126	0x3da219b7	0.07915061
127	0xbded167f	-0.115765564
128	0xbc8258ba	-0.015911449
129	0x3cc1c380	0.023652792
130	0x3d8fe477	0.07025998
131	0x3d69e2ee	0.057101183
132	0xbb7f6cc6	-0.0038974746
133	0xbdbd5255	-0.09244219
134	0xbdff7bde	-0.12474798
135	0x3d57e79a	0.052711107
136	0x3bc367ab	0.005963286
137	0xbd26ef10	-0.04075533
138	0x3bf67779	0.0075215665
139	0x3cab7261	0.020928564
140	0xbd98e1d2	-0.07464947
141	0xbe1246b6	-0.14284787
142	0x3d20d9c6	0.039270185
143	0xbd4333d0	-0.047656834
144	0xbd383b0a	-0.04497818
145	0x3cfbb044	0.030723698
146	0x3bde5a8d	0.006785697
147	0x3ccdbdc0	0.025114894
148	0x3c65c9a0	0.014025122
149	0xbb6419cb	-0.0034805413
150	0x3d7a1eef	0.061064657
151	0xbd2308af	-0.039803203
152	0xbd8de356	-0.069281265
153	0x3d79a3b9	0.060947154
154	0xbc033d4a	-0.008010218
155	0xbca70355	-0.020387331
156	0x3e3e1593	0.18562917
157	0x3e26df25	0.1629606
158	0x3e50ea8b	0.20401971
159	0xbc5d8c6a	-0.013522247
160	0xbd958d0a	-0.07302292
161	0x3d5c1a11	0.053735796
162	0x3db3b92f	0.08775555
163	0x3d9c3867	0.076279454
164	0xbc8ad67d	-0.01694798
165	0x3d381d8c	0.044950053
166	0xbd917f9b	-0.07104417
167	0x3cd6b6e8	0.026210263
168	0xbcbad100	-0.022804737
169	0xbba305cf	-0.0049750577
170	0x3d09f4e2	0.033680804
171	0xbe0f3acf	-0.13987277
172	0xbd8eddf7	-0.0697593
173	0xbc4be928	-0.0124457255
174	0x3ba1ee8d	0.0049417675
175	0xbc39c488	-0.011338361
176	0xbd7424ca	-0.059605397
177	0x3db543a2	0.088507906
178	0xbcf76ae5	-0.030202338
179	0xbde604e1	-0.11231399
180	0xbd5e0244	-0.05420138
181	0xbd842b5a	-0.06453581
182	0xbdfc5a4c	-0.1232191
183	0xbd689b9f	-0.056789037
184	0xbe2d4775	-0.1692179
185	0x3c54f0ee	0.012996895
186	0x3b07c2aa	0.0020715394
187	0xbae5b354	-0.0017524757
188	0x3dad9c42	0.084770694
189	0xbdd3cc8e	-0.1034175
190	0xbe08eb76	-0.13371071
191	0x3cefc7ad	0.029270018
192	0x3d371359	0.044696186
193	0xbe298c21	-0.16557361
194	0x3dcf5f51	0.10125602
195	0xbc6d7c33	-0.014494943
196	0xbe0fed2f	-0.14055322
197	0xbc662ac3	-0.014048281
198	0xbe1c6c0d	-0.15275593
199	0xbd36ef8e	-0.04466205
200	0xbe1ecffa	-0.15509024
201	0x3d026bf2	0.031841226
202	0xbd0c72ef	-0.034289297
203	0xbd955d52	-0.0729319
204	0xbc33656e	-0.010949476
205	0x3c3f2d18	0.011668466
206	0xbd0831fb	-0.03325079
207	0x3ca04318	0.019563243
208	0xbd5dfb4a	-0.054194726
209	0xbe227cd2	-0.15867928
210	0x3a2d3a3c	0.0006608104
211	0x3d49f704	0.049307838
212	0x3d036ef2	0.032088228
213	0x3d6c125a	0.05763469
214	0x3e1f9511	0.15584208
215	0xbdcc424a	-0.09973581
216	0x3949012c	0.0001916929
217	0xbd077c62	-0.033077605
218	0xbdf9eb01	-0.122030266
219	0xbd898d6b	-0.067164265
220	0xbe5c4150	-0.2150929
221	0x3c3c88f9	0.011507266
222	0x3d803636	0.0626034
223	0x3ce0b814	0.027431525
224	0x3d0c3554	0.034230545
225	0x3dad1457	0.08451145
226	0x3beefce1	0.007293329
227	0x3d3bc42c	0.04584138
228	0xbd952aaf	-0.07283532
229	0xbe1722e8	-0.1475941
230	0xbc3c98b0	-0.011511013
231	0xbe1dec36	-0.15422139
232	0xbe0669fb	-0.13126366
233	0xbc28cdbb	-0.010302956
234	0xbb0d5ec4	-0.0021571377
235	0xbd40267a	-0.046911694
236	0xbe2c1245	-0.16803844
237	0x3c4e6c30	0.012599036
238	0xbe33c44b	-0.17555349
239	0xbd23a8a1	-0.03995574
240	0xbd4a413f	-0.04937863
241	0xbdaf5ccc	-0.085626215
242	0xbe001d5d	-0.12511201
243	0x3d9ecb60	0.077536345
244	0x3d52c476	0.05145689
245	0x3e41c02e	0.18920967
246	0x3e3aeb8a	0.18253914
247	0xbe7fb829	-0.24972595
248	0x3d36756f	0.044545587
249	0xbd39ed20	-0.045392156
250	0x3dd26cd0	0.102746606
251	0xbc9c8d1a	-0.019110251
252	0xbd456963	-0.048196208
253	0x3cd0641e	0.025438365
254	0xbd23d3a3	-0.039996754
255	0xbe761e6e	-0.24035046

fc2.bias f4 [128]
0	0x3dd267ff	0.10273742
1	0xbe30d3d0	-0.172683
2	0x3e9c73ef	0.305572
3	0x3e8a699d	0.27033702
4	0xbe8164f5	-0.25272337
5	0x3d9bb1ab	0.07602247
6	0x3ee121df	0.43971154
7	0x3e17c891	0.14822604
8	0xbebee26f	-0.3728213
9	0xbe85a8b0	-0.2610526
10	0x3bfd422d	0.007728836
11	0xbe7ae693	-0.2450202
12	0xbe7d93cb	-0.2476341
13	0x3da0feef	0.07861125
14	0x3d1223bc	0.03567861
15	0xbea23c63	-0.31686696
16	0xbe4b7989	-0.1987058
17	0xbe50225a	-0.20325604
18	0xbe932a72	-0.2874332
19	0xbeba5d01	-0.3639908
20	0xbe430afc	-0.19047159
21	0x3da97221	0.082737215
22	0xbe5e586a	-0.21713415
23	0xbea90c5a	-0.33017236
24	0xbe9cc988	-0.30622506
25	0x3e8b783f	0.27240178
26	0xbe8a7ca0	-0.27048206
27	0xbe5b2396	-0.21400294
28	0xbe97e65e	-0.29667944
29	0x3e7d21ef	0.24719976
30	0xbe878108	-0.2646563
31	0x3eac3837	0.3363664
32	0xbcc75452	-0.0243322
33	0xbe0570c1	-0.13031293
34	0x3e256576	0.16151986
35	0xbe841d00	-0.25803375
36	0xbee224f2	-0.44168812
37	0xbd1f957e	-0.038960926
38	0xbdcbb925	-0.09947423
39	0xbe8945de	-0.26811117
40	0x3eb00e63	0.34385976
41	0x3e606ef9	0.21917333
42	0xbe25052d	-0.16115256
43	0xbea1924b	-0.31556925
44	0x3dc67253	0.09689774
45	0x3e7abcaf	0.2448604
46	0xbe97d9f8	-0.29658484
47	0xbed808cf	-0.4219422
48	0xbea8e7d3	-0.32989368
49	0xbe7b893d	-0.24564071
50	0x3d6de5f0	0.058080614
51	0xbe508b96	-0.20365748
52	0x3d4c39a6	0.049859665
53	0xbe84feba	-0.2597559
54	0x3df467c6	0.11933856
55	0xbe1fbf87	-0.15600406
56	0xbe0ec552	-0.13942459
57	0xbe68f1c0	-0.2274847
58	0xbde7f530	-0.11326063
59	0x3ebd1cf6	0.36936158
60	0xbe87ded0	-0.2653718
61	0xbe852efc	-0.2601241
62	0xbe618036	-0.22021565
63	0x3c79d641	0.015248836
64	0x3ec831a8	0.39100385
65	0xbe835aaa	-0.2565511
66	0xbe8bc70a	-0.27300292
67	0x3e00873f	0.12551592
68	0x3efbadcf	0.49156043
69	0x3e85f314	0.26162016
70	0xbe9601de	-0.292983
71	0x3ea78739	0.32720354
72	0xbda1d1c3	-0.07901337
73	0xbe2206a5	-0.15822847
74	0x3d5bd478	0.053669423
75	0xbeac6e2e	-0.3367781
76	0x3afa75cd	0.0019108594
77	0xbe47a3dd	-0.19496103
78	0x3ea68e92	0.32530648
79	0xbe7650ad	-0.24054213
80	0xbe185372	-0.14875582
81	0xbec7fbe2	-0.3905936
82	0xbe9f6c29	-0.31137207
83	0x3e870764	0.26372826
84	0xbe7a53b6	-0.24445996
85	0x3e2bc82f	0.16775583
86	0x3da973ce	0.08274041
87	0xbe2f916b	-0.17145316
88	0xbe8af97e	-0.27143472
89	0x3ec5b10d	0.38611642
90	0x3c2e201f	0.010627775
91	0xbe41d6cb	-0.18929593
92	0xbe66b1b7	-0.2252873
93	0xbe4cb9b6	-0.19992718
94	0xbed3d41d	-0.41372767
95	0xbeae1ef7	-0.34008
96	0xbeaf0d4d	-0.34189835
97	0xbe5e2367	-0.21693192
98	0x3e520833	0.2051094
99	0xbe87ec75	-0.2654759
100	0xbea54def	-0.3228602
101	0x3e921aa3	0.28535947
102	0xbea30a89	-0.31843975
103	0x3d8d6ff4	0.06906119
104	0x3e96ff8a	0.29491836
105	0xbe7a45be	-0.24440667
106	0x3dddec9e	0.10836147
107	0xbd5d02f9	-0.053957913
108	0x3b9f5bf9	0.004863259
109	0xbeb5f01f	-0.3553476
110	0x3e1cb300	0.15302658
111	0x3ec221af	0.37916324
112	0x3ebf711c	0.37390983
113	0xbe7f3436	-0.2492226
114	0x3e2d2134	0.16907197
115	0x3e88f826	0.26751822
116	0xbe03534f	-0.12824748
117	0x3e81774e	0.25286335
118	0x3e816016	0.2526862
119	0x3dc29e65	0.095028676
120	0xbe15d8d0	-0.14633489
121	0xbe816afd	-0.25276938
122	0x3e4995d2	0.19686058
123	0xbecf37f7	-0.40472385
124	0xbe96ff75	-0.29491773
125	0xbe53d1c1	-0.20685484
126	0xbea97ed7	-0.33104584
127	0x3e2754c9	0.16340937

fc3.weight f4 [1, 128]
0	0x3d45fe08	0.048337966
1	0xbdf1349c	-0.117776126
2	0x3d91fb18	0.071279705
3	0x3d95b02e	0.07308994
4	0xbdbef030	-0.09323156
5	0x3d910e42	0.070827976
6	0x3d79760a	0.060903586
7	0x3dce270a	0.1006604
8	0xbd906b82	-0.070517555
9	0xbd5d1d82	-0.05398322
10	0x3e13be12	0.14427975
11	0xbda462cd	-0.08026657
12	0xbda1361d	-0.078716494
13	0x3d9e6293	0.07733645
14	0x3e0d5abd	0.13804145
15	0xbde29875	-0.11064235
16	0xbd70763f	-0.05870652
17	0xbd9c6caf	-0.07637917
18	0xbde6bf01	-0.112669
19	0xbdadde6f	-0.084896915
20	0x3e43371f	0.19063996
21	0x3d50821f	0.050905343
22	0x3e10eafc	0.1415214
23	0xbe5d31f8	-0.21601093
24	0xbe27e319	-0.16395225
25	0x3d9869cb	0.074420534
26	0xbcfc5107	-0.030800356
27	0xbd59eb94	-0.05320318
28	0xbde846a4	-0.11341599
29	0x3d95f196	0.073214695
30	0x3e56f561	0.20992042
31	0x3d804982	0.062640205
32	0x3d9bb631	0.0760311
33	0xbd398b23	-0.045298707
34	0x3d1316c6	0.03591039
35	0xbd331532	-0.043721385
36	0xbd86e900	-0.0658741
37	0x3e21bbd3	0.15794306
38	0x3da696f8	0.08134264
39	0xbe0b8770	-0.13625884
40	0x3d753af2	0.059870668
41	0x3db4fee6	0.088376805
42	0xbdaf93a6	-0.085730836
43	0xbe490f8d	-0.19634838
44	0x3d910310	0.07080662
45	0x3dc32ee3	0.09530427
46	0xbd82562b	-0.063640915
47	0xbdb95d31	-0.09050978
48	0xbd647d52	-0.055783577
49	0xbd6aa224	-0.057283536
50	0x3dea84a1	0.11451078
51	0xbd9daf4e	-0.07699452
52	0x3dc01c88	0.09380442
53	0xbd20f4eb	-0.039296072
54	0x3d6ce4ef	0.057835516
55	0xbd8654ef	-0.065591685
56	0x3e1884f9	0.14894475
57	0xbdbe5920	-0.09294343
58	0xbd0c9c53	-0.03432877
59	0x3d6e59ed	0.05819123
60	0xbdcc0d14	-0.09963432
61	0xbd85a1fb	-0.06525036
62	0xbd352894	-0.04422815
63	0x3dedc4ee	0.11609827
64	0x3d926ed5	0.07150046
65	0xbdae4615	-0.08509461
66	0xbe0526de	-0.13003108
67	0x3dd47120	0.103731394
68	0x3d9dea71	0.07710732
69	0x3dafb769	0.085799046
70	0xbe043eb4	-0.12914544
71	0x3dd8ec3e	0.105919346
72	0x3d9947c0	0.07484388
73	0xbd17e067	-0.03707924
74	0x3db0f677	0.086407594
75	0xbdbc6a7f	-0.092
76	0x3d8a2815	0.06745926
77	0xbe06f5c8	-0.13179696
78	0x3d93ec5f	0.072228186
79	0xbd8a734a	-0.06760271
80	0xbd8658dc	-0.06559917
81	0xbdc5ea02	-0.09663774
82	0xbde68677	-0.11256116
83	0x3da49481	0.08036137
84	0xbd1baf70	-0.038009107
85	0x3d6dd322	0.05806268
86	0x3e0b7a37	0.1362084
87	0xbd2844be	-0.041081183
88	0xbda05a7a	-0.07829757
89	0x3d917252	0.07101883
90	0x3dbe8ddb	0.093044005
91	0xbd6fc247	-0.058534887
92	0xbdd31848	-0.10307366
93	0xbd326f0d	-0.043562938
94	0xbde0532d	-0.109533645
95	0xbd9c4651	-0.07630599
96	0xbd613ac9	-0.054987703
97	0x3e3144f6	0.17311463
98	0x3d5bf8a3	0.053703915
99	0xbdf20499	-0.11817283
100	0xbe15fcd0	-0.14647222
101	0x3d878c6c	0.0661858
102	0xbd4bb24f	-0.049730595
103	0x3d86734e	0.065649614
104	0x3d81e375	0.06342212
105	0xbe0593a6	-0.13044605
106	0x3e15462d	0.14577551
107	0x3df1ed00	0.11812782
108	0x3d897266	0.06711273
109	0xbdd58067	-0.104248814
110	0x3da11ee2	0.078672186
111	0x3d81e7d0	0.06343043
112	0x3da12644	0.07868627
113	0xbd8bff12	-0.0683576
114	0x3d353886	0.044243358
115	0x3d8bf18a	0.06833179
116	0xbdab7038	-0.083710134
117	0x3d92d2c0	0.071691036
118	0x3da482e8	0.08032781
119	0x3da8e505	0.08246807
120	0xbd87661d	-0.066112734
121	0x3e8f49c7	0.27985975
122	0x3da1b2d8	0.0789544
123	0xbd94685f	-0.0724647
124	0xbd872f88	-0.06600863
125	0xbd9f7cea	-0.07787497
126	0xbd6e14c7	-0.058125284
127	0x3d8c4cba	0.06850572

bn1.weight f4 [128]
0	0x3f5e29b2	0.8678237
1	0x3f634b24	0.8878653
2	0x3f7bce67	0.9836182
3	0x3f5a3a03	0.8524477
4	0x3f584270	0.84476376
5	0x3f4d265e	0.8013667
6	0x3f76db75	0.96428615
7	0x3f66cc14	0.9015515
8	0x3f4008ef	0.7501363
9	0x3f8d739c	1.1050906
10	0x3f4678ef	0.7752828
11	0x3f40ce68	0.7531495
12	0x3f655d04	0.89595056
13	0x3f316c28	0.6930566
14	0x3f3d9d85	0.7406848
15	0x3f92d956	1.1472576
16	0x3f54f1bd	0.83181363
17	0x3f66c3fa	0.90142787
18	0x3f9724e3	1.1808132
19	0x3f7ed44e	0.995427
20	0x3f2ec309	0.6826635
21	0x3f4b06b1	0.79307085
22	0x3f784411	0.9697886
23	0x3f9c6050	1.2216892
24	0x3f6216e3	0.8831617
25	0x3f701407	0.9378056
26	0x3f84869f	1.0353583
27	0x3f53ed54	0.8278401
28	0x3fa4855a	1.2853196
29	0x3f435da2	0.7631475
30	0x3f41bc9f	0.7567844
31	0x3f57bf1e	0.84275997
32	0x3f9e07ee	1.234617
33	0x3f5eda07	0.87051433
34	0x3f7cff2e	0.98826873
35	0x3f65ddb8	0.8979144
36	0x3f6d28f5	0.9264062
37	0x3f5bd75e	0.858755
38	0x3f7da663	0.9908201
39	0x3f95c624	1.1701093
40	0x3f58eb39	0.8473392
41	0x3f432c40	0.76239395
42	0x3f7a593b	0.97792405
43	0x3f5e3ac5	0.86808425
44	0x3f81794a	1.011514
45	0x3fa112ad	1.2583824
46	0x3f7187e2	0.94347966
47	0x3f81f7eb	1.0153784
48	0x3f59adf3	0.8503105
49	0x3f67a824	0.9049094
50	0x3f85f36c	1.0464911
51	0x3f69fa39	0.91397434
52	0x3f7036af	0.9383344
53	0x3f5fbc4b	0.8739669
54	0x3f4d84d2	0.8028079
55	0x3f4f1d94	0.8090451
56	0x3f5a22e1	0.8520947
57	0x3f619f95	0.8813413
58	0x3f74517d	0.9543684
59	0x3f52fcb3	0.8241684
60	0x3f71802a	0.9433619
61	0x3f868ce7	1.051175
62	0x3f9d1942	1.2273333
63	0x3f8b5c8a	1.0887616
64	0x3f5230e6	0.82105863
65	0x3f88337c	1.0640712
66	0x3f60b2c1	0.87772757
67	0x3f5d7ef8	0.86521864
68	0x3f52f396	0.8240293
69	0x3f7c10c3	0.98463076
70	0x3f8c569d	1.0963932
71	0x3f65f234	0.898227
72	0x3f64e4f5	0.8941186
73	0x3f522c8a	0.8209921
74	0x3f451095	0.7697843
75	0x3f6fdf3b	0.937
76	0x3f69ac9e	0.9127902
77	0x3f811ab0	1.0086269
78	0x3f812cb0	1.0091763
79	0x3f55956e	0.83431137
80	0x3f4c733c	0.79863334
81	0x3f95a26b	1.1690191
82	0x3f9f8734	1.2463136
83	0x3f676d7d	0.9040144
84	0x3f79e789	0.9761892
85	0x3f61c820	0.8819599
86	0x3f5220b8	0.82081175
87	0x3f6a054f	0.9141435
88	0x3f70c7ba	0.9405476
89	0x3f2fa5fb	0.6861264
90	0x3f5eaa11	0.8697825
91	0x3f4c3732	0.7977172
92	0x3f4e3681	0.80551916
93	0x3f4fcaa3	0.81168574
94	0x3f4d628d	0.802285
95	0x3f844db3	1.0336212
96	0x3f7a0349	0.9766126
97	0x3f668d9c	0.9005983
98	0x3f4ffa54	0.81241345
99	0x3f4bf13e	0.7966498
100	0x3fafa2a0	1.3721504
101	0x3f599a93	0.85001487
102	0x3f5ac6dc	0.85459685
103	0x3f4eabe9	0.80731064
104	0x3f569cda	0.83833086
105	0x3f61fece	0.88279426
106	0x3f881b4d	1.0633332
107	0x3f66cecf	0.90159315
108	0x3f7c959b	0.9866578
109	0x3fc09197	1.504443
110	0x3f586769	0.8453279
111	0x3f25b6e3	0.6473219
112	0x3f6599fb	0.8968808
113	0x3f4134e5	0.75471336
114	0x3f44dfff	0.7690429
115	0x3f5aa81d	0.8541277
116	0x3f4f223b	0.80911607
117	0x3fb6f22c	1.4292655
118	0x3f5684c8	0.8379636
119	0x3f84322f	1.0327815
120	0x3f55de70	0.8354254
121	0x3f71a791	0.9439631
122	0x3f826469	1.0186893
123	0x3f76d8a0	0.96424294
124	0x3f716d1e	0.94307125
125	0x3f4ab2a4	0.79178834
126	0x3f56c775	0.838981
127	0x3f5e7072	0.8689033

bn1.bias f4 [128]
0	0x3e446b18	0.19181478
1	0x3e4ba7da	0.19888249
2	0xbe096b1d	-0.13419767
3	0x3c5a43d5	0.0133218365
4	0xbe0fafb7	-0.14031874
5	0xbe73443a	-0.23756495
6	0xbda7ae75	-0.08187572
7	0x3e24c722	0.16091588
8	0x3e14c3b0	0.14527774
9	0x3e1298c6	0.14316091
10	0x3d265a78	0.04061362
11	0xbe969183	-0.29407892
12	0x3e85d5aa	0.26139575
13	0xbe39d47c	-0.18147463
14	0xbcedd58b	-0.02903249
15	0x3e056888	0.13028157
16	0x3e1a3a5c	0.15061325
17	0xbe6cda33	-0.23130111
18	0xbe3257ae	-0.1741626
19	0x3d719008	0.05897525
20	0xbc759618	-0.014989398
21	0xbb020122	-0.00198371
22	0x3ec57692	0.38567024
23	0x3d4cec01	0.05002976
24	0xbdd7d80c	-0.105392545
25	0xbe12c328	-0.14332259
26	0x3d9e4f66	0.07729988
27	0xbd9a4f00	-0.07534599
28	0x3dceb09d	0.1009228
29	0xbcda5ee6	-0.02665658
30	0x3f067644	0.5252421
31	0xbea05549	-0.31315067
32	0x3da623be	0.08112286
33	0x3e2b70b7	0.16742216
34	0x3e8b3d5b	0.27195248
35	0x3decdb90	0.11565316
36	0xbdd72473	-0.10504999
37	0xbe8c60fc	-0.27417743
38	0x3e79125e	0.24323413
39	0x3e6b469f	0.22976159
40	0x3d7fa654	0.062414482
41	0xbe0daeeb	-0.13836257
42	0x3e1fc786	0.15603456
43	0x3eb82d4b	0.35972056
44	0xbced6731	-0.02897987
45	0xbdf5fd65	-0.12011222
46	0x3e9d04ad	0.3066763
47	0x3e10ce9c	0.14141315
48	0x3e5cddeb	0.2156903
49	0xbe344173	-0.17603092
50	0x3eaae4c5	0.33377662
51	0xbea0031a	-0.31252366
52	0xbe6e5d98	-0.2327789
53	0x3e7e3a81	0.24827005
54	0xbec92f26	-0.39293784
55	0xbd9642d4	-0.07336965
56	0x3da608f7	0.08107179
57	0xbe0b498d	-0.13602276
58	0x3eb16a92	0.3465162
59	0x3dbd918a	0.09256275
60	0xbc46b478	-0.012127988
61	0x3e41807f	0.18896674
62	0x3d1dbd38	0.03851053
63	0x3e032698	0.12807691
64	0x3db3504e	0.08755551
65	0xbe440371	-0.19141938
66	0x3e1b96dc	0.15194267
67	0x3e3d57b3	0.18490486
68	0x3c8982ea	0.016786058
69	0x3dcef821	0.101059206
70	0x3e8b61cd	0.27223054
71	0x3ddf22a0	0.10895276
72	0x3e41228a	0.18860832
73	0x3f190026	0.5976585
74	0x3e82718e	0.2547726
75	0x3e15d9d1	0.14633872
76	0xbe2539d0	-0.16135335
77	0xbb549d01	-0.0032442214
78	0x3e9ce45b	0.3064297
79	0xbd19b87f	-0.037529465
80	0xbe92ef7a	-0.2869833
81	0xbe09f1d7	-0.13471161
82	0xbe0fd402	-0.14045718
83	0x3f042bb9	0.51629215
84	0xbe36c9c7	-0.1785041
85	0xbdff3cdc	-0.1246278
86	0xbe800673	-0.2500492
87	0x3e806f30	0.2508483
88	0x3ec2b700	0.38030243
89	0x3df9a0b8	0.12188858
90	0xbdf1c8a7	-0.118058495
91	0x3d25d46d	0.040485788
92	0x3ed9dd03	0.4255143
93	0xbd9c1c54	-0.07622591
94	0xbe178b78	-0.14799297
95	0x3e506d60	0.20354223
96	0x3d2c2e87	0.04203656
97	0x3e425f2e	0.1898162
98	0x3d48b041	0.048996214
99	0x3e9be9dd	0.3045186
100	0x3e6f8b20	0.23392916
101	0xbe080eff	-0.1328697
102	0xbe122045	-0.14270122
103	0x3e9db326	0.30800742
104	0x3da3bc31	0.07994879
105	0xbd599c18	-0.05312738
106	0x3e9030ca	0.28162223
107	0xbdf88f69	-0.12136728
108	0x3d856844	0.06514028
109	0x3e5378da	0.2065157
110	0xbde00782	-0.10938932
111	0x3e996756	0.29961652
112	0xbda1f2a7	-0.079076104
113	0xbe0f8990	-0.1401732
114	0x3e75e163	0.2401176
115	0x3e8fa198	0.28052974
116	0xbe0b2c36	-0.13591084
117	0x3cefd30e	0.029275443
118	0xbe482532	-0.19545439
119	0xbd157107	-0.036484744
120	0x3bf676fb	0.007521508
121	0x3e0444f2	0.12916926
122	0xbbb8e2c2	-0.005642266
123	0x3ec4716a	0.38367778
124	0x3d55707e	0.052109234
125	0x3e08bd02	0.13353351
126	0x3e94edfb	0.29087815
127	0x3e56b0d4	0.20965892

bn1.running_mean f4 [128]
0	0x3f0c8fbf	0.5490684
1	0x3ebf091e	0.37311643
2	0x3e5aa641	0.21352483
3	0x3f159618	0.5843215
4	0x3d922171	0.07135285
5	0x3e8b74d9	0.27237585
6	0x3e21a9ca	0.15787426
7	0x3defb41e	0.117042765
8	0x3e4ba841	0.19888403
9	0x3e3d63ea	0.18495145
10	0x3e001187	0.12506686
11	0x3e66d466	0.22541961
12	0x3ee86f6d	0.4539751
13	0x3ee630c1	0.4495907
14	0x3de95698	0.113934696
15	0x3e85561f	0.26042268
16	0x3eb69b1a	0.35665208
17	0x3e97f1de	0.29676718
18	0x3e11e971	0.14249207
19	0x3f064b32	0.5245849
20	0x3d2733a3	0.04082073
21	0x3e8b764d	0.27238694
22	0x3e2808be	0.16409585
23	0x3ed41ea3	0.41429624
24	0x3eba1c08	0.3634951
25	0x3ec205e7	0.37895128
26	0x3e0500fc	0.12988657
27	0x3f3f350f	0.74690336
28	0x3e02fe96	0.1279243
29	0x3ee4cb25	0.44686237
30	0x3d970e91	0.07375825
31	0x3dcaf021	0.09909082
32	0x3e9ef7c8	0.31048417
33	0x3e4d4fcb	0.2004997
34	0x3e31be59	0.17357768
35	0x3eea3f45	0.45751396
36	0x3e2dfdb9	0.16991319
37	0x3ec7fc47	0.3905966
38	0x3e05ac08	0.13053906
39	0x3db571dd	0.08859608
40	0x3e9d6e67	0.30748293
41	0x3e5f0b67	0.21781693
42	0x3e889c69	0.2668183
43	0x3eb09859	0.34491232
44	0x3e292887	0.16519366
45	0x3e35ea93	0.17765264
46	0x3e959aef	0.29219767
47	0x3f3b0197	0.730493
48	0x3e63f9b6	0.22263226
49	0x3f49dee0	0.78855705
50	0x3ed394aa	0.4132436
51	0x3ea6174d	0.32439652
52	0x3e7a584e	0.24447748
53	0x3daabac6	0.083364055
54	0x3f345934	0.70448613
55	0x3e5769cf	0.21036457
56	0x3e9e5e39	0.3093126
57	0x3eb863c6	0.3601362
58	0x3ec1b5bd	0.37833968
59	0x3debbb6d	0.11510358
60	0x3f0e7616	0.55648935
61	0x3e866974	0.2625233
62	0x3db882be	0.09009312
63	0x3e63df71	0.22253205
64	0x3e627545	0.22115047
65	0x3e1f7b70	0.15574431
66	0x3f00c68c	0.5030296
67	0x3e821cfd	0.2541274
68	0x3f02400a	0.50878966
69	0x3e017cd1	0.1264527
70	0x3e2f8659	0.17141093
71	0x3e9900bb	0.2988337
72	0x3e41de6b	0.18932502
73	0x3f20af59	0.6276756
74	0x3e348d3c	0.17632002
75	0x3d991d47	0.07476287
76	0x3e969696	0.29411763
77	0x3e3efea3	0.18651824
78	0x3f181dae	0.5942029
79	0x3e63cd69	0.22246327
80	0x3ed4247d	0.41434088
81	0x3d9ac829	0.07557709
82	0x3ec89048	0.39172578
83	0x3f2cd05d	0.6750544
84	0x3e1454a6	0.14485416
85	0x3e847346	0.25869197
86	0x3e3cc65c	0.18435043
87	0x3e4a910d	0.19781895
88	0x3e47c7f3	0.19509868
89	0x3ee694d5	0.45035425
90	0x3e80fc3b	0.25192437
91	0x3eb2a8c5	0.34894386
92	0x3e89f5b0	0.26945257
93	0x3ec50a16	0.38484257
94	0x3dc31a41	0.09526492
95	0x3e481a5f	0.1954131
96	0x3e9ffae5	0.31246105
97	0x3f03e2c8	0.51517916
98	0x3f33a728	0.70176935
99	0x3e6e8c51	0.23295714
100	0x3dc45b6b	0.09587749
101	0x3ed6b6fc	0.4193648
102	0x3ed1a796	0.4094817
103	0x3f01d568	0.5071626
104	0x3dbf8e1a	0.093532756
105	0x3e947f41	0.29003337
106	0x3dc51e34	0.096249014
107	0x3ea8c63f	0.3296375
108	0x3e6853f9	0.22688283
109	0x3dd1e94b	0.10249575
110	0x3e15dc23	0.14634757
111	0x3e463cc2	0.19359115
112	0x3e6dc7a8	0.23220694
113	0x3e5eaaa5	0.21744783
114	0x3e82d867	0.25555727
115	0x3e8396de	0.2570104
116	0x3ead711b	0.33875355
117	0x3e6ceda6	0.2313753
118	0x3eb1382e	0.34613174
119	0x3ebba259	0.366473
120	0x3e813e0d	0.25242653
121	0x3ef54945	0.47907463
122	0x3edf2863	0.435855
123	0x3e4e577e	0.20150563
124	0x3f088482	0.5332719
125	0x3dd32db5	0.10311452
126	0x3e9f46b3	0.31108627
127	0x3e4c7e57	0.1997007

bn1.running_var f4 [128]
0	0x3ebea1a5	0.372327
1	0x3e490d9f	0.19634102
2	0x3ddf62e5	0.109075345
3	0x3edae585	0.42753235
4	0x3d1fbeda	0.03900037
5	0x3e3f854d	0.18703194
6	0x3dcf2151	0.101137765
7	0x3d990bb4	0.07472935
8	0x3e8321ce	0.25611728
9	0x3e3d7708	0.18502438
10	0x3d57e26d	0.05270617
11	0x3ddbd5c4	0.10734132
12	0x3e6ced18	0.23137319
13	0x3f0016af	0.5003461
14	0x3d4250be	0.047440283
15	0x3e1281f1	0.14307381
16	0x3eb5d3c1	0.35513118
17	0x3e527983	0.20554166
18	0x3da4e579	0.08051581
19	0x3f0407bf	0.5157432
20	0x3c7fe77b	0.015619154
21	0x3e3983ff	0.18116759
22	0x3dda0426	0.106453225
23	0x3e8e4a4c	0.2779106
24	0x3ebe3932	0.37153012
25	0x3e8ae16f	0.27125117
26	0x3da336c4	0.0796943
27	0x3f25ce1a	0.6476761
28	0x3d86f28a	0.065892294
29	0x3ed77a2d	0.420854
30	0x3d336ce4	0.043805018
31	0x3d4b8112	0.049683638
32	0x3e2698c5	0.16269214
33	0x3e090c1c	0.13383526
34	0x3da6b534	0.081400305
35	0x3eb2b215	0.3490149
36	0x3dc56dcd	0.096400835
37	0x3e916554	0.2839762
38	0x3d942802	0.072341934
39	0x3d1f4a6b	0.03888933
40	0x3e930276	0.28712815
41	0x3e1bca6e	0.1521394
42	0x3de6c1fa	0.11267467
43	0x3e56efeb	0.20989959
44	0x3dc2250f	0.094797246
45	0x3db4dbc5	0.0883098
46	0x3e1b75e6	0.15181693
47	0x3ef09e6c	0.46995866
48	0x3e48c91f	0.19607972
49	0x3f741df3	0.953582
50	0x3e4bfbda	0.19920292
51	0x3e3e386e	0.18576214
52	0x3e2eab63	0.17057566
53	0x3d1ec92a	0.038766064
54	0x3f0c63b5	0.5483964
55	0x3e0b6627	0.13613187
56	0x3e4ea0b6	0.20178494
57	0x3e94519d	0.28968516
58	0x3e87de8a	0.2653697
59	0x3d9f7dd4	0.07787672
60	0x3ec4f78b	0.3847011
61	0x3e424c2c	0.1897437
62	0x3d223873	0.039604615
63	0x3e0950b3	0.1340969
64	0x3e22ffe8	0.15917933
65	0x3db72a52	0.08943619
66	0x3ed7c6c6	0.4214384
67	0x3e112c4e	0.14177057
68	0x3ec14f22	0.37755686
69	0x3d7246b4	0.05914946
70	0x3dc6145a	0.096718505
71	0x3e0f1260	0.13971853
72	0x3df5d245	0.12002996
73	0x3ef186bf	0.47173116
74	0x3e0833f4	0.13301069
75	0x3d00a93b	0.03141139
76	0x3e3a40ae	0.18188736
77	0x3dc4199c	0.09575197
78	0x3ec649f6	0.38728303
79	0x3e307100	0.17230606
80	0x3ec7912f	0.38977954
81	0x3d07d5c3	0.033162843
82	0x3e2efaac	0.17087811
83	0x3f46aef9	0.7761074
84	0x3d8e31cf	0.06943094
85	0x3e46bd51	0.19408156
86	0x3e0a6f4d	0.1351902
87	0x3e2c18b5	0.168063
88	0x3e14c1c5	0.14527042
89	0x3e5bfa75	0.2148226
90	0x3e25c6da	0.16189137
91	0x3e81f8ec	0.25385225
92	0x3e58df2a	0.2117888
93	0x3ebe9a14	0.37226927
94	0x3dcafc0b	0.09911355
95	0x3ded1394	0.11576
96	0x3e3a3c71	0.18187119
97	0x3f2a24b6	0.66462266
98	0x3f019786	0.5062183
99	0x3e502d86	0.20329866
100	0x3d15a8a8	0.036537796
101	0x3eadb3b8	0.33926177
102	0x3e39835d	0.18116517
103	0x3e8d5d6a	0.27610332
104	0x3d44ac6b	0.048015993
105	0x3e413a9e	0.18870017
106	0x3d43d6ea	0.04781238
107	0x3e5edd45	0.21764095
108	0x3e3c4914	0.18387252
109	0x3d2b5c00	0.041835785
110	0x3d9bd63a	0.0760922
111	0x3e5f3975	0.21799262
112	0x3e0fc692	0.14040592
113	0x3e0c2806	0.13687143
114	0x3e1d16d2	0.15340737
115	0x3e358020	0.17724657
116	0x3e5d60b9	0.21618928
117	0x3e0005b1	0.12502171
118	0x3e8f04ef	0.27933452
119	0x3de6829d	0.11255381
120	0x3e4221a4	0.18958145
121	0x3ea00805	0.31256118
122	0x3e9a2a99	0.30110624
123	0x3e462474	0.19349843
124	0x3f09b3c5	0.5378993
125	0x3d43b555	0.047780354
126	0x3eb1c4c0	0.3472042
127	0x3dcd949d	0.10038111

bn2.weight f4 [128]
0	0x3f800000	1.0
1	0x3f800000	1.0
2	0x3f800000	1.0
3	0x3f800000	1.0
4	0x3f800000	1.0
5	0x3f800000	1.0
6	0x3f800000	1.0
7	0x3f800000	1.0
8	0x3f800000	1.0
9	0x3f800000	1.0
10	0x3f800000	1.0
11	0x3f800000	1.0
12	0x3f800000	1.0
13	0x3f800000	1.0
14	0x3f800000	1.0
15	0x3f800000	1.0
16	0x3f800000	1.0
17	0x3f800000	1.0
18	0x3f800000	1.0
19	0x3f800000	1.0
20	0x3f800000	1.0
21	0x3f800000	1.0
22	0x3f800000	1.0
23	0x3f800000	1.0
24	0x3f800000	1.0
25	0x3f800000	1.0
26	0x3f800000	1.0
27	0x3f800000	1.0
28	0x3f800000	1.0
29	0x3f800000	1.0
30	0x3f800000	1.0
31	0x3f800000	1.0
32	0x3f800000	1.0
33	0x3f800000	1.0
34	0x3f800000	1.0
35	0x3f800000	1.0
36	0x3f800000	1.0
37	0x3f800000	1.0
38	0x3f800000	1.0
39	0x3f800000	1.0
40	0x3f800000	1.0
41	0x3f800000	1.0
42	0x3f800000	1.0
43	0x3f800000	1.0
44	0x3f800000	1.0
45	0x3f800000	1.0
46	0x3f800000	1.0
47	0x3f800000	1.0
48	0x3f800000	1.0
49	0x3f800000	1.0
50	0x3f800000	1.0
51	0x3f800000	1.0
52	0x3f800000	1.0
53	0x3f800000	1.0
54	0x3f800000	1.0
55	0x3f800000	1.0
56	0x3f800000	1.0
57	0x3f800000	1.0
58	0x3f800000	1.0
59	0x3f800000	1.0
60	0x3f800000	1.0
61	0x3f800000	1.0
62	0x3f800000	1.0
63	0x3f800000	1.0
64	0x3f800000	1.0
65	0x3f800000	1.0
66	0x3f800000	1.0
67	0x3f800000	1.0
68	0x3f800000	1.0
69	0x3f800000	1.0
70	0x3f800000	1.0
71	0x3f800000	1.0
72	0x3f800000	1.0
73	0x3f800000	1.0
74	0x3f800000	1.0
75	0x3f800000	1.0
76	0x3f800000	1.0
77	0x3f800000	1.0
78	0x3f800000	1.0
79	0x3f800000	1.0
80	0x3f800000	1.0
81	0x3f800000	1.0
82	0x3f800000	1.0
83	0x3f800000	1.0
84	0x3f800000	1.0
85	0x3f800000	1.0
86	0x3f800000	1.0
87	0x3f800000	1.0
88	0x3f800000	1.0
89	0x3f800000	1.0
90	0x3f800000	1.0
91	0x3f800000	1.0
92	0x3f800000	1.0
93	0x3f800000	1.0
94	0x3f800000	1.0
95	0x3f800000	1.0
96	0x3f800000	1.0
97	0x3f800000	1.0
98	0x3f800000	1.0
99	0x3f800000	1.0
100	0x3f800000	1.0
101	0x3f800000	1.0
102	0x3f800000	1.0
103	0x3f800000	1.0
104	0x3f800000	1.0
105	0x3f800000	1.0
106	0x3f800000	1.0
107	0x3f800000	1.0
108	0x3f800000	1.0
109	0x3f800000	1.0
110	0x3f800000	1.0
111	0x3f800000	1.0
112	0x3f800000	1.0
113	0x3f800000	1.0
114	0x3f800000	1.0
115	0x3f800000	1.0
116	0x3f800000	1.0
117	0x3f800000	1.0
118	0x3f800000	1.0
119	0x3f800000	1.0
120	0x3f800000	1.0
121	0x3f800000	1.0
122	0x3f800000	1.0
123	0x3f800000	1.0
124	0x3f800000	1.0
125	0x3f800000	1.0
126	0x3f800000	1.0
127	0x3f800000	1.0

bn2.bias f4 [128]
0	0x00000000	0.0
1	0x00000000	0.0
2	0x00000000	0.0
3	0x00000000	0.0
4	0x00000000	0.0
5	0x00000000	0.0
6	0x00000000	0.0
7	0x00000000	0.0
8	0x00000000	0.0
9	0x00000000	0.0
10	0x00000000	0.0
11	0x00000000	0.0
12	0x00000000	0.0
13	0x00000000	0.0
14	0x00000000	0.0
15	0x00000000	0.0
16	0x00000000	0.0
17	0x00000000	0.0
18	0x00000000	0.0
19	0x00000000	0.0
20	0x00000000	0.0
21	0x00000000	0.0
22	0x00000000	0.0
23	0x00000000	0.0
24	0x00000000	0.0
25	0x00000000	0.0
26	0x00000000	0.0
27	0x00000000	0.0
28	0x00000000	0.0
29	0x00000000	0.0
30	0x00000000	0.0
31	0x00000000	0.0
32	0x00000000	0.0
33	0x00000000	0.0
34	0x00000000	0.0
35	0x00000000	0.0
36	0x00000000	0.0
37	0x00000000	0.0
38	0x00000000	0.0
39	0x00000000	0.0
40	0x00000000	0.0
41	0x00000000	0.0
42	0x00000000	0.0
43	0x00000000	0.0
44	0x00000000	0.0
45	0x00000000	0.0
46	0x00000000	0.0
47	0x00000000	0.0
48	0x00000000	0.0
49	0x00000000	0.0
50	0x00000000	0.0
51	0x00000000	0.0
52	0x00000000	0.0
53	0x00000000	0.0
54	0x00000000	0.0
55	0x00000000	0.0
56	0x00000000	0.0
57	0x00000000	0.0
58	0x00000000	0.0
59	0x00000000	0.0
60	0x00000000	0.0
61	0x00000000	0.0
62	0x00000000	0.0
63	0x00000000	0.0
64	0x00000000	0.0
65	0x00000000	0.0
66	0x00000000	0.0
67	0x00000000	0.0
68	0x00000000	0.0
69	0x00000000	0.0
70	0x00000000	0.0
71	0x00000000	0.0
72	0x00000000	0.0
73	0x00000000	0.0
74	0x00000000	0.0
75	0x00000000	0.0
76	0x00000000	0.0
77	0x00000000	0.0
78	0x00000000	0.0
79	0x00000000	0.0
80	0x00000000	0.0
81	0x00000000	0.0
82	0x00000000	0.0
83	0x00000000	0.0
84	0x00000000	0.0
85	0x00000000	0.0
86	0x00000000	0.0
87	0x00000000	0.0
88	0x00000000	0.0
89	0x00000000	0.0
90	0x00000000	0.0
91	0x00000000	0.0
92	0x00000000	0.0
93	0x00000000	0.0
94	0x00000000	0.0
95	0x00000000	0.0
96	0x00000000	0.0
97	0x00000000	0.0
98	0x00000000	0.0
99	0x00000000	0.0
100	0x00000000	0.0
101	0x00000000	0.0
102	0x00000000	0.0
103	0x00000000	0.0
104	0x00000000	0.0
105	0x00000000	0.0
106	0x00000000	0.0
107	0x00000000	0.0
108	0x00000000	0.0
109	0x00000000	0.0
110	0x00000000	0.0
111	0x00000000	0.0
112	0x00000000	0.0
113	0x00000000	0.0
114	0x00000000	0.0
115	0x00000000	0.0
116	0x00000000	0.0
117	0x00000000	0.0
118	0x00000000	0.0
119	0x00000000	0.0
120	0x00000000	0.0
121	0x00000000	0.0
122	0x00000000	0.0
123	0x00000000	0.0
124	0x00000000	0.0
125	0x00000000	0.0
126	0x00000000	0.0
127	0x00000000	0.0

bn2.running_mean f4 [128]
0	0x00000000	0.0
1	0x00000000	0.0
2	0x00000000	0.0
3	0x00000000	0.0
4	0x00000000	0.0
5	0x00000000	0.0
6	0x00000000	0.0
7	0x00000000	0.0
8	0x00000000	0.0
9	0x00000000	0.0
10	0x00000000	0.0
11	0x00000000	0.0
12	0x00000000	0.0
13	0x00000000	0.0
14	0x00000000	0.0
15	0x00000000	0.0
16	0x00000000	0.0
17	0x00000000	0.0
18	0x00000000	0.0
19	0x00000000	0.0
20	0x00000000	0.0
21	0x00000000	0.0
22	0x00000000	0.0
23	0x00000000	0.0
24	0x00000000	0.0
25	0x00000000	0.0
26	0x00000000	0.0
27	0x00000000	0.0
28	0x00000000	0.0
29	0x00000000	0.0
30	0x00000000	0.0
31	0x00000000	0.0
32	0x00000000	0.0
33	0x00000000	0.0
34	0x00000000	0.0
35	0x00000000	0.0
36	0x00000000	0.0
37	0x00000000	0.0
38	0x00000000	0.0
39	0x00000000	0.0
40	0x00000000	0.0
41	0x00000000	0.0
42	0x00000000	0.0
43	0x00000000	0.0
44	0x00000000	0.0
45	0x00000000	0.0
46	0x00000000	0.0
47	0x00000000	0.0
48	0x00000000	0.0
49	0x00000000	0.0
50	0x00000000	0.0
51	0x00000000	0.0
52	0x00000000	0.0
53	0x00000000	0.0
54	0x00000000	0.0
55	0x00000000	0.0
56	0x00000000	0.0
57	0x00000000	0.0
58	0x00000000	0.0
59	0x00000000	0.0
60	0x00000000	0.0
61	0x00000000	0.0
62	0x00000000	0.0
63	0x00000000	0.0
64	0x00000000	0.0
65	0x00000000	0.0
66	0x00000000	0.0
67	0x00000000	0.0
68	0x00000000	0.0
69	0x00000000	0.0
70	0x00000000	0.0
71	0x00000000	0.0
72	0x00000000	0.0
73	0x00000000	0.0
74	0x00000000	0.0
75	0x00000000	0.0
76	0x00000000	0.0
77	0x00000000	0.0
78	0x00000000	0.0
79	0x00000000	0.0
80	0x00000000	0.0
81	0x00000000	0.0
82	0x00000000	0.0
83	0x00000000	0.0
84	0x00000000	0.0
85	0x00000000	0.0
86	0x00000000	0.0
87	0x00000000	0.0
88	0x00000000	0.0
89	0x00000000	0.0
90	0x00000000	0.0
91	0x00000000	0.0
92	0x00000000	0.0
93	0x00000000	0.0
94	0x00000000	0.0
95	0x00000000	0.0
96	0x00000000	0.0
97	0x00000000	0.0
98	0x00000000	0.0
99	0x00000000	0.0
100	0x00000000	0.0
101	0x00000000	0.0
102	0x00000000	0.0
103	0x00000000	0.0
104	0x00000000	0.0
105	0x00000000	0.0
106	0x00000000	0.0
107	0x00000000	0.0
108	0x00000000	0.0
109	0x00000000	0.0
110	0x00000000	0.0
111	0x00000000	0.0
112	0x00000000	0.0
113	0x00000000	0.0
114	0x00000000	0.0
115	0x00000000	0.0
116	0x00000000	0.0
117	0x00000000	0.0
118	0x00000000	0.0
119	0x00000000	0.0
120	0x00000000	0.0
121	0x00000000	0.0
122	0x00000000	0.0
123	0x00000000	0.0
124	0x00000000	0.0
125	0x00000000	0.0
126	0x00000000	0.0
127	0x00000000	0.0

bn2.running_var f4 [128]
0	0x3f800000	1.0
1	0x3f800000	1.0
2	0x3f800000	1.0
3	0x3f800000	1.0
4	0x3f800000	1.0
5	0x3f800000	1.0
6	0x3f800000	1.0
7	0x3f800000	1.0
8	0x3f800000	1.0
9	0x3f800000	1.0
10	0x3f800000	1.0
11	0x3f800000	1.0
12	0x3f800000	1.0
13	0x3f800000	1.0
14	0x3f800000	1.0
15	0x3f800000	1.0
16	0x3f800000	1.0
17	0x3f800000	1.0
18	0x3f800000	1.0
19	0x3f800000	1.0
20	0x3f800000	1.0
21	0x3f800000	1.0
22	0x3f800000	1.0
23	0x3f800000	1.0
24	0x3f800000	1.0
25	0x3f800000	1.0
26	0x3f800000	1.0
27	0x3f800000	1.0
28	0x3f800000	1.0
29	0x3f800000	1.0
30	0x3f800000	1.0
31	0x3f800000	1.0
32	0x3f800000	1.0
33	0x3f800000	1.0
34	0x3f800000	1.0
35	0x3f800000	1.0
36	0x3f800000	1.0
37	0x3f800000	1.0
38	0x3f800000	1.0
39	0x3f800000	1.0
40	0x3f800000	1.0
41	0x3f800000	1.0
42	0x3f800000	1.0
43	0x3f800000	1.0
44	0x3f800000	1.0
45	0x3f800000	1.0
46	0x3f800000	1.0
47	0x3f800000	1.0
48	0x3f800000	1.0
49	0x3f800000	1.0
50	0x3f800000	1.0
51	0x3f800000	1.0
52	0x3f800000	1.0
53	0x3f800000	1.0
54	0x3f800000	1.0
55	0x3f800000	1.0
56	0x3f800000	1.0
57	0x3f800000	1.0
58	0x3f800000	1.0
59	0x3f800000	1.0
60	0x3f800000	1.0
61	0x3f800000	1.0
62	0x3f800000	1.0
63	0x3f800000	1.0
64	0x3f800000	1.0
65	0x3f800000	1.0
66	0x3f800000	1.0
67	0x3f800000	1.0
68	0x3f800000	1.0
69	0x3f800000	1.0
70	0x3f800000	1.0
71	0x3f800000	1.0
72	0x3f800000	1.0
73	0x3f800000	1.0
74	0x3f800000	1.0
75	0x3f800000	1.0
76	0x3f800000	1.0
77	0x3f800000	1.0
78	0x3f800000	1.0
79	0x3f800000	1.0
80	0x3f800000	1.0
81	0x3f800000	1.0
82	0x3f800000	1.0
83	0x3f800000	1.0
84	0x3f800000	1.0
85	0x3f800000	1.0
86	0x3f800000	1.0
87	0x3f800000	1.0
88	0x3f800000	1.0
89	0x3f800000	1.0
90	0x3f800000	1.0
91	0x3f800000	1.0
92	0x3f800000	1.0
93	0x3f800000	1.0
94	0x3f800000	1.0
95	0x3f800000	1.0
96	0x3f800000	1.0
97	0x3f800000	1.0
98	0x3f800000	1.0
99	0x3f800000	1.0
100	0x3f800000	1.0
101	0x3f800000	1.0
102	0x3f800000	1.0
103	0x3f800000	1.0
104	0x3f800000	1.0
105	0x3f800000	1.0
106	0x3f800000	1.0
107	0x3f800000	1.0
108	0x3f800000	1.0
109	0x3f800000	1.0
110	0x3f800000	1.0
111	0x3f800000	1.0
112	0x3f800000	1.0
113	0x3f800000	1.0
114	0x3f800000	1.0
115	0x3f800000	1.0
116	0x3f800000	1.0
117	0x3f800000	1.0
118	0x3f800000	1.0
119	0x3f800000	1.0
120	0x3f800000	1.0
121	0x3f800000	1.0
122	0x3f800000	1.0
123	0x3f800000	1.0
124	0x3f800000	1.0
125	0x3f800000	1.0
126	0x3f800000	1.0
127	0x3f800000	1.0
