Continious_Control/checkpoint_actor.pth (torch_old, 91968 bytes, 14 tensors)

fc1.weight f4 [128, 33]
000000 0a 51 8e 3d 2d e1 d3 bc 8c ef 53 bd 55 17 b4 3d
       0.06949051 -0.025864208 -0.05174212 0.08793513
000010 11 1f b9 3d 2f 2a 23 be 56 99 2c 3e 08 7c 95 3d
       0.090391286 -0.1593406 0.16855368 0.07299048
000020 6f 90 b7 bd fe b0 8d 3d 3f fc 06 3d ef 85 eb 3b
       -0.089630954 0.06918524 0.032955404 0.007187597
000030 7a c8 a7 3c bf 39 71 bd 1b 70 20 3c f0 10 e0 3c
       0.020481337 -0.05889296 0.009792353 0.027351826
000040 14 a6 2e 3c 6d f9 0b 3d 80 22 1d 3e 92 38 34 bd
       0.010659713 0.034173418 0.15345192 -0.043999262
000050 4d 79 02 bc 71 48 57 b9 43 8f d7 3c 29 6c a1 bc
       -0.007963491 -0.00020530984 0.02631343 -0.019704895
000060 98 94 aa bb 5f 3f 48 3c 61 2f d8 b9 14 f3 ea 3d
       -0.005205702 0.01222214 -0.0004123403 0.11472145
000070 d7 5c 61 3d a4 73 eb 3c 6f b4 2f be 52 86 e1 bc
       0.05502018 0.028741665 -0.17158674 -0.02752987
000080 1b 20 63 bf 4f 1a c4 3d f1 13 4a 3d 0a 92 39 3e
       -0.88720864 0.095753305 0.049335424 0.18122116
000090 22 91 97 bd d9 4c f5 bd c6 92 81 3e 95 a9 b2 3e
       -0.07400729 -0.11977548 0.25307292 0.34895006
0000a0 1d 23 04 3d 80 6f 24 bb 53 da 89 bd 0e fb 8a 3d
       0.03226005 -0.0025090873 -0.06731095 0.06786166
0000b0 de d6 c2 bc 45 4c 2e bd 55 ac 9a bd 85 4f cf 3d
       -0.023784097 -0.042553205 -0.07552401 0.10122589
0000c0 ce cb 74 bd f8 46 ef bd 00 8c 16 be 8f 35 8a 3d
       -0.059764676 -0.11683458 -0.14701843 0.06748497
0000d0 64 d0 d7 bd 46 21 96 3d 81 26 b9 bc 63 09 52 bd
       -0.10537794 0.07330565 -0.022601368 -0.051278483
0000e0 99 17 b8 3c 9a e6 ed 3c 37 50 6e bd 0c 04 6f bd
       0.02247219 0.029040623 -0.058181968 -0.05835347
0000f0 44 7d 9f 3b f1 a5 21 be de d2 a4 bd ab 6b b8 bd
       0.0048672277 -0.15785958 -0.08048032 -0.09004911
000100 8c 80 a8 3c a6 5f 8b bd 51 e8 0c bd de 19 ef 3b
       0.020569108 -0.06805353 -0.03440124 0.007296785
000110 71 5c 03 3e 17 39 fb bb 62 cb 68 3e b0 2e 21 be
       0.12828232 -0.0076667177 0.22733834 -0.15740466
000120 9f 8a 8a 3c 54 f9 0c bd 59 f1 8a bb b7 80 55 bd
       0.016911803 -0.034417465 -0.0042401967 -0.052124705
000130 65 dd 3b 3c ab 84 2e 3d 8c 1a db 3c ce 34 b9 bd
       0.011466359 0.04260699 0.026746057 -0.09043275
000140 42 88 eb bc 28 44 fa bd 0a ae c1 3c 86 42 e3 bd
       -0.028751496 -0.12220031 0.023642559 -0.11096673
000150 45 3d 62 be e8 c5 40 bd cf 71 36 3d 56 92 ca 3c
       -0.22093685 -0.047063738 0.04454213 0.024727982
000160 f7 b0 4b 3c 16 52 bd bc 07 00 bf 3b 75 fa 38 bd
       0.012432328 -0.02311043 0.0058288607 -0.04516073
000170 5a 19 18 bc 29 f8 48 3e f8 34 8a bc 12 ae 56 3d
       -0.009283388 0.19625916 -0.01687096 0.0524121
000180 4f aa 36 be 92 d3 e1 bc a3 f5 2b 3f 06 54 90 3d
       -0.17838405 -0.027566705 0.67171687 0.07047276
000190 8e d5 9c 3c c2 6c 13 bd f4 b9 a8 bd 41 10 c2 3c
       0.0191448 -0.03599239 -0.08238593 0.023689391
0001a0 23 53 8d 3d 6f 16 c1 bd 89 b3 dc 3c 38 1e 2d 3d
       0.06900623 -0.09428107 0.026941078 0.042265147
0001b0 c8 ca 99 3d f9 21 62 bc fe e7 8d bc 30 fb 56 bc
       0.075093806 -0.013802045 -0.017322537 -0.013121411
0001c0 8a da 4e bd a0 d7 d2 3b 0f 9d d5 3c ea 6f d4 bc
       -0.050501384 0.006434396 0.026075868 -0.025932271
0001d0 87 0b 65 bd 32 b9 cc bd 3e 6f b3 bd 71 95 3b bb
       -0.055919196 -0.09996261 -0.08761452 -0.002862301
0001e0 ce 0a 27 bc 48 df 2e 3c 48 e2 68 bc e5 2e 9e 3c
       -0.010195447 0.010673352 -0.014214106 0.01930947
0001f0 49 c4 a6 3b ba 0f 4c 3d 9b 73 e7 3d 11 25 4f bd
       0.005089317 0.049819686 0.11301347 -0.05057246
000200 a2 09 6c 3d ea 94 a8 bd 28 6c aa bc 9a 62 55 bf
       0.057626374 -0.08231528 -0.020803526 -0.8335358
000210 65 9e 03 3e f7 f9 a6 bd 3b 45 48 3e 4f eb 4d ba
       0.12853391 -0.08153146 0.1955766 -0.0007855193
000220 45 45 a5 3e 82 81 01 be 13 3b 10 3e e6 65 29 3d
       0.3227941 -0.1264706 0.14085035 0.041356944
000230 36 ab 17 bb 09 5e 42 bd a8 6f 0e bd d8 a3 82 3c
       -0.002314282 -0.04745296 -0.034774452 0.015947267
000240 06 a8 c2 3d 9e 11 1c be a4 04 93 3d 39 b3 03 bc
       0.09504704 -0.15241095 0.071786195 -0.0080383355
000250 b9 a0 87 3e c1 57 13 be 8c d5 42 bd 0e d3 1c bd
       0.2648981 -0.14388944 -0.047566935 -0.038287215
000260 63 25 06 3c 6a f5 02 3c dd d1 28 3d 7c a2 84 3c
       0.008187625 0.007993082 0.041215766 0.01619076
000270 71 da 1c 3d 5b 01 13 bd 7b 0f 96 3d 66 0d 29 be
       0.03829426 -0.035889965 0.073271714 -0.16509017
000280 f0 ad bd bc 98 84 8d bc 68 6e cd 3d fe 93 4f 3d
       -0.023154229 -0.01727514 0.10030824 0.050678246
000290 97 41 ed 3d c2 8f 26 bd e7 86 1f bd f2 36 aa 3c
       0.11584776 -0.040664442 -0.038947012 0.020778153
0002a0 c3 86 d6 bd 74 54 84 3d a3 3f 1a be ac 6e 3d 3e
       -0.104749225 0.06461421 -0.15063338 0.18499249
0002b0 b2 6f 04 3d 87 1c ce bd 46 cd 0e bc 15 ed 8a 3d
       0.032333083 -0.10064035 -0.008715933 0.06783501
0002c0 66 c1 66 3d e3 b6 f6 bc 48 72 19 3d d8 cf 00 bd
       0.056336783 -0.030116504 0.037462503 -0.031448215
0002d0 d6 10 81 bd 37 50 04 3e 5e b1 8c 3d 57 a7 e8 3d
       -0.06302039 0.12921225 0.068697676 0.113600425
0002e0 18 09 62 be 8c 3e 4a bc e2 3e cf bc f8 d9 60 3d
       -0.22073781 -0.012344014 -0.02529854 0.05489537
0002f0 2b 0b 02 3e 0c 41 6e bd 6a 02 27 3c 83 b5 af bd
       0.12699573 -0.058167502 0.010193447 -0.085795425
000300 cb c3 09 be 4d d2 0f be 17 f9 3b bd df 58 ca 3d
       -0.13453595 -0.14045067 -0.045891847 0.09880232
000310 56 ca 16 3d 70 a9 aa be ab 97 ee 3b d9 1c d4 3c
       0.036814056 -0.33332396 0.007281264 0.025892662
000320 a1 31 b8 bd e7 ab 77 bd 43 54 54 3e bc 2d 7b 3d
       -0.08993841 -0.060466673 0.20735268 0.061322913
000330 1c 42 84 3e 20 05 4c bd 73 e3 41 bd f4 9b 24 bb
       0.25831687 -0.049809575 -0.047336053 -0.002511737
000340 03 cc 0c bd 5c 73 70 3c e3 98 db 3c b8 3c 16 be
       -0.03437425 0.014675941 0.0268063 -0.146716
000350 78 37 2e bd 87 fe ff 3d 74 b6 38 3e 3b 14 81 3c
       -0.042533368 0.12499719 0.1803835 0.015756717
000360 d4 ca a5 bd a9 79 6d be 1d 91 03 3b 68 81 02 3c
       -0.08095327 -0.23190941 0.0020075508 0.007965423
000370 0b 3b 99 bc 12 a0 6b bd 10 bc 8b 3d 69 27 7e 3c
       -0.018704912 -0.0575257 0.068229795 0.015512326
000380 53 c8 c9 3d 5e 9a 40 3d df 97 cc bd bc bd 09 bd
       0.09852662 0.047022216 -0.099899046 -0.03362821
000390 18 ea 8f bd 14 37 a8 bd fb 01 97 bd 54 7b 9c bd
       -0.07027072 -0.0821363 -0.073734246 -0.076407105
0003a0 ff b0 a0 bb ac 57 02 bc 4f ca 63 be 77 c0 01 be
       -0.004903912 -0.007955473 -0.22245143 -0.12671076
0003b0 dd 51 22 3e e5 fc ec bd 8c ef e4 bc c2 a1 35 3d
       0.15851541 -0.11571673 -0.027946256 0.044343717
0003c0 68 bb 61 3c 7b 1b e2 3d 50 25 e4 bd cf c3 84 3d
       0.013777591 0.11040398 -0.11139929 0.0648266
0003d0 2b ef 44 3e c2 47 a6 ba 37 21 9e 3d 9f 9e 55 3e
       0.1923186 -0.001268618 0.07721179 0.2086129
0003e0 20 62 34 bd 41 14 3d bd 16 34 fd bc a9 e8 01 3c
       -0.04403889 -0.046161894 -0.030908626 0.007929006
0003f0 66 f9 c7 bc 85 56 af bb 5f d1 e6 3d 21 bb 8d 3d
       -0.024410915 -0.00535089 0.11270403 0.06920458

fc1.bias f4 [128]
000000 06 b3 ba bb 08 39 fb 3d 36 b9 5f be 8a c4 c7 bd
       -0.005697611 0.12266737 -0.21847996 -0.09754284
000010 d8 cd 47 3d 6d 41 06 3e 1a da 69 3d 05 5c d3 bd
       0.048780292 0.13110895 0.057092763 -0.10320286
000020 6e 70 c7 bc 0a 29 18 3d de 90 60 3c 73 8d f1 3d
       -0.024345603 0.037148513 0.013706414 0.117945574
000030 e3 da 42 3e 65 9b a4 bd 89 be c8 bd 64 6a c5 3d
       0.19028811 -0.08037452 -0.09801967 0.09639433
000040 2c 6d 21 be c3 5c 80 be 4d 48 00 3e 9a c5 15 3d
       -0.15764302 -0.25070772 0.1252758 0.0365654
000050 78 78 1d bd ec b7 36 bd 66 32 0d bc 7d 71 44 be
       -0.038444966 -0.044608995 -0.008617973 -0.19183917
000060 8a 11 5f be af c9 91 bd 41 80 fd 3c 5f 34 c1 be
       -0.21784034 -0.07118546 0.030944945 -0.37735268
000070 bb 6d b6 be f4 30 3c be 86 58 4d 3e 9c 49 25 3e
       -0.35630593 -0.18378049 0.200533 0.16141361
000080 a3 04 c5 bc 58 6b d6 3d a8 85 1d be 07 37 b4 3e
       -0.024050063 0.10469693 -0.15383017 0.35198233
000090 94 a3 9e be 4c 5d c5 3c e5 5a 9f be 34 36 5a bc
       -0.30984175 0.024092339 -0.31124035 -0.013318587
0000a0 99 0f c6 bd 53 c2 84 3d 4f 01 1d bd d5 42 0a 3d
       -0.09670944 0.06482377 -0.038331326 0.033755142
0000b0 63 57 8f bd 41 f6 48 3d 15 47 b2 bd 23 4e fa 3c
       -0.069990896 0.04906297 -0.08704964 0.030554837
0000c0 13 a7 38 3d b0 86 02 3e 9e 69 1e bd 3e 63 8d 3e
       0.04508121 0.12746692 -0.038674943 0.27614778
0000d0 5e e3 19 be 42 0b a4 be c7 7d ea 3d 87 0e 34 be
       -0.1502814 -0.3203984 0.114497714 -0.17583667
0000e0 aa a4 42 3e ba 4c 4f 3e b5 0d 0f be 08 1f 83 3d
       0.19008127 0.20244113 -0.13970073 0.06402403
0000f0 fb 5e 8b bd d9 5d 8d 3e 19 b4 24 be 10 b7 0c be
       -0.068052255 0.27610663 -0.16084327 -0.13741708
000100 f9 b7 f5 bd 86 50 3c 3b 63 8f ec bd de 5c c7 3d
       -0.119979806 0.002873452 -0.11550786 0.0973451
000110 04 12 41 3e ea 18 95 ba af 1c 10 be 89 1c 44 be
       0.18854529 -0.0011375223 -0.14073442 -0.1915151
000120 8f f1 6a 3e 01 c3 df 3c b8 ba 2e bd 2a 5f 8c bd
       0.2294371 0.027314665 -0.042658538 -0.068540886
000130 d4 e1 f9 3e 52 b3 e5 bd b8 d3 9b 3e b0 67 de bd
       0.48805106 -0.11215843 0.30434966 -0.108596206
000140 98 4e 32 be 7f f5 87 3d ce 40 04 bd 9b ce 09 3e
       -0.17412794 0.066386215 -0.032288365 0.1345772
000150 12 b1 e0 3d ed 9e ef bd 62 ce c6 3d 34 69 47 be
       0.109712735 -0.117002346 0.09707333 -0.19473726
000160 6a 6f 4a be ec 5f bc 3c c9 fb 29 3c ef 01 2c 3e
       -0.19769064 0.022994958 0.010374972 0.16797613
000170 ce c9 99 bd 17 b6 f1 3d ee c1 4c be 0d b3 80 bd
       -0.07509194 0.11802309 -0.19995853 -0.06284151
000180 16 d8 39 be 29 8c 87 bc b2 1f 5c 3e 5a 78 26 3e
       -0.18148836 -0.016546326 0.21496466 0.16256848
000190 23 0d 2d be 1d eb 46 3d d3 59 28 be ac 4b c2 3d
       -0.16899543 0.048564065 -0.16440515 0.094870895
0001a0 05 25 f7 3d 42 69 6f be a7 2f b0 bd b3 b2 f2 bd
       0.12067608 -0.23379996 -0.08602839 -0.118504904
0001b0 95 7f a3 3d 21 95 8d 3b a4 61 12 bd 16 70 1d be
       0.07983319 0.004320756 -0.03573765 -0.15374789
0001c0 cd e1 20 3e 5c b7 30 3c 16 97 62 bc 58 c7 a4 bd
       0.15711136 0.010785904 -0.013829967 -0.08045834
0001d0 1c f7 06 3d dd 5a b9 bc 6d 43 35 be ad fc ef bd
       0.032950506 -0.022626335 -0.17701502 -0.11718116
0001e0 54 1a d3 bd 14 3e f5 3e df 69 8c bd 5b bd 91 3d
       -0.10307756 0.47898924 -0.06856131 0.07116195
0001f0 2a f6 85 bc 2b 04 2c 3c 11 aa 35 3e 0d d0 28 3d
       -0.016352732 0.010499041 0.17740656 0.041214038

fc2.weight f4 [128, 128]
000000 3c 94 39 3e 54 99 8f bd cc ed 16 be 74 e1 e2 3d
       0.18122953 -0.07011667 -0.1473915 0.11078158
000010 3c d0 b7 3e 03 29 63 be 41 f2 e5 3d d8 9d bc 3d
       0.35901058 -0.22183613 0.11227847 0.09209794
000020 c7 a0 63 3e 96 ba c8 bc 06 30 74 3d d2 ef 39 3e
       0.222293 -0.024503034 0.05961611 0.1815789
000030 79 da 26 3e 72 19 b9 3d 94 1a 77 be c5 d9 ce bd
       0.16294278 0.090380564 -0.24131233 -0.1010013
000040 00 92 e0 bd 9b 14 ae 3d b8 6a 19 be cc b8 bf be
       -0.10965347 0.08500024 -0.14982116 -0.37445676
000050 74 5b 71 be 7b cb 9e 3e f5 f6 81 3e 2c f6 e1 bd
       -0.23570043 0.31014618 0.25383726 -0.11033282
000060 7c d9 b7 be e5 7d 29 bd 70 18 07 3e c7 58 2f 3c
       -0.35908115 -0.041379828 0.13192916 0.0107023185
000070 3e 7d 7d 3e 05 20 08 3e d5 a9 33 3e 91 a4 17 be
       0.24754807 0.13293464 0.17545255 -0.14808871
000080 4a 65 90 be cf fa 5f bd 94 aa 63 bd da 59 7c bd
       -0.28202277 -0.05468255 -0.055582598 -0.061609127
000090 0d 91 9e be d6 e5 11 3e bb 1a d7 3d 2f 1a 9b be
       -0.3097004 0.14247832 0.10503145 -0.30293414
0000a0 ce 02 f0 3d 7b 5f 19 be 15 b5 c5 bb 2f f7 45 3d
       0.11719285 -0.14977829 -0.0060335496 0.048331436
0000b0 1f e9 dc be f2 ca e2 3c 9f 30 17 3e e4 79 5d 3e
       -0.43146607 0.027684662 0.14764641 0.21628529
0000c0 be 86 a5 3c 08 0f bc bd 13 f3 5e bd bf 53 bf bd
       0.020205852 -0.091825545 -0.054431032 -0.09342145
0000d0 c0 7b a3 be 56 26 1a 3e 4f c6 ab 3c a9 d1 fa 3c
       -0.3193035 0.15053686 0.020968584 0.030617552
0000e0 c8 7a 38 3e e2 a4 06 bd 99 2a d9 bb d1 91 2b bc
       0.18015587 -0.03287209 -0.0066273925 -0.010471777
0000f0 c7 53 bc 3d 8b 61 1f be f9 f3 c7 3d 97 ca 98 bd
       0.09195667 -0.15564553 0.09763331 -0.07460516
000100 d7 e4 07 bc 80 cb 16 3d 5f fc 2b 3e 00 97 cb bd
       -0.008294306 0.036815166 0.1679549 -0.0994091
000110 48 fa 62 3d 5f 65 8c be 4b 82 b0 bd 28 ba 8f 3d
       0.055414468 -0.2742109 -0.086186014 0.07017928
000120 b9 a4 a6 3e cf 7c 47 3c a9 a9 1a 3e 06 29 3b be
       0.32547548 0.012175753 0.15103783 -0.18277368
000130 53 c7 57 be 9d b2 1e 3e f8 7a 83 bd 31 16 7b bd
       -0.2107213 0.15497823 -0.06419939 -0.06130046
000140 3e df 02 be 99 92 a5 3b 12 a6 f4 bc 83 2d a5 be
       -0.12780473 0.005052876 -0.029864345 -0.32261285
000150 d2 8f a1 bd 03 28 be bd 22 26 9c bc b5 d3 5c bd
       -0.0788876 -0.092849754 -0.019061152 -0.053912837
000160 15 9b 09 be b3 dc 06 bd a1 b5 1d be 3b 1e fc bd
       -0.13438065 -0.03292532 -0.15401317 -0.123104535
000170 2f e6 1d be bf 3c cc 3c fc 6b 9e be 5f 1c bc 3b
       -0.1541984 0.02493131 -0.3094176 0.005740687
000180 6c 4d 9b bd 47 42 28 3d 36 2c f7 bd 76 d1 4e bd
       -0.075831264 0.041078832 -0.120689794 -0.050492726
000190 2f da 59 3c 1b 72 b0 be 82 46 89 bd 98 81 65 bc
       0.013296648 -0.34462056 -0.067029014 -0.014007948
0001a0 aa 5f 92 be fc 17 60 bd 2d 20 02 3e e3 5e 69 be
       -0.2858861 -0.054710373 0.12707587 -0.22790103
0001b0 47 54 0c 3d b2 ec 2b bd b7 d0 bb 3d 1a 0d c7 be
       0.03426006 -0.041973777 0.091706686 -0.38877183
0001c0 6d f7 9b bc 11 fa 58 3c 6f 2f de 3d 38 5d 3a 3e
       -0.01903888 0.013243214 0.10848891 0.18199623
0001d0 66 89 f0 bc ce b3 50 3e f1 ba 57 be d1 22 0a 3e
       -0.029362392 0.2038109 -0.21067406 0.13489844
0001e0 37 a5 9f 3d 5e fe ca 3d f4 11 2b be 5f 5d 80 bd
       0.07795184 0.09911798 -0.16706067 -0.06267809
0001f0 1b 56 85 bd 3e 02 26 be a3 82 a9 bd 33 b0 b8 bb
       -0.06510564 -0.16211793 -0.0827687 -0.005636239
000200 22 72 20 3d 58 56 18 be 66 61 26 be d6 2a c5 bd
       0.039171346 -0.14876688 -0.16248092 -0.09627311
000210 4e a2 23 be 90 05 a2 3d fc b8 0e 3d ad 6e e8 3c
       -0.15979883 0.07911217 0.034844384 0.028373087
000220 df 8c 7f 3d 95 a7 3b bd 81 3c 05 bc ac 57 c4 3d
       0.062390205 -0.045814116 -0.008132101 0.095870346
000230 ff 87 f2 bd e6 6e 9f 3d 87 f5 c7 3d 59 5c d3 3c
       -0.118423454 0.07784824 0.097636275 0.02580087
000240 53 32 80 be 3a 28 04 3e 8c d9 ad bd 26 8b f9 bc
       -0.25038394 0.1290597 -0.084887594 -0.030461859
000250 10 e1 46 bd 5a 40 96 bd 27 a7 ce 3d 8c fc a7 3d
       -0.04855448 -0.07336493 0.100904755 0.08202466
000260 aa 61 d1 bb 6f e6 a2 3d 17 b7 37 bc e5 79 ad bd
       -0.0063898163 0.07954108 -0.011213086 -0.08470515
000270 ea f1 09 3d 93 11 fa 3c 26 c0 0c be 13 f8 5f 3e
       0.033677973 0.030525958 -0.13745174 0.21871977
000280 9a 9e 02 3d bf 66 58 3b 57 06 d1 bd 90 a4 c4 bc
       0.031889535 0.0033020226 -0.10206287 -0.02400425
000290 7f e9 b1 3d d8 60 37 3d da 9f e9 bd 06 e1 da be
       0.08687114 0.04477009 -0.114074424 -0.42749804
0002a0 49 f8 d7 3c ab 3d 9e 3d a7 e8 35 3e 9c 72 84 be
       0.026363509 0.07726606 0.17764531 -0.2586869
0002b0 fc f1 08 3e 95 a2 73 be 57 db a7 3d 87 a2 29 be
       0.1337356 -0.23792489 0.08196133 -0.16565906
0002c0 2e 79 23 3e 78 58 05 be 3a 09 29 bd 35 10 24 bd
       0.15964195 -0.1302203 -0.041268565 -0.04005452
0002d0 99 7d 55 be da b2 13 be a1 56 d9 bc 60 7d 14 3e
       -0.20848693 -0.14423695 -0.026530566 0.14500952
0002e0 69 76 0f bc 3e c2 1f be 53 5d 3a 3e 96 ae 85 be
       -0.0087562585 -0.15601441 0.18199663 -0.2610976
0002f0 06 d6 82 bd 7c a8 13 3b 96 79 57 bd 9e 89 a0 be
       -0.06388478 0.0022530844 -0.052606188 -0.31354994
000300 63 4f 80 bb 11 3f 08 3d dd 22 b1 be e8 e2 cf bc
       -0.0039157136 0.03326327 -0.3459691 -0.025376752
000310 d1 c9 46 3e 44 02 fc bd bd cf 5a bc 7c da 65 be
       0.19412924 -0.1230512 -0.013355193 -0.22446626
000320 05 e7 65 be 45 c6 8c be a8 cc 27 be f5 d5 0f be
       -0.22451408 -0.27495018 -0.16386664 -0.14046462
000330 0f 96 35 3e 62 83 43 be 4c d3 a3 be 31 cf 08 bd
       0.17733024 -0.19093087 -0.31997144 -0.033400718
000340 c2 1b 39 be 3a 5a 1e 3c 2a 69 e6 bd 27 fe 0b 3e
       -0.18076995 0.009665066 -0.11250527 0.1367117
000350 41 e7 38 3c 0b 15 32 bd 82 81 16 be 8a 82 14 3e
       0.011285604 -0.0434771 -0.14697841 0.14502922
000360 5b fd 9d be f8 91 6a be c7 63 08 bd 95 7c 4a 3e
       -0.30857357 -0.22907245 -0.03329828 0.19774087
000370 49 f3 26 be 15 93 0e 3e cf 45 72 3d 9b 9a f8 3c
       -0.16303743 0.13923295 0.059148606 0.03034716
000380 b6 2a 91 3d 0c 92 98 be a8 25 57 be 36 61 9e bd
       0.070882246 -0.29798925 -0.21010458 -0.07733385
000390 ff 6d 4b be 8a ca 29 be dc 32 dc 3c 9f 13 3a 3e
       -0.19866179 -0.16581169 0.02687972 0.18171547
0003a0 ee ce 87 be 52 ae 94 be 46 e0 b8 bc 80 46 46 be
       -0.26525062 -0.29039246 -0.02256788 -0.19362831
0003b0 91 67 05 bf 37 de a0 be 42 e9 09 be 5d 6c 40 bd
       -0.52111155 -0.31419536 -0.13467887 -0.046978343
0003c0 b4 fa 51 be c1 9b ae bd 90 c5 df bd 66 77 33 be
       -0.20505792 -0.085258015 -0.10926354 -0.17526016
0003d0 ba 8c 21 3d 36 f4 93 bd b2 28 b7 3c db 7d 44 3c
       0.039440848 -0.07224314 0.022358272 0.011992897
0003e0 bd 51 5e 3e 45 7b 29 bd 85 25 0f 3c d4 eb 6e bd
       0.21710868 -0.041377325 0.008736973 -0.058330372
0003f0 75 9f ba be f5 8d 09 bd 82 db 1d 3d 7e b8 95 3d
       -0.3644978 -0.033582646 0.038539417 0.0731058

fc2.bias f4 [128]
000000 b5 82 2b bc 5d f2 51 3e a7 39 f7 bc 90 cf 27 3e
       -0.010468175 0.2050261 -0.030178858 0.16387773
000010 dc 2d 6b 3d 6d e6 17 3e e7 9d b2 3d 5c f2 f6 3d
       0.05741678 0.14833994 0.08721524 0.12057945
000020 2f 25 71 be 8c 2d f6 bd 3e 11 85 bb 33 6c d8 3c
       -0.2354934 -0.12020406 -0.0040608933 0.02641878
000030 8a cb 72 be 13 1a 5b 3d 35 43 0f be 9a 56 13 be
       -0.23710456 0.053491663 -0.13990481 -0.14388505
000040 a6 1f 84 3e 94 d0 ee 3b be eb a5 3d a3 0a a0 3d
       0.25805396 0.007288048 0.08101605 0.07814529
000050 8f 6d a7 3c 75 23 41 bd c2 ae 2f bd 52 1b 52 bd
       0.020437984 -0.047152955 -0.04289127 -0.051295586
000060 6b 2b ee 3d f1 45 28 3e cc e5 cb bd 67 08 78 be
       0.11629375 0.1643293 -0.0995594 -0.24221955
000070 b2 cf f1 bc d8 d2 03 bd 99 d6 80 3d e2 db 63 3e
       -0.029517982 -0.0321835 0.06290931 0.22251847
000080 b2 86 3d 3e 5a 8f ad bd 86 97 f3 bc 3f 27 bd 3d
       0.18508413 -0.08474608 -0.029735338 0.09236001
000090 af ef e2 bd 20 6b da bd e9 e6 fe 3d 86 2a 57 be
       -0.11080872 -0.10664964 0.12446386 -0.21012315
0000a0 f6 37 0a bd d8 c5 2c bd c0 b2 86 bc 98 81 a5 3d
       -0.033744775 -0.042180866 -0.016442657 0.08081359
0000b0 f8 09 b4 bd df 5c 92 3d 17 e5 b5 3e 6a 86 3b 3d
       -0.08790964 0.0714662 0.35526344 0.045782484
0000c0 d2 e9 60 3e 51 f2 6f bd 65 d4 fb 3d 4f f0 ba 3d
       0.21964195 -0.0585807 0.122963704 0.091278665
0000d0 cb f6 73 3c 52 55 eb bd f7 36 c3 3d 1b 96 81 3e
       0.014890383 -0.11490883 0.09531968 0.25309834
0000e0 c3 f1 01 3e 98 c9 de bd 08 56 07 3e 7c 1b ff bd
       0.12689881 -0.10878295 0.13216412 -0.12456414
0000f0 01 4b 3d be 2a be 26 be 9e 93 f0 bd 14 2e bc bd
       -0.18485643 -0.1628348 -0.11746906 -0.09188476
000100 73 d7 b5 bd 85 f8 d8 bd 09 8c 6b bd cb 19 a0 3c
       -0.08878984 -0.10594276 -0.057506595 0.019543549
000110 6d c1 c3 3d cd f4 1d 3e 52 a5 13 3e 3b 00 48 be
       0.095583774 0.15425415 0.14418533 -0.19531338
000120 10 33 b6 bd f8 cc 2e 3e d3 c4 81 3c 08 a5 a4 3e
       -0.08896458 0.17070377 0.015840923 0.3215716
000130 4b fc e0 bd 2f 75 38 be a8 5e 9a 3d f5 8a 66 bd
       -0.10985621 -0.18013452 0.075375855 -0.056284864
000140 7d 4d a8 3c 2a 81 c3 3d 6c f3 97 3d 1b 29 23 be
       0.020544762 0.095461205 0.07419476 -0.15933649
000150 24 dc be be 34 02 87 3c d8 4d 3c bd 71 95 46 bd
       -0.3727733 0.016480543 -0.045972675 -0.048482362
000160 a0 6f d5 bd d2 3d 77 bd c0 f6 58 3d 1b c0 11 3e
       -0.104216814 -0.06036169 0.052969694 0.14233439
000170 b7 56 88 3d 51 ea 18 be c1 28 8a 3e 57 01 15 3d
       0.066571645 -0.14933135 0.26984218 0.03637823
000180 35 f0 2b bd 9d 43 89 3e 00 7f e7 3d 4c 53 87 3e
       -0.041977126 0.26809397 0.1130352 0.26430738
000190 30 91 08 be 2c 5c eb 3d cd 6f 1d be 59 21 8f bd
       -0.13336635 0.1149219 -0.1537468 -0.069887824
0001a0 db 28 40 3e d1 be e9 bd 52 a2 0a 3e cb 37 b1 bc
       0.18765585 -0.114133485 0.13538483 -0.02163305
0001b0 a5 af 0a be 52 60 7b 3d 5e 2b b4 bc 07 6e 80 3e
       -0.13543566 0.061371155 -0.021993335 0.25083944
0001c0 3f 02 3b 3e 5d 30 ad 3d 6b be 8c 3e 89 5a 21 bd
       0.18262576 0.0845649 0.27489027 -0.03939298
0001d0 0a e0 4e be 52 b1 70 3e dc 2c 32 3e 49 37 77 3e
       -0.20202652 0.23505142 0.17399925 0.24142183
0001e0 82 03 8f 3e 89 35 16 bd 5f 9c 1c 3c 5f 17 78 bd
       0.27932364 -0.03667215 0.009558766 -0.060569163
0001f0 b1 76 9b bd 99 27 b1 3b 9d 79 98 3e be a7 8b 3d
       -0.07590998 0.0054063317 0.29780284 0.06819104

fc3.weight f4 [4, 128]
000000 13 fd a4 3e 02 e6 82 3d 52 12 f5 3c ab 0c 3c be
       0.3222433 0.06391527 0.029915962 -0.18364207
000010 eb 67 0e 3f 7d 35 9c 3e 2a 4e b1 bd 38 b7 04 bf
       0.55627316 0.30509558 -0.08657487 -0.5184207
000020 43 84 5f 3e b6 60 b2 3e 06 3a 56 3e 05 04 9c be
       0.21827798 0.3483941 0.20920572 -0.30471817
000030 4a 8d 4a be db 83 e4 be 2b 48 7d bd d4 55 ed 3e
       -0.1978046 -0.44631848 -0.061836403 0.46354544
000040 39 15 ba be 9a 45 b6 3e a2 c0 57 be 1b f3 19 3e
       -0.36344317 0.35599977 -0.21069577 0.15034144
000050 e1 ca 53 3d 15 ed 05 bd cd 26 9d bb 2f ef ed be
       0.051707152 -0.032696802 -0.004795885 -0.46471545
000060 c2 af 12 3e dd 83 75 bc 56 53 34 3e ba cc 72 3d
       0.14324859 -0.014985052 0.17609915 0.059277274
000070 b1 99 76 3c 37 59 89 be 8e a3 2e be 3c 52 81 3d
       0.015051291 -0.26825878 -0.17054579 0.06314513
000080 bb 16 0c 3e 30 9b 4d 3d d6 57 1f bf 8b 87 a8 be
       0.13680546 0.050196826 -0.622434 -0.3291591
000090 be 1c ec bc 19 ee b0 bd 55 f0 f1 be bd 6a 16 3e
       -0.0288223 -0.086391635 -0.4725367 0.14689155
0000a0 f5 c8 6e be 36 2e 7f be 7c 73 db 3d 20 0e 9d 3e
       -0.23318847 -0.24919972 0.10715386 0.3067484
0000b0 5b 70 a4 be 0b 00 31 be e1 8e a9 be f7 34 64 3d
       -0.3211697 -0.17285173 -0.3311682 0.055714574
0000c0 d9 63 89 3e 88 e8 cd be d4 32 ac bd ae cf 6b be
       0.2683399 -0.4021647 -0.08408132 -0.23028442
0000d0 97 39 e8 3d 1c 8b ab 3e 34 d7 8b bb 01 09 07 3e
       0.113391094 0.3350457 -0.0042675976 0.13187028
0000e0 07 6a bc be 47 83 70 bd 0d a1 58 3e 3a 15 94 3e
       -0.36799642 -0.058718946 0.21155186 0.28922445
0000f0 c6 57 c3 3e a7 16 e3 3e d6 f9 9f 3e dc ad b2 be
       0.38152903 0.4435322 0.31245297 -0.3489827
000100 49 6e e7 3e a3 61 fa 3d 4b bd a9 3e 50 e2 0e 3e
       0.45201328 0.12225654 0.33152232 0.13953519
000110 15 9e 57 be ec 2c 67 3e 9d 7a 95 be a5 e1 5f bd
       -0.21056397 0.2257573 -0.2919511 -0.05465855
000120 2d ee eb 3e 02 6c c9 3e a3 ab c9 3d 74 55 7e be
       0.4608015 0.39340216 0.0984719 -0.24837285
000130 2b 8c 52 3e 29 30 ea be e4 9c a8 3e 1d ad d0 be
       0.20561282 -0.45739868 0.32932198 -0.40757075
000140 33 b5 65 be 8f 61 bf 3c d0 d3 6d be c5 5c 1c 3d
       -0.22432403 0.02336195 -0.23225331 0.03817441
000150 cd 28 34 3c df 91 21 be 64 63 43 be 9b 44 72 be
       0.010996056 -0.15778302 -0.19080883 -0.23658983
000160 47 db 66 3e 83 2e 60 be 7c 3c a3 3d 96 3a e2 3d
       0.22544585 -0.21892743 0.07970521 0.11046331
000170 62 5a 45 be 14 f7 97 3e 25 cb 51 3e 49 a2 c2 3d
       -0.1927276 0.29680693 0.2048765 0.0950361
000180 95 f1 fb bd 4b f1 fb 3b 90 c5 60 be af cb 9e 3d
       -0.123019375 0.0076886765 -0.21950364 0.07753693
000190 86 ee bc bc e9 f9 04 be b3 09 fa 3e 41 3e 48 be
       -0.023062956 -0.12985958 0.48835525 -0.19554998
0001a0 ed c0 bc be 99 a9 14 3e 58 0f c1 be f4 a4 9f 3d
       -0.3686594 0.14517821 -0.3770702 0.07795134
0001b0 eb a3 27 3d 17 78 3c be d9 e9 6d bd 6d 45 00 bf
       0.04092781 -0.18405186 -0.058084343 -0.50105935
0001c0 37 76 e2 be 13 40 6a 3e d4 61 04 be b7 7b 02 3d
       -0.44230816 0.22876005 -0.12927943 0.031856265
0001d0 ba aa 8d 3e e4 16 cc bd 47 c7 30 3c a0 25 93 3e
       0.27669317 -0.099653035 0.010789699 0.28739643
0001e0 9f 17 4f be 04 23 b6 be c2 c1 b8 3e 6b c8 c8 3d
       -0.20223854 -0.3557359 0.36085325 0.09803852
0001f0 b1 4c 16 3f 61 5c 31 bd 06 05 d3 3c 38 97 e8 3d
       0.5871077 -0.04330099 0.025759231 0.11356968
000200 08 29 84 be ba 7c 0f bd 9d 56 3b be f8 43 45 bd
       -0.25812554 -0.035031058 -0.18294759 -0.048160523
000210 13 39 92 3e da 5b 48 be 55 b6 a8 be c6 d2 98 3e
       0.2855917 -0.19566289 -0.32951608 0.29848307
000220 79 e3 8a 3e 69 07 a0 3d b8 0f 9c bc 60 35 65 be
       0.27126673 0.078139134 -0.019050464 -0.22383642
000230 0a 59 91 be 7d a1 18 bd 1d 62 20 3f 81 41 72 39
       -0.28388244 -0.037263382 0.6264971 0.0002310332
000240 d5 6c 1c 3e 57 ad a8 3d b9 bd ab 3d d9 a1 bf 3d
       0.15275891 0.08236187 0.08385796 0.09357042
000250 6a a1 5f 3e 1a c8 89 3e 66 b9 5f 3e 49 db 04 be
       0.21838918 0.26910478 0.21848068 -0.12974276
000260 d0 ce 28 3e ab 9c 3f bd 74 5d 8e 3e c6 91 95 3e
       0.16485143 -0.04678027 0.27805674 0.2921278
000270 e8 18 93 3e 0b 94 e1 3d 08 56 47 3d b5 56 af 3e
       0.2872994 0.11014565 0.04866603 0.3424584
000280 b7 e8 6f be 98 9f 16 3e e5 41 87 bb fc 18 4c bd
       -0.23428617 0.14709318 -0.0041277283 -0.049828514
000290 37 8f d3 be fe c6 ad 3e 0d 81 3e be bf 17 26 bd
       -0.41320202 0.33940881 -0.18603916 -0.04054999
0002a0 96 f6 5a bd 18 7f 1a be a2 3f 46 be c9 cc 61 bd
       -0.05345782 -0.15087545 -0.19360211 -0.05512694
0002b0 3e 9d 83 bd d0 86 c8 39 b2 ad bd be cd d6 cb 3e
       -0.06426476 0.00038247416 -0.37046582 0.39812317
0002c0 f8 bc d2 bd 50 34 12 3e a7 5f 22 bd 89 c5 5f 3d
       -0.10289949 0.14277768 -0.039642002 0.054631744
0002d0 55 e6 f6 bc 4e 00 64 be 96 8e 04 bf e7 35 ea be
       -0.030139128 -0.22265741 -0.5178007 -0.4574425
0002e0 e0 51 83 3e 14 de 13 3f 53 f3 9a bd 50 a4 9f 3d
       0.25648403 0.5776074 -0.07565942 0.07795012
0002f0 cf 36 43 be 58 92 2c 3c 5a 15 18 3e cc 38 f3 3d
       -0.19063877 0.010532938 0.14851895 0.118760675
000300 c6 72 84 3e f0 6c 44 3d e8 a6 43 3e e8 cc f5 be
       0.25868815 0.047955453 0.19106638 -0.48007894
000310 cb aa f1 bd a5 33 25 3e d4 3a 80 ba f8 95 7a be
       -0.11800154 0.16132982 -0.0009783157 -0.24471271
000320 28 e1 51 3e 4f 5c 44 3e 1f ac 17 3e da 75 4f be
       0.20496047 0.19175838 0.14811753 -0.202598
000330 21 86 b2 3e a5 68 0e 3f 06 96 9c be 68 be 1d be
       0.34867957 0.55628425 -0.3058321 -0.15404665
000340 44 0a 7d be 4a 35 06 be 4b da f8 3e ca 68 9c be
       -0.24710947 -0.13106266 0.48604044 -0.30548698
000350 80 8b 08 be 7c 4d 0c be 59 3a 83 3d 4d 82 92 be
       -0.13334465 -0.13701433 0.06407613 -0.28615037
000360 b0 dd 44 3f d7 23 24 be 71 1a 3e 3d cb 90 51 3e
       0.7690077 -0.16029297 0.046411935 0.2046539
000370 12 11 07 be 1b c4 08 3f 63 28 cd bc 91 cb 6d bd
       -0.13190106 0.53424233 -0.025043672 -0.058055464
000380 99 4f c1 be 18 5b 3c 3d 6f 35 b3 bd 12 dd ef be
       -0.3775604 0.04598531 -0.08750426 -0.4684835
000390 9d d4 b1 3e 40 1e 23 3e 77 4d 29 bc 37 9d 02 3e
       0.34732524 0.15929508 -0.01033341 0.12755285
0003a0 ba ce e5 3c 40 a9 04 3f 35 97 a4 be e1 4f fb bd
       0.028052676 0.51820755 -0.32146612 -0.12271095
0003b0 73 f4 cc 3d 96 ea 7d bd 7f 16 5c be 6f 2b 8e be
       0.100075625 -0.061991297 -0.21492957 -0.27767512
0003c0 0c e4 cd 3d 4e 26 56 3e 2f 41 a4 3e 42 f7 cf be
       0.10053262 0.2091305 0.3208098 -0.4061833
0003d0 e1 ff d6 be 07 81 3e bc ad 9a c9 3e a3 fd c3 bd
       -0.41992095 -0.011627442 0.3937582 -0.09569862
0003e0 97 49 34 3e 9b 9f 3b be cd 95 9a bc a3 2a 3b 3e
       0.17606197 -0.18322603 -0.018870259 0.18277983
0003f0 b9 ec 4c be 7c 7a 53 be 0e 90 ef be f7 0a bf be
       -0.20012178 -0.20652193 -0.46789593 -0.37313053

fc3.bias f4 [4]
000000 76 9b 4f bd 9f c9 ae bd 1e 87 31 be 2c 11 c6 3d
       -0.05068537 -0.0853455 -0.173367 0.09671244

bn1.weight f4 [128]
000000 89 13 d6 3f e2 bd a5 3f 2a 42 af 3f 89 60 ba 3f
       1.6724712 1.2948573 1.3692067 1.456071
000010 32 b7 9f 3f 84 b9 ad 3f 16 a4 ab 3f e5 3d bd 3f
       1.2477782 1.357224 1.340945 1.4784514
000020 8a c1 b2 3f 52 bc a2 3f df 8b ab 3f 66 1d bc 3f
       1.3965313 1.2713721 1.340206 1.4696472
000030 cd 18 a8 3f bb 03 c5 3f 65 08 bc 3f 92 11 ad 3f
       1.3132569 1.5391763 1.4690062 1.3520987
000040 b1 22 98 3f d7 63 a6 3f 60 de b4 3f 7d 55 c0 3f
       1.1885587 1.2999219 1.4130363 1.5026089
000050 5a f0 a8 3f 88 fd b3 3f 6a cc c4 3f e8 f2 ac 3f
       1.319835 1.4061747 1.5374882 1.3511629
000060 b8 08 e6 3f e3 24 b3 3f 2b 09 bc 3f 07 92 98 3f
       1.7971411 1.3995632 1.4690298 1.1919564
000070 d7 98 c3 3f 68 25 a3 3f 87 3c b5 3f 2a 5e aa 3f
       1.5281018 1.274579 1.4159096 1.3309987
000080 72 b9 b5 3f af f1 b5 3f 4e 1c a6 3f f7 39 b0 3f
       1.4197218 1.4214381 1.2977388 1.376769
000090 b8 6f b2 3f 5d 3a a2 3f e6 2f d6 3f a8 f2 da 3f
       1.3940344 1.2674061 1.6733367 1.7105303
0000a0 9f 6b a9 3f 4b 68 bb 3f 07 0e bc 3f dd da b1 3f
       1.3235968 1.4641203 1.4691781 1.3894917
0000b0 77 45 ce 3f dc 33 b6 3f 56 1c ac 3f ef dd aa 3f
       1.6114949 1.4234576 1.3446147 1.3348979
0000c0 46 ab b7 3f 1f 09 b3 3f 5b 00 b5 3f 71 da b3 3f
       1.4349144 1.3987159 1.4140733 1.4051038
0000d0 71 dd a9 3f 08 dd cb 3f cb ae 9f 3f a0 a4 be 3f
       1.3270704 1.5926828 1.2475218 1.489399
0000e0 07 37 ae 3f cb c9 a9 3f bb 24 c4 3f bb 59 b8 3f
       1.3610543 1.3264707 1.5323709 1.4402384
0000f0 51 a5 bf 3f b6 8e a4 3f 14 1e a4 3f 2a 1c a7 3f
       1.4972326 1.2856052 1.2821679 1.305547
000100 66 b1 a2 3f f9 a6 a8 3f 2d 23 b1 3f de fd b0 3f
       1.2710388 1.3175956 1.383886 1.3827474
000110 ec 03 a8 3f 97 2f a2 3f 32 f3 a0 3f d2 57 a5 3f
       1.3126197 1.2670773 1.2574217 1.2917426
000120 f6 db ca 3f 3c 58 ae 3f c6 84 d9 3f 5c 4c ba 3f
       1.5848377 1.3620677 1.6993644 1.4554553
000130 69 03 b1 3f 98 4a c0 3f c3 4e a2 3f 78 b0 b8 3f
       1.3829166 1.5022764 1.2680286 1.4428854
000140 d4 29 f1 3f 3c d5 b9 3f 81 47 a4 3f b2 9b ad 3f
       1.884089 1.4518199 1.2834321 1.356314
000150 db 8b bc 3f fb 6a b2 3f f2 0f ad 3f 69 1a d5 3f
       1.473018 1.3938898 1.3520491 1.6648685
000160 82 5f b3 3f 34 13 c6 3f 5b 3b c7 3f d8 df ac 3f
       1.4013522 1.547461 1.5564989 1.3505812
000170 22 3d c1 3f 38 c9 af 3f 1f 1b b7 3f 2c 74 a4 3f
       1.5096781 1.3733282 1.4305152 1.2847953
000180 d9 c8 9d 3f cc d2 b6 3f 0d a0 c0 3f bc fd ad 3f
       1.2326919 1.428308 1.5048844 1.3593059
000190 81 1a a2 3f c6 5a bc 3f 67 9a c0 3f b2 5b a9 3f
       1.2664338 1.4715202 1.504712 1.3231108
0001a0 2a 5a b3 3f 26 b0 bf 3f 82 7f b4 3f 9a c9 b6 3f
       1.4011891 1.4975631 1.4101412 1.4280274
0001b0 ba d2 cf 3f 3d fe b5 3f 09 cc 92 3f 0e 90 b2 3f
       1.6236184 1.4218212 1.1468517 1.3950212
0001c0 94 b7 a3 3f 35 9f b3 3f 80 3e 9e 3f 41 65 b8 3f
       1.2790399 1.4032961 1.2362823 1.44059
0001d0 15 da b7 3f c8 1e a9 3f b8 0e bc 3f 3c 34 aa 3f
       1.4363428 1.3212519 1.4691992 1.3297191
0001e0 f5 30 ad 3f d6 56 a9 3f dc b1 b6 3f 17 5c b6 3f
       1.3530566 1.3229625 1.4273028 1.4246854
0001f0 aa 61 b4 3f 8c 0e bb 3f a8 fd a5 3f 21 58 a1 3f
       1.4092305 1.4613814 1.2968035 1.260502

bn1.bias f4 [128]
000000 d7 28 1e bd 16 69 fd bb 0f 70 00 be 59 95 ec 3d
       -0.038613167 -0.0077334745 -0.12542747 0.11551923
000010 ef b9 0a be 0e 4e f8 bd c3 a3 2d be e9 b8 04 be
       -0.1354749 -0.12124263 -0.16957001 -0.12961163
000020 1f 93 50 be bb f4 d7 3d f4 d7 11 3c 50 99 b1 bc
       -0.20368622 0.105447255 0.008901585 -0.02167955
000030 b2 54 9b bd 38 f8 59 bd 14 d8 62 be da fe fb 3d
       -0.07584514 -0.053215235 -0.2215274 0.123044685
000040 f0 57 29 be dc 52 5d be d4 93 96 3d 83 68 3f bd
       -0.16537452 -0.2161364 0.07352415 -0.04673053
000050 30 bb 5b 39 1b fd 0c bd 4b b8 68 bd 76 0b 03 be
       0.000209552 -0.034421068 -0.05681638 -0.12797341
000060 a5 1e fa 3d 8d 0e 7c be de 8b 8a 3e 49 d9 2a bd
       0.12212876 -0.24614926 0.27059835 -0.041711126
000070 32 60 9b bd 49 ba 88 bc 11 aa 1c 3e b7 95 a4 3d
       -0.07586707 -0.01669039 0.1529925 0.08036368
000080 75 bb 1c 3e 44 12 66 3e cf b2 89 bd d7 87 47 be
       0.15305884 0.22467905 -0.06723558 -0.19485413
000090 13 00 25 3d 39 80 e9 bd 29 61 0b 3c ee 4c be bd
       0.040283274 -0.1140141 0.0085070515 -0.09292017
0000a0 0f 31 72 bd dc e6 94 3d 20 ec b8 3d 31 99 37 be
       -0.059128817 0.072705954 0.09029412 -0.17929532
0000b0 b5 1b ee bd 72 d1 db bd 87 9d 90 bc b5 4d a1 bd
       -0.116263784 -0.10733308 -0.01765324 -0.078761496
0000c0 c3 03 53 3c 79 de 69 bd e3 58 5b 3e 41 9c ab 3d
       0.012879315 -0.057096932 0.21420626 0.083794124
0000d0 5c 2c 0e 3c ba 03 4b bc 79 3f c8 bd 6c 48 05 3e
       0.008677568 -0.012391025 -0.097777314 0.13015908
0000e0 c8 56 f1 bd ea 83 09 3d 58 11 2d be 79 9f 35 bd
       -0.1178413 0.03357307 -0.16901147 -0.044341538
0000f0 df aa 15 bd 86 5b 65 3e 60 14 a3 3d 52 f3 2e be
       -0.03653991 0.22398195 0.079628706 -0.17085007
000100 36 87 60 3d 83 50 15 3e 52 e8 da bd 2f 7c 46 bd
       0.054816447 0.14581494 -0.10688843 -0.048458274
000110 da 44 07 3d 39 8b 56 3d df e6 30 3c 6d 94 a0 bd
       0.033024646 0.052378867 0.010797231 -0.0784081
000120 5c 18 c2 bd 61 b1 2a be b2 b1 91 3d 56 37 36 be
       -0.094773024 -0.16669227 0.07113971 -0.17794546
000130 09 4e f6 bc d7 7f b3 3d e0 10 20 bd a2 22 4e be
       -0.030066507 0.08764618 -0.039078593 -0.20130399
000140 7a 41 04 bd da 39 99 3d 43 73 93 3d 7e e4 c3 bd
       -0.032289006 0.074817374 0.07199719 -0.09565066
000150 3f 07 8e 3d a5 36 0f bd 52 8f 90 bd b9 58 a3 3c
       0.06934976 -0.034964222 -0.07058586 0.019939767
000160 0c 36 3e be dd f0 88 3d 6e 9d c9 bd 67 e1 71 3d
       -0.18575305 0.06686566 -0.098444805 0.05905285
000170 fa 6b 6b bd 59 86 45 bd f8 4a 6d 3e c1 2f e0 bd
       -0.05747602 -0.048223827 0.2317313 -0.10946608
000180 f3 37 64 3d a6 56 96 bb 3e b6 a2 3c f9 67 61 3d
       0.05571742 -0.004587966 0.01986229 0.055030797
000190 98 e7 0c 3b 6c 9c 1d be 8f 6c d5 3c 37 c9 cc 3b
       0.0021500345 -0.15391701 0.026052741 0.0062495726
0001a0 bc 04 61 bd 8b 34 44 3d 9c 41 63 bd fc cd f7 3d
       -0.054936156 0.04790167 -0.05548249 0.12099835
0001b0 5c 3b ae bc ad f8 53 3d e9 50 e0 3b bc c3 21 bd
       -0.02126854 0.051750828 0.0068455827 -0.039493307
0001c0 c6 5c 8f 3d 52 ee 03 be 76 8f 95 bd 33 ae 08 bd
       0.07000117 -0.1288388 -0.073027536 -0.033369254
0001d0 bc 4a 8c bd ce 97 3c 3e d9 cd 25 be 60 3c d9 3d
       -0.06850192 0.18417284 -0.16191806 0.10607219
0001e0 a7 d3 49 3e 25 8b c4 3d b3 1d d4 bb a1 45 4b 3e
       0.19709645 0.09596852 -0.006473267 0.1985078
0001f0 c7 9a 72 3d 08 51 bf bd 58 8a 6a 3d ce b5 8a bd
       0.05922964 -0.09341627 0.05726084 -0.06772958

bn1.running_mean f4 [128]
000000 52 c3 1f 3e e1 48 9a 3e 76 6e 04 3e 66 fd c6 3d
       0.15601853 0.30133727 0.12932763 0.09716301
000010 d2 5a a8 3e bf 88 55 3f 65 3d 76 3e 32 e2 a9 3e
       0.3288179 0.8341178 0.24046858 0.33180386
000020 74 b9 23 3f 3f 2a 86 3e 13 49 ff 3e 44 1f 76 3f
       0.63954854 0.26204106 0.4986044 0.9614146
000030 90 3f e6 3e 96 bb 1c 3e 7d a0 ad 3e f4 e3 86 3e
       0.4497037 0.15305933 0.33911505 0.2634579
000040 ff 13 e8 3e c9 6c 89 3d ad bc 50 3f 97 7a 87 3e
       0.45327756 0.06710202 0.81537896 0.26460716
000050 c5 2e 0f 3f e6 40 ad 3e c0 b8 51 3e 82 33 14 3e
       0.5593074 0.33838576 0.20480633 0.14472774
000060 42 9d 6c 3e 0c c3 47 3e 65 09 11 3f de 52 5d 3e
       0.23106864 0.19507998 0.5665496 0.21613643
000070 36 76 63 3d d6 23 de 3d 1e 7e 26 3f d1 17 5a 3f
       0.055532657 0.10846679 0.6503619 0.8519259
000080 83 d2 57 3e 4e 60 ff 3e 67 30 78 3f e0 c0 7b 3f
       0.21076398 0.49878162 0.96948856 0.9834118
000090 c1 c8 4e 3e 34 38 06 3f b0 1c 5e 3d 81 3e b9 3e
       0.20193769 0.5242951 0.054226577 0.361805
0000a0 8a 67 7f 3e ec 7c 0e 3e 48 0a a7 3e 3e 61 ae 3e
       0.24941841 0.13914841 0.3262503 0.34058565
0000b0 a7 60 38 3e de d7 c1 3e 67 62 3c 3e e4 c9 ff 3e
       0.1800562 0.37860006 0.18396913 0.49958718
0000c0 9d a1 d2 3e aa c3 b9 3e 42 e8 86 3e 1d bf 64 3f
       0.41138926 0.36282092 0.26349074 0.89354116
0000d0 50 91 e0 3d 8b 8b e2 3d 79 04 88 3e 00 d0 de 3d
       0.10965216 0.11061772 0.26565912 0.108795166
0000e0 64 58 40 3f 20 31 1e 3f f5 bf 6b 3e 4a c1 c7 3e
       0.75134873 0.6179371 0.23022445 0.39014655
0000f0 5d 92 c4 3e 15 5f 85 3f 5a e3 8d 3e 72 3d 5f 3e
       0.38392916 1.0419642 0.27712518 0.21800783
000100 db 10 49 3e 4d b8 06 3f 4b 9c 8e 3e 77 e1 15 3f
       0.19635336 0.5262497 0.27853617 0.5854716
000110 98 02 73 3f d1 b1 39 3f 51 b0 4d 3e c3 02 98 3e
       0.9492583 0.7253695 0.2008679 0.29689607
000120 9a 2d d1 3e b2 9d 6e 3e 8c f0 e1 3d 4b 0c 05 3e
       0.40855104 0.23302343 0.11032209 0.1299297
000130 a5 b9 cc 3f c8 7c 20 3e 1b c6 78 3f fe 12 3e 3e
       1.5994154 0.156726 0.97177285 0.18561932
000140 ed 42 98 3d dd f8 74 3e 8d d8 5e 3e 72 8e 61 3e
       0.0743464 0.23923059 0.21762295 0.22026995
000150 b8 ab da 3e 22 9a c8 3e 95 78 14 3f 5d 1f 96 3d
       0.42709136 0.39180094 0.57996494 0.07330201
000160 f1 b2 4a 3e ab fc 86 3e 43 19 ae 3e 16 4b 0d 3f
       0.19794823 0.26364645 0.34003648 0.551927
000170 e6 48 b9 3e a3 78 15 3f 84 d5 2c 3e e0 be 22 3f
       0.3618843 0.583872 0.16878325 0.635725
000180 44 65 94 3e b3 71 00 3f ce ca bc 3e 5f c0 8a 3f
       0.2898351 0.5017349 0.36873478 1.0839957
000190 6e bd 2a 3e 63 84 d3 3e 93 68 96 3d a5 16 31 3f
       0.16673824 0.4131194 0.07344165 0.6917518
0001a0 b8 18 c9 3e 41 70 0b 3e 2f bb 9d 3e b0 1a 4e 3e
       0.3927667 0.1361704 0.30806872 0.20127368
0001b0 e2 e3 fd 3d 0d 4c e3 3e 0d 8a a3 3e 04 af 0b 3e
       0.12396981 0.4439396 0.31941262 0.13640982
0001c0 bb b1 10 3f 68 a6 b3 3e af 82 94 3e b8 ca b0 3e
       0.56521195 0.35087895 0.29005954 0.34529662
0001d0 b3 e7 22 3e 16 ba 42 3e fa cf 31 3e d2 c7 4c 3e
       0.15908699 0.19016299 0.17364493 0.199981
0001e0 a6 20 7a 3e 69 08 b9 3f 86 44 8e 3e 14 15 db 3e
       0.24426517 1.4455692 0.27786654 0.4278952
0001f0 b6 e8 9c 3e 0e 34 67 3e 77 45 18 3f 99 4b 5d 3f
       0.30646294 0.22578451 0.59480995 0.8644348

bn1.running_var f4 [128]
000000 0a 26 a2 3d e6 4b 7d 3e 81 b2 91 3d 55 f0 2e 3d
       0.079174116 0.24735984 0.07114125 0.042709667
000010 ee 90 2d 3e ce ac 5d 3f a1 0e 14 3e 5c 78 ab 3e
       0.16949818 0.86591804 0.14458705 0.33490264
000020 12 3d f5 3e 65 59 4a 3e b8 0f df 3e cc 87 69 3f
       0.47898155 0.19760664 0.4356668 0.91222835
000030 91 1d 60 3e 15 18 a1 3d af ec 6f 3e 79 9e 3d 3e
       0.21886279 0.078659214 0.23430131 0.18517484
000040 3f 36 f8 3e 46 be 20 3d 3a 70 86 3e 3d e5 73 3e
       0.48478886 0.03924396 0.26257497 0.23817916
000050 30 6a e8 3e 62 79 4e 3e a2 f4 2a 3e ed bf 94 3d
       0.45393515 0.20163491 0.16694883 0.072631694
000060 88 31 23 3e d2 9f d2 3d 37 85 75 3e 65 90 0f 3e
       0.15936863 0.102843896 0.23976599 0.14019926
000070 c3 50 b3 3c 6f d0 61 3d 37 12 90 3e 84 b8 9c 3e
       0.021889096 0.05513042 0.28138897 0.30609524
000080 7c 53 0c 3e 17 a9 00 3e d3 cc 5e 3f 0a 35 cb 3e
       0.13703722 0.12564503 0.87031287 0.39688903
000090 3d aa 14 3e f4 1e fd 3e 16 0e d8 3c b5 ae b5 3e
       0.14518066 0.49437678 0.026373904 0.35484853
0000a0 5a 44 3c 3e 46 ad 91 3d f2 fe 2e 3e 4a aa 83 3e
       0.18385449 0.071131274 0.17089441 0.25715858
0000b0 a3 7b bc 3d 3f 9f b1 3e 06 ad 26 3e 05 59 b7 3e
       0.09203269 0.34691808 0.1627694 0.35810104
0000c0 3b 47 a2 3e b0 6b 21 3e 76 a4 58 3e 3f e4 46 3f
       0.3169497 0.15763736 0.21156487 0.77692026
0000d0 30 d5 94 3d ae 96 c4 3d f7 7f 9f 3e 84 f3 5d 3d
       0.07267225 0.09599052 0.31152317 0.054187313
0000e0 03 d7 38 3f 8e 57 f1 3e 3e b0 2f 3e 8a cd 8e 3e
       0.7220308 0.4713711 0.17157075 0.2789119
0000f0 8e 5e a0 3e b9 20 81 3f a8 0e a0 3e 93 1b 08 3e
       0.3132214 1.0088111 0.31261182 0.13291769
000100 84 8d bc 3d 87 6c 54 3e 76 d1 36 3e 0f 21 e9 3e
       0.092066795 0.20744525 0.1785334 0.45533034
000110 fa d3 51 3f d8 90 46 3f 6d 9b 2c 3e 9f 2d 88 3e
       0.81964076 0.77564764 0.16856165 0.26597306
000120 a7 01 2c 3e eb 90 5c 3e 32 b2 3b 3d db 2f 94 3d
       0.16797505 0.21539657 0.045824237 0.0723569
000130 66 68 03 3f 66 da b7 3d 6c 7c 98 3e 98 d8 f4 3d
       0.51331174 0.08977203 0.29782426 0.119553745
000140 39 76 c0 3c 38 69 4c 3e 82 d8 0f 3e 97 45 82 3e
       0.023493873 0.19962013 0.14047435 0.25443718
000150 7a db 5c 3e 43 c7 91 3e f7 6c 0a 3f 1e f6 54 3d
       0.21568099 0.28472337 0.5407252 0.05199253
000160 2b c9 1a 3e 0a b9 84 3e ae 96 46 3e cf bd bc 3e
       0.15115802 0.25922424 0.19393417 0.36863562
000170 b7 15 84 3e cc 44 99 3e fa 3a d4 3d 78 5e 18 3f
       0.25797817 0.299353 0.103628114 0.5951915
000180 86 27 66 3e 0a 3b f0 3e 0e 97 26 3e 67 b0 f5 3e
       0.22476014 0.46920043 0.1626856 0.47986147
000190 bb cd 07 3e 8d d9 74 3e df cc 18 3d 1b 8b 27 3f
       0.13262074 0.23911114 0.037304755 0.65446633
0001a0 b6 08 80 3e db d7 ce 3d 11 35 99 3e fa 4c d8 3d
       0.25006646 0.10099765 0.299233 0.10561557
0001b0 87 18 7d 3d 7f 8a a0 3e a0 cb 8f 3e 78 2f 9d 3d
       0.06179097 0.31355664 0.2808504 0.076750696
0001c0 6f d9 20 3f 78 c2 88 3e 1d 9a 70 3e 9a 12 80 3e
       0.6283178 0.26710868 0.2349629 0.25014192
0001d0 7c b6 b0 3d 3b 3e 0f 3e 9d 60 d2 3d 60 bb e2 3d
       0.08628556 0.13988583 0.10272334 0.11070895
0001e0 79 c0 06 3e e1 a5 09 3f 56 e1 55 3e ce 1f 7a 3e
       0.1315936 0.53768736 0.2088674 0.24426195
0001f0 b9 0b 3a 3e d8 46 2d 3e e4 94 f0 3e 29 81 90 3f
       0.18168534 0.16921556 0.46988595 1.1289417

bn2.weight f4 [128]
000000 00 00 80 3f 00 00 80 3f 00 00 80 3f 00 00 80 3f
       1.0 1.0 1.0 1.0
000010 00 00 80 3f 00 00 80 3f 00 00 80 3f 00 00 80 3f
       1.0 1.0 1.0 1.0
000020 00 00 80 3f 00 00 80 3f 00 00 80 3f 00 00 80 3f
       1.0 1.0 1.0 1.0
000030 00 00 80 3f 00 00 80 3f 00 00 80 3f 00 00 80 3f
       1.0 1.0 1.0 1.0
000040 00 00 80 3f 00 00 80 3f 00 00 80 3f 00 00 80 3f
       1.0 1.0 1.0 1.0
000050 00 00 80 3f 00 00 80 3f 00 00 80 3f 00 00 80 3f
       1.0 1.0 1.0 1.0
000060 00 00 80 3f 00 00 80 3f 00 00 80 3f 00 00 80 3f
       1.0 1.0 1.0 1.0
000070 00 00 80 3f 00 00 80 3f 00 00 80 3f 00 00 80 3f
       1.0 1.0 1.0 1.0
000080 00 00 80 3f 00 00 80 3f 00 00 80 3f 00 00 80 3f
       1.0 1.0 1.0 1.0
000090 00 00 80 3f 00 00 80 3f 00 00 80 3f 00 00 80 3f
       1.0 1.0 1.0 1.0
0000a0 00 00 80 3f 00 00 80 3f 00 00 80 3f 00 00 80 3f
       1.0 1.0 1.0 1.0
0000b0 00 00 80 3f 00 00 80 3f 00 00 80 3f 00 00 80 3f
       1.0 1.0 1.0 1.0
0000c0 00 00 80 3f 00 00 80 3f 00 00 80 3f 00 00 80 3f
       1.0 1.0 1.0 1.0
0000d0 00 00 80 3f 00 00 80 3f 00 00 80 3f 00 00 80 3f
       1.0 1.0 1.0 1.0
0000e0 00 00 80 3f 00 00 80 3f 00 00 80 3f 00 00 80 3f
       1.0 1.0 1.0 1.0
0000f0 00 00 80 3f 00 00 80 3f 00 00 80 3f 00 00 80 3f
       1.0 1.0 1.0 1.0
000100 00 00 80 3f 00 00 80 3f 00 00 80 3f 00 00 80 3f
       1.0 1.0 1.0 1.0
000110 00 00 80 3f 00 00 80 3f 00 00 80 3f 00 00 80 3f
       1.0 1.0 1.0 1.0
000120 00 00 80 3f 00 00 80 3f 00 00 80 3f 00 00 80 3f
       1.0 1.0 1.0 1.0
000130 00 00 80 3f 00 00 80 3f 00 00 80 3f 00 00 80 3f
       1.0 1.0 1.0 1.0
000140 00 00 80 3f 00 00 80 3f 00 00 80 3f 00 00 80 3f
       1.0 1.0 1.0 1.0
000150 00 00 80 3f 00 00 80 3f 00 00 80 3f 00 00 80 3f
       1.0 1.0 1.0 1.0
000160 00 00 80 3f 00 00 80 3f 00 00 80 3f 00 00 80 3f
       1.0 1.0 1.0 1.0
000170 00 00 80 3f 00 00 80 3f 00 00 80 3f 00 00 80 3f
       1.0 1.0 1.0 1.0
000180 00 00 80 3f 00 00 80 3f 00 00 80 3f 00 00 80 3f
       1.0 1.0 1.0 1.0
000190 00 00 80 3f 00 00 80 3f 00 00 80 3f 00 00 80 3f
       1.0 1.0 1.0 1.0
0001a0 00 00 80 3f 00 00 80 3f 00 00 80 3f 00 00 80 3f
       1.0 1.0 1.0 1.0
0001b0 00 00 80 3f 00 00 80 3f 00 00 80 3f 00 00 80 3f
       1.0 1.0 1.0 1.0
0001c0 00 00 80 3f 00 00 80 3f 00 00 80 3f 00 00 80 3f
       1.0 1.0 1.0 1.0
0001d0 00 00 80 3f 00 00 80 3f 00 00 80 3f 00 00 80 3f
       1.0 1.0 1.0 1.0
0001e0 00 00 80 3f 00 00 80 3f 00 00 80 3f 00 00 80 3f
       1.0 1.0 1.0 1.0
0001f0 00 00 80 3f 00 00 80 3f 00 00 80 3f 00 00 80 3f
       1.0 1.0 1.0 1.0

bn2.bias f4 [128]
000000 00 00 00 00 00 00 00 00 00 00 00 00 00 00 00 00
       0.0 0.0 0.0 0.0
000010 00 00 00 00 00 00 00 00 00 00 00 00 00 00 00 00
       0.0 0.0 0.0 0.0
000020 00 00 00 00 00 00 00 00 00 00 00 00 00 00 00 00
       0.0 0.0 0.0 0.0
000030 00 00 00 00 00 00 00 00 00 00 00 00 00 00 00 00
       0.0 0.0 0.0 0.0
000040 00 00 00 00 00 00 00 00 00 00 00 00 00 00 00 00
       0.0 0.0 0.0 0.0
000050 00 00 00 00 00 00 00 00 00 00 00 00 00 00 00 00
       0.0 0.0 0.0 0.0
000060 00 00 00 00 00 00 00 00 00 00 00 00 00 00 00 00
       0.0 0.0 0.0 0.0
000070 00 00 00 00 00 00 00 00 00 00 00 00 00 00 00 00
       0.0 0.0 0.0 0.0
000080 00 00 00 00 00 00 00 00 00 00 00 00 00 00 00 00
       0.0 0.0 0.0 0.0
000090 00 00 00 00 00 00 00 00 00 00 00 00 00 00 00 00
       0.0 0.0 0.0 0.0
0000a0 00 00 00 00 00 00 00 00 00 00 00 00 00 00 00 00
       0.0 0.0 0.0 0.0
0000b0 00 00 00 00 00 00 00 00 00 00 00 00 00 00 00 00
       0.0 0.0 0.0 0.0
0000c0 00 00 00 00 00 00 00 00 00 00 00 00 00 00 00 00
       0.0 0.0 0.0 0.0
0000d0 00 00 00 00 00 00 00 00 00 00 00 00 00 00 00 00
       0.0 0.0 0.0 0.0
0000e0 00 00 00 00 00 00 00 00 00 00 00 00 00 00 00 00
       0.0 0.0 0.0 0.0
0000f0 00 00 00 00 00 00 00 00 00 00 00 00 00 00 00 00
       0.0 0.0 0.0 0.0
000100 00 00 00 00 00 00 00 00 00 00 00 00 00 00 00 00
       0.0 0.0 0.0 0.0
000110 00 00 00 00 00 00 00 00 00 00 00 00 00 00 00 00
       0.0 0.0 0.0 0.0
000120 00 00 00 00 00 00 00 00 00 00 00 00 00 00 00 00
       0.0 0.0 0.0 0.0
000130 00 00 00 00 00 00 00 00 00 00 00 00 00 00 00 00
       0.0 0.0 0.0 0.0
000140 00 00 00 00 00 00 00 00 00 00 00 00 00 00 00 00
       0.0 0.0 0.0 0.0
000150 00 00 00 00 00 00 00 00 00 00 00 00 00 00 00 00
       0.0 0.0 0.0 0.0
000160 00 00 00 00 00 00 00 00 00 00 00 00 00 00 00 00
       0.0 0.0 0.0 0.0
000170 00 00 00 00 00 00 00 00 00 00 00 00 00 00 00 00
       0.0 0.0 0.0 0.0
000180 00 00 00 00 00 00 00 00 00 00 00 00 00 00 00 00
       0.0 0.0 0.0 0.0
000190 00 00 00 00 00 00 00 00 00 00 00 00 00 00 00 00
       0.0 0.0 0.0 0.0
0001a0 00 00 00 00 00 00 00 00 00 00 00 00 00 00 00 00
       0.0 0.0 0.0 0.0
0001b0 00 00 00 00 00 00 00 00 00 00 00 00 00 00 00 00
       0.0 0.0 0.0 0.0
0001c0 00 00 00 00 00 00 00 00 00 00 00 00 00 00 00 00
       0.0 0.0 0.0 0.0
0001d0 00 00 00 00 00 00 00 00 00 00 00 00 00 00 00 00
       0.0 0.0 0.0 0.0
0001e0 00 00 00 00 00 00 00 00 00 00 00 00 00 00 00 00
       0.0 0.0 0.0 0.0
0001f0 00 00 00 00 00 00 00 00 00 00 00 00 00 00 00 00
       0.0 0.0 0.0 0.0

bn2.running_mean f4 [128]
000000 00 00 00 00 00 00 00 00 00 00 00 00 00 00 00 00
       0.0 0.0 0.0 0.0
000010 00 00 00 00 00 00 00 00 00 00 00 00 00 00 00 00
       0.0 0.0 0.0 0.0
000020 00 00 00 00 00 00 00 00 00 00 00 00 00 00 00 00
       0.0 0.0 0.0 0.0
000030 00 00 00 00 00 00 00 00 00 00 00 00 00 00 00 00
       0.0 0.0 0.0 0.0
000040 00 00 00 00 00 00 00 00 00 00 00 00 00 00 00 00
       0.0 0.0 0.0 0.0
000050 00 00 00 00 00 00 00 00 00 00 00 00 00 00 00 00
       0.0 0.0 0.0 0.0
000060 00 00 00 00 00 00 00 00 00 00 00 00 00 00 00 00
       0.0 0.0 0.0 0.0
000070 00 00 00 00 00 00 00 00 00 00 00 00 00 00 00 00
       0.0 0.0 0.0 0.0
000080 00 00 00 00 00 00 00 00 00 00 00 00 00 00 00 00
       0.0 0.0 0.0 0.0
000090 00 00 00 00 00 00 00 00 00 00 00 00 00 00 00 00
       0.0 0.0 0.0 0.0
0000a0 00 00 00 00 00 00 00 00 00 00 00 00 00 00 00 00
       0.0 0.0 0.0 0.0
0000b0 00 00 00 00 00 00 00 00 00 00 00 00 00 00 00 00
       0.0 0.0 0.0 0.0
0000c0 00 00 00 00 00 00 00 00 00 00 00 00 00 00 00 00
       0.0 0.0 0.0 0.0
0000d0 00 00 00 00 00 00 00 00 00 00 00 00 00 00 00 00
       0.0 0.0 0.0 0.0
0000e0 00 00 00 00 00 00 00 00 00 00 00 00 00 00 00 00
       0.0 0.0 0.0 0.0
0000f0 00 00 00 00 00 00 00 00 00 00 00 00 00 00 00 00
       0.0 0.0 0.0 0.0
000100 00 00 00 00 00 00 00 00 00 00 00 00 00 00 00 00
       0.0 0.0 0.0 0.0
000110 00 00 00 00 00 00 00 00 00 00 00 00 00 00 00 00
       0.0 0.0 0.0 0.0
000120 00 00 00 00 00 00 00 00 00 00 00 00 00 00 00 00
       0.0 0.0 0.0 0.0
000130 00 00 00 00 00 00 00 00 00 00 00 00 00 00 00 00
       0.0 0.0 0.0 0.0
000140 00 00 00 00 00 00 00 00 00 00 00 00 00 00 00 00
       0.0 0.0 0.0 0.0
000150 00 00 00 00 00 00 00 00 00 00 00 00 00 00 00 00
       0.0 0.0 0.0 0.0
000160 00 00 00 00 00 00 00 00 00 00 00 00 00 00 00 00
       0.0 0.0 0.0 0.0
000170 00 00 00 00 00 00 00 00 00 00 00 00 00 00 00 00
       0.0 0.0 0.0 0.0
000180 00 00 00 00 00 00 00 00 00 00 00 00 00 00 00 00
       0.0 0.0 0.0 0.0
000190 00 00 00 00 00 00 00 00 00 00 00 00 00 00 00 00
       0.0 0.0 0.0 0.0
0001a0 00 00 00 00 00 00 00 00 00 00 00 00 00 00 00 00
       0.0 0.0 0.0 0.0
0001b0 00 00 00 00 00 00 00 00 00 00 00 00 00 00 00 00
       0.0 0.0 0.0 0.0
0001c0 00 00 00 00 00 00 00 00 00 00 00 00 00 00 00 00
       0.0 0.0 0.0 0.0
0001d0 00 00 00 00 00 00 00 00 00 00 00 00 00 00 00 00
       0.0 0.0 0.0 0.0
0001e0 00 00 00 00 00 00 00 00 00 00 00 00 00 00 00 00
       0.0 0.0 0.0 0.0
0001f0 00 00 00 00 00 00 00 00 00 00 00 00 00 00 00 00
       0.0 0.0 0.0 0.0
