collaboration_and_competition/agent2_checkpoint_actor.pth (torch_old, 142881 bytes, 6 tensors)

fc1.weight f4 [200, 24]
000000 9c be ba 3c 99 5f 35 be 81 d8 50 bd aa f9 05 be
       0.022795968 -0.17712249 -0.050987724 -0.1308352
000010 0a 97 a7 3d 9f 3c b9 3d 8b e0 01 3c 1c ab 65 be
       0.08183105 0.09044766 0.00792707 -0.22428554
000020 ef 7c a3 3d ae 23 13 be e0 be 92 bd 05 99 0b be
       0.079828136 -0.1436908 -0.07165313 -0.13632591
000030 c8 3f c7 3c 2a bb 22 bd c2 c9 6a bd 1e bd e4 bd
       0.024322405 -0.039729275 -0.057321317 -0.11168884
000040 30 69 c4 bc 7d f5 60 be 35 b8 19 bc 37 c0 e4 3c
       -0.023975939 -0.21968646 -0.009382297 0.027923686
000050 76 7f 1e be 29 86 a4 3d 2e 48 a7 3d ab c6 47 bd
       -0.1547831 0.080334015 0.08168064 -0.04877345
000060 ca 81 cc bc 5b 26 cf 3d 9d 97 d9 bd bd 84 2e 3e
       -0.024964232 0.101147376 -0.10624621 0.17042823
000070 b4 b7 52 bd 35 c8 02 3e 09 16 30 bd 37 81 19 3e
       -0.051444724 0.12771685 -0.042989764 0.14990698
000080 a9 2b 1a 3c 65 4f 24 3e c9 b5 0a bd d2 a4 98 3d
       0.009409823 0.16045912 -0.03386477 0.07453312
000090 61 b4 ad bc 7b 48 7b 3d 14 64 20 bd 77 31 af 3c
       -0.021204175 0.06134842 -0.039157942 0.021385891
0000a0 94 a4 13 bc d4 b9 4c 3e d5 46 72 3c cb e2 27 bd
       -0.009011406 0.19992763 0.0147873955 -0.04098777
0000b0 1b 6b 0b 3d 7a 19 01 39 23 d5 79 bc cc 7b 7b bd
       0.03403769 0.0001231189 -0.01524857 -0.06139736
0000c0 43 45 85 3d 64 73 2c be af c9 a6 3d 29 7e 69 be
       0.06507351 -0.16840893 0.08143937 -0.22802033
0000d0 5c 78 09 bd 00 9d 43 be 22 75 c0 3d 83 ed 65 be
       -0.03356205 -0.1910286 0.09397341 -0.22453885
0000e0 a7 67 ad 3c 98 b8 53 bd 7f 9b 52 bc 73 58 e9 bc
       0.02116759 -0.051689714 -0.012854456 -0.028484559
0000f0 7a 41 52 3d 2a 30 75 3c b8 43 dc bc ab 12 f2 bd
       0.051331975 0.0149650965 -0.02688776 -0.11819967
000100 f9 07 66 3d dc 85 e1 bd c6 28 e7 bc d1 47 8c 3d
       0.056159947 -0.1101186 -0.028217684 0.068496354
000110 82 84 11 3e 8b 5f 37 3e e3 a3 af 3d c2 a2 d3 3d
       0.14210704 0.1790754 0.08576181 0.10333778
000120 a7 f7 8c bd 00 15 05 be d2 98 6a 3c a8 ba 3b be
       -0.068831734 -0.12996292 0.014318662 -0.18332922
000130 f1 59 e0 bd 61 ea 5f bc 80 a8 02 3c 37 c6 6b bd
       -0.10954655 -0.01366672 0.007974744 -0.05756208
000140 38 d8 07 be 46 3a ce bd 8f 2c 02 3d f1 e1 f9 bc
       -0.13266075 -0.100697085 0.031780776 -0.030503245
000150 89 18 b8 bd aa 49 e6 bd bc b4 f7 3b 5c 06 a7 bd
       -0.08989055 -0.11244519 0.007559387 -0.0815551
000160 5d 84 4a bd e4 12 f7 bd ad 19 c2 3c 0e 84 6d bd
       -0.049442638 -0.1206415 0.023693884 -0.057987265
000170 5f ac a1 bd 07 71 68 be 61 30 3c bd 80 5f 03 be
       -0.07894205 -0.22699367 -0.045944575 -0.12829399
000180 b9 94 64 bd 9c 5c 41 3e fa 38 c2 bc 13 97 b1 3d
       -0.055805895 0.18882984 -0.02370881 0.08671393
000190 c6 93 b4 bd 09 71 ac 3d a7 12 6b 3d 8d ad 3a 3e
       -0.08817248 0.08419997 0.057390835 0.18230267
0001a0 ff 5c 49 bd d9 00 83 3e b9 58 92 3d 53 b7 cf 3d
       -0.049160954 0.25586584 0.07145829 0.10142388
0001b0 44 65 d9 3c 00 a9 0f be bd 70 9e 3b d4 d5 96 3d
       0.026537545 -0.14029312 0.004835217 0.07365003
0001c0 c5 13 ea bd 20 cb 64 3e 5d a5 b7 bb 8a ee 10 bd
       -0.11429552 0.22343111 -0.0056044296 -0.03538374
0001d0 63 bc 93 3d 97 fe 42 be 29 93 3e 3d 6b 32 79 3d
       0.07213666 -0.19042431 0.04652706 0.060839098
0001e0 4a 35 84 bd 98 a6 27 be ec e4 c4 bb 0c bc da 3c
       -0.064554766 -0.16372144 -0.006008735 0.026700996
0001f0 59 6c 55 3e 09 13 88 3d 92 bf 09 bd 40 8c 84 bd
       0.20842113 0.06644256 -0.03362996 -0.06472063
000200 c7 eb 63 3d d2 5f 1d 3d e7 69 0c bc aa 1b eb 3b
       0.055644777 0.03842146 -0.008570171 0.0071749287
000210 61 71 9f 3d 21 dc 2e 3e 0a c0 be bc e0 de fd 3d
       0.07785297 0.1707616 -0.02328493 0.12396026
000220 88 0c 40 bc f6 96 8c 3d 27 ed 39 3d 75 62 92 3d
       -0.011721738 0.06864731 0.04539218 0.071476854
000230 31 f7 3f be 5e f8 86 3e ec d0 61 bd 0e 1b 82 3d
       -0.1874664 0.26361364 -0.055130884 0.063528165
000240 fe 6d e9 3d 88 4d 84 3d b1 fb 8d 3d 74 0e b8 3d
       0.113979325 0.064601004 0.06932772 0.08987132
000250 5a aa 31 be 45 8b d0 bd 3a 6e 32 bd 49 15 ea 3d
       -0.1735014 -0.101828136 -0.04356215 0.11429841
000260 81 6d 50 3d 61 18 92 3d f2 46 2e 3d 02 e4 9a 3d
       0.05088568 0.07133556 0.042548127 0.0756302
000270 82 ac f2 bd a2 c1 81 bd fc 92 10 bd 8d 31 e2 3d
       -0.118493095 -0.06335761 -0.035296425 0.11044607
000280 de 34 26 3b 93 6b 38 3e 37 c5 a5 bb b3 3c a0 bd
       0.00253611 0.18009786 -0.00505891 -0.078240775
000290 91 6a 03 bc 4b 01 93 be bd 4d 63 3d 81 51 14 be
       -0.008021013 -0.28711924 0.05549406 -0.14484216
0002a0 7b 36 e8 3d 68 59 cf bd 48 82 ff 3d 7e 94 80 3c
       0.11338516 -0.10124475 0.12476021 0.015695807
0002b0 a7 3b 18 3c 52 96 3b 3d c6 ca 8d 3c 36 5b 85 3d
       0.009291566 0.045797653 0.017308604 0.06511538
0002c0 5b 57 34 bc ed f3 b7 3c a1 7b 65 bc 43 4f 50 3d
       -0.011007155 0.02245518 -0.014006526 0.05085684
0002d0 42 a4 d0 bd f9 b0 56 3d 01 9f ae 3c 98 e3 17 3e
       -0.1018758 0.052414868 0.021316053 0.14832914
0002e0 0d 5e 33 bc 12 32 b6 3d b8 08 19 3d 25 a4 ce 3d
       -0.010947716 0.08896269 0.03736183 0.10089902
0002f0 f6 bf 64 be 7f 04 0d 3d 8b ea b3 bd c5 71 91 bb
       -0.22338852 0.034428116 -0.0878497 -0.004438611
000300 6f cc a9 3d 81 6e 64 be d7 14 32 3d 57 9a 9e bd
       0.08290946 -0.22307779 0.043476906 -0.07744282
000310 2c 24 a9 3d 23 a5 c0 3c 15 b6 55 3d 56 12 31 be
       0.08258852 0.023516243 0.0521756 -0.17292151
000320 34 a9 77 bb a4 5e 09 be fb e1 c7 bd 66 fd 06 be
       -0.0037790062 -0.13415009 -0.09759899 -0.13182601
000330 ea be f5 3b c2 63 6a bd 4f ff 41 bd b8 9f 9f bd
       0.0074995654 -0.057224043 -0.047362622 -0.07794136
000340 ce d3 94 3c 87 0e e8 bd 07 75 2d 3c 93 d2 83 bc
       0.018167403 -0.11330896 0.0105869835 -0.01609162
000350 c2 74 01 be 15 ce 4f bd e8 5e 8d 3d cb 7e bc bd
       -0.12642196 -0.050733645 0.069028676 -0.09203871
000360 e6 72 2c bd a9 54 22 3e ba b1 57 bd 97 5d 61 3d
       -0.042101763 0.15852608 -0.052659728 0.055020895
000370 e7 62 ef bd 41 06 87 3d ee f4 34 bc d9 51 0f 3d
       -0.11688786 0.0659299 -0.011044724 0.034990165
000380 ff 8f 80 3d a5 fe 53 3e cb 8d 8a 3d fb 95 7c bc
       0.06277465 0.20702608 0.06765326 -0.0154166175
000390 e1 90 29 bd 70 4f 24 3e cb b6 44 bd 99 45 67 bc
       -0.041397933 0.16045928 -0.048025887 -0.0141157145
0003a0 b7 c7 14 3d 08 1b 03 3e 33 14 73 bd 65 f1 e1 bc
       0.036323275 0.1280328 -0.059345435 -0.027580926
0003b0 84 93 7a 3d 6e 7e 7c 3e 93 79 fd bd 1f 86 ab bd
       0.061175838 0.24657604 -0.12376704 -0.08375191
0003c0 d3 d2 db 3c 8f 39 ad bc 94 65 e8 3b 22 f2 22 3d
       0.026833927 -0.02114561 0.007092187 0.039781697
0003d0 60 6c 46 bd 48 9b 81 3d 44 9c 3c 3c db 65 8d 3d
       -0.0484432 0.06328446 0.011511866 0.06904193
0003e0 6e 00 7d bc e2 02 d1 bc 77 3c 59 3d 78 36 3b 3e
       -0.015441997 -0.02551407 0.05303618 0.18282497
0003f0 db 84 3e bc e8 45 fa 3d cf d8 89 bd af de b6 3d
       -0.011628355 0.12220365 -0.06730806 0.08929192

fc1.bias f4 [200]
000000 c8 7b 3f 3e e9 30 5b 3d e0 e4 f8 3d 0c 83 7f 3d
       0.18699563 0.05351344 0.121530294 0.062380835
000010 1d 37 a5 bd 4a 5d ac bc 52 39 1b bd 4c d6 1b be
       -0.08067153 -0.021040577 -0.03789646 -0.15218467
000020 18 1b 33 3e 71 91 3a be ba 25 1d be 77 e2 d8 bc
       0.17490804 -0.18219544 -0.15346423 -0.026475174
000030 fb e0 46 3e 6d 92 cc bd 18 00 7a 3e 81 64 0b 3d
       0.1942176 -0.09988866 0.24414098 0.034031395
000040 83 6b 8b 3d d8 f2 cd 3d c7 54 36 3e 06 b8 9d bd
       0.068076156 0.100560844 0.17805777 -0.07701115
000050 97 14 06 be f2 37 7d 3e e5 33 16 3e e1 04 ae bd
       -0.13093792 0.24728373 0.14668234 -0.08497024
000060 60 39 84 bd 7f b8 0f 3e d9 79 15 3e 3d 2a 77 3d
       -0.06456256 0.14035223 0.14597262 0.060343016
000070 24 4b 11 be 30 da 4e be 73 05 9a bd e6 3c 93 3b
       -0.1418882 -0.2020042 -0.075205706 0.0044933436
000080 41 93 bd bd af 52 43 be 26 db 19 bd c9 9e 4b 3e
       -0.09256602 -0.1907451 -0.03756251 0.1988479
000090 fc 65 8a be f1 5d e6 bd 08 43 de 3d d9 b8 4e 3e
       -0.27030933 -0.11248387 0.10852629 0.20187701
0000a0 e2 7e 7f be f4 c7 d7 bd 10 a8 ef bc 18 3f 6b 3e
       -0.24950746 -0.10536185 -0.029254943 0.22973287
0000b0 da db ae bd 2d 10 8a bd ab 85 1b 3e 9a f7 bd bd
       -0.08538027 -0.067413665 0.15187709 -0.09275742
0000c0 ca 97 07 bb 88 71 e0 bd e2 72 29 3d b5 36 51 3e
       -0.0020689839 -0.10959154 0.041369326 0.20431025
0000d0 45 03 82 bc 22 ec 08 3d 66 8b 34 be ca 63 08 3b
       -0.0158707 0.03342832 -0.17631301 0.0020811432
0000e0 09 e7 99 3c b3 15 53 3e f8 c3 4d 3d 2a 84 20 be
       0.018786924 0.20613746 0.05023572 -0.15675417
0000f0 c1 45 1c be 65 a9 a2 3d bb 1b 1c 3e e4 7d 57 bd
       -0.15260984 0.07942466 0.15244953 -0.052610293
000100 52 84 61 be 13 06 21 be 2f 7b 6e be a8 bf 80 3c
       -0.22023132 -0.15724973 -0.23289178 0.015716389
000110 6f a3 62 3e 05 d1 94 3d 47 65 14 3d 56 75 5d 3e
       0.22132657 0.0726643 0.036229398 0.21626791
000120 25 3a 3c 3e 27 1e 52 3e 58 fe 24 3e e4 ea c2 3d
       0.18381555 0.20519315 0.1611265 0.09517458
000130 63 06 ac 3d 3d f5 0e bd 3b 0c 34 be 83 6b 9a 3d
       0.08399656 -0.034901846 -0.1758279 0.075400375
000140 52 b8 77 bd fd cf f3 bd 7f 51 5d be 74 d1 0c be
       -0.060478516 -0.11904905 -0.2161312 -0.13751775
000150 3f 62 31 3e 93 ac fc 3d 0e 0f 08 be d6 8f a3 bd
       0.17322634 0.123376034 -0.13286993 -0.07986419
000160 b3 9f 42 be 9f c0 89 3e e7 9c 98 be f8 90 22 be
       -0.19006233 0.2690477 -0.29807207 -0.15875614
000170 32 78 27 be b7 2f 3f 3e 8e 18 10 be 24 4f 2d 3e
       -0.16354445 0.18670546 -0.14071867 0.16924721
000180 9e 16 36 3d e4 a6 2b bd 6d 81 42 bd 50 4c 48 3c
       0.044455163 -0.041907206 -0.04748671 0.012225226
000190 13 2e 02 3e 83 fe c6 bd 8a 09 eb 3d 06 b2 93 3d
       0.12712888 -0.09716513 0.11476429 0.0721169
0001a0 6b f9 8e be 3f 7e 17 be 55 aa 98 be c1 8f 8a 3d
       -0.27924666 -0.14794253 -0.29817453 0.067657
0001b0 33 a1 e9 3d 17 f5 fa 3c e1 c8 00 be 80 c2 4f be
       0.114076994 0.030634446 -0.12576629 -0.2028904
0001c0 ac 2a 0a 3d 57 b3 60 be 59 6e 14 be 63 df 07 be
       0.0337321 -0.21943413 -0.1449522 -0.13268809
0001d0 22 87 43 bd f8 03 2f be 41 e8 c7 3b 00 cb c4 3d
       -0.047736295 -0.17091358 0.006100685 0.09609032
0001e0 3f f4 e5 3d 94 06 0e be cc b9 52 3e 00 9a 5b 3d
       0.11228227 -0.13869697 0.20578688 0.053613663
0001f0 56 3b cf 3d ed 98 04 bd 06 2e 0d 3e 80 f8 7c be
       0.10118739 -0.032372404 0.13787088 -0.2470417
000200 f4 e0 00 3e 51 77 96 3e 6e 0a 87 3d af e0 47 be
       0.12585813 0.29387906 0.06593786 -0.19519304
000210 ff ee bd bd b0 18 c6 bd 7c fb 03 3e 9c 80 12 3d
       -0.092741005 -0.096726775 0.12888902 0.035767183
000220 31 36 86 3d 5c 7e 5f be 87 c3 0c be 27 8a a0 3d
       0.06553305 -0.21825546 -0.13746463 0.078388505
000230 bd 9f e4 bd 89 a5 0a be 09 9a 45 3e 42 b7 30 3e
       -0.1116328 -0.13539709 0.19297041 0.17257407
000240 85 bb f9 bc 10 3b d0 3d 80 17 17 3c 5e 8d 5b be
       -0.030484924 0.10167515 0.009221911 -0.21440646
000250 26 5f cf bd e3 53 21 be 89 be fd 3d 3a a5 85 3d
       -0.1012557 -0.15754656 0.12389857 0.06525655
000260 fa 60 8a bd 16 cb 51 3e 8e 07 41 be 9b fd a4 bd
       -0.06756778 0.20487627 -0.18850538 -0.08056184
000270 37 49 97 bc 7d 99 14 be 0a 26 7d 3e 06 2e 20 be
       -0.018467529 -0.14511676 0.24721542 -0.15642557
000280 05 eb 25 be 75 04 ea 3d a9 27 37 be a9 e6 02 be
       -0.16202934 0.11426631 -0.17886223 -0.12783302
000290 3e d0 49 3e 01 28 31 be b4 9d cc bd 74 bf 27 bb
       0.19708344 -0.17300417 -0.09991017 -0.0025596293
0002a0 ac 2c 95 3c 2c 50 a9 3d 1c 2f 28 bd aa 53 53 be
       0.018209778 0.08267245 -0.041060552 -0.20637384
0002b0 6c 3b 4a 3e 61 f9 80 be 11 5d de 3d 6d 32 ec bb
       0.1974923 -0.2519026 0.10857595 -0.0072081597
0002c0 7d 5a a1 bd 40 47 ad 3d 5b 8c 00 be 4a c6 32 3d
       -0.078785874 0.084608555 -0.12553541 0.043646134
0002d0 46 ff 1e 3e 82 de 3b 3e 3d 1f 45 be 9c 25 af 3d
       0.15527067 0.18346599 -0.19250198 0.08552095
0002e0 d6 da e6 3d 8b b3 fe bd 5f 72 0a 3d 8d fb d9 bd
       0.112722084 -0.12436589 0.03380048 -0.10643683
0002f0 47 7a bf 3d 04 ca f5 bd e5 ea 96 3d 69 a3 fe bd
       0.093494944 -0.12001422 0.07369021 -0.12433512
000300 49 fb 05 3e 75 bc 0b 3d 23 58 cb 3b 09 b8 96 bd
       0.13084139 0.034115274 0.006205575 -0.07359321
000310 3e 80 11 be bb a2 f1 bd 7b 08 87 bd 57 2b ea bd
       -0.14209077 -0.117986165 -0.065934144 -0.11434048

fc2.weight f4 [150, 200]
000000 ee 34 15 3e 95 f6 9f 3d fc 84 ea 3d 2d 80 b1 3d
       0.14570972 0.07810704 0.11451146 0.08667026
000010 80 f9 10 3e f0 4c 5b bc 61 48 94 3d ba d2 8c be
       0.14157677 -0.013385043 0.07240368 -0.27504522
000020 a0 44 35 3d 93 ee 7b 3d 36 1a 39 be b7 0d 8b 3d
       0.0442549 0.06150682 -0.18076405 0.06789725
000030 71 fd 6a bd 7b 2c 83 bd 16 40 b9 3d 97 f7 b6 3b
       -0.057370607 -0.06404968 0.090454265 0.005583714
000040 90 c1 e2 3d a1 ed 48 3d 5f b6 42 3d 8c bd 88 bc
       0.11072075 0.049054746 0.047537204 -0.016691945
000050 2b 67 e0 bd b5 96 36 bd 0c 4b 2b be 7b eb d1 3c
       -0.10957178 -0.04457732 -0.16727847 0.025624981
000060 6e 5a 2e bc 7a 6f 4c 3d 6f cd ac 3d 38 a2 81 3d
       -0.010641677 0.049911 0.08437621 0.06329769
000070 87 bb ee 3c 3c 94 cd bd 7a 4c 61 3d d2 0d 40 be
       0.029142154 -0.10038039 0.055004574 -0.18755272
000080 c0 da 35 3d 07 bf 07 be d2 00 f6 3d ad 3b 91 3d
       0.04439807 -0.13256465 0.12011875 0.070914604
000090 c4 d9 df 3d 5b 4d af bd 4a 97 0b be 9b 5b b6 bd
       0.10930207 -0.08559676 -0.13631931 -0.08904191
0000a0 32 70 ab bd 97 f0 a2 3d 4b ce 25 3e 60 b3 68 3d
       -0.08371009 0.07956045 0.16191976 0.05681169
0000b0 a2 f6 df bc 5b c6 04 be 45 98 c1 3d 77 d1 71 3d
       -0.027339283 -0.12966292 0.09452871 0.059037652
0000c0 a0 88 70 3d f6 16 72 3b 81 e4 06 3e 81 af 28 3e
       0.058724046 0.0036939955 0.13173105 0.164732
0000d0 de 2d 8c 3c f8 5a a5 3d 93 b5 d0 3c 87 26 93 bd
       0.017111715 0.080739915 0.025477206 -0.07185083
0000e0 fa e4 36 bd 1a 6d 23 bd 83 28 8d 3c 01 80 9e 3d
       -0.044651963 -0.03989897 0.017231232 0.077392586
0000f0 5e 39 29 3d c6 be e4 bd 60 5c 17 bc 38 05 0b be
       0.041314475 -0.111692 -0.0092383325 -0.1357621
000100 fd 98 9b be f1 bc 64 3c 74 58 86 bc 63 18 04 be
       -0.30390158 0.013961063 -0.0163996 -0.12899928
000110 a5 11 19 be 1d a4 21 bd 59 71 40 be ba 11 41 3b
       -0.14948137 -0.03946315 -0.18793239 0.0029460029
000120 27 18 5f bd 7c 48 0d 3d 61 d0 fb 3d 88 9d 08 bc
       -0.054466393 0.034492955 0.122956045 -0.00833834
000130 be 8c 8e bd 73 c2 9e bd 0a 69 0d bd 11 e7 9b 3e
       -0.06960438 -0.07751932 -0.034524 0.30449727
000140 2c b8 6e 3b f2 65 69 bd bc 0d ce bd d7 48 ae 3c
       0.0036425693 -0.05698199 -0.100612134 0.021274967
000150 1e 04 02 3e ef c5 b8 3d 1e 10 cb bd ad ba 3e 3d
       0.12696883 0.09022128 -0.099151835 0.046564747
000160 45 5f de 3d fc 4b da bd 8c ee 25 be 22 3b 1e bd
       0.10858015 -0.10659024 -0.1620428 -0.038630612
000170 e3 f1 c5 bd 48 bc 8d 3d 58 bb 22 be 1f 75 a6 3d
       -0.09665277 0.069206774 -0.15891778 0.08127808
000180 c0 ce ed 3c 43 c0 fa 3d c2 e9 d1 3d da 51 17 3e
       0.02902925 0.12243702 0.10249664 0.14777318
000190 ef 0c 94 3d 8e f1 94 3d 8f cb 49 3d 8a 82 cf 3d
       0.072290294 0.072726354 0.049266394 0.1013232
0001a0 ae 6f 8c 3d 30 be 20 be 38 5a 94 3d c9 93 af bc
       0.06857239 -0.15697551 0.0724377 -0.021432774
0001b0 30 15 f0 3d c8 b7 d9 3d 11 6f 98 bd e3 7d 83 3e
       0.11722791 0.106307566 -0.07443059 0.2568198
0001c0 f0 71 3c bd 22 c1 ee ba 8a 01 f8 3c 9b ad ae 3c
       -0.046007097 -0.0018215517 0.030274171 0.021323016
0001d0 ef 98 8d bd 4a c3 27 3c 51 34 d7 3d 88 e8 02 bc
       -0.069139354 0.010239432 0.105080254 -0.00799001
0001e0 2c 00 05 3e 64 90 e9 bd b6 3c 4a bd 97 e6 04 be
       0.12988347 -0.114044935 -0.049374305 -0.12978588
0001f0 a8 2d 59 ba e4 fa 1c 3d f8 a3 b3 bd 69 c1 33 bd
       -0.00082846964 0.038325205 -0.08771509 -0.043885622
000200 79 9e 16 bb 30 0b e2 bc be 12 13 be ba 44 83 bd
       -0.002298264 -0.027593225 -0.14362618 -0.06409593
000210 65 dc b9 3c ff be 13 be 47 56 34 bd a6 44 2a 3e
       0.0226881 -0.14428328 -0.044027593 0.1662775
000220 87 ee ab bc 7d 4e 8b 3c 74 17 a7 bd 9b c2 92 3d
       -0.020987762 0.0170052 -0.0815877 0.07166024
000230 f0 6e 93 bd f6 b8 af 3d f1 46 d2 3d 2b 6d 48 3d
       -0.07198894 0.085802004 0.10267437 0.048932236
000240 a9 15 14 3e 1b 81 97 3d a8 75 8a bd 9f 3f 5d bd
       0.14461388 0.07397672 -0.067607224 -0.054015752
000250 cc 1a 87 3d 71 09 07 3e fa 93 1e 3c ca 6e 6c 3d
       0.06596908 0.13187195 0.009678835 0.057722844
000260 9d 89 0a be 74 fa 28 be a2 6b 13 be b4 ea 6d bb
       -0.13529058 -0.1650179 -0.14396527 -0.0036303224
000270 d4 95 69 3d 1c 6b c2 3d 0e d8 2c bd 76 7b 07 bd
       0.057027653 0.09493086 -0.042198233 -0.033076726
000280 fe 67 2e bd 22 aa 0a be 4f df b2 3d 10 d7 19 bd
       -0.042579643 -0.13541463 0.08733999 -0.037558615
000290 46 eb be 3c 60 0d 76 3d 9d 5d a8 3c 15 ce 2d bc
       0.023305546 0.06007135 0.02055245 -0.010608216
0002a0 a9 83 3e 3e e2 b1 d7 3d cf aa 6f 3d cb 9a d6 3c
       0.18604912 0.10531975 0.058512505 0.026196858
0002b0 82 2b 2f 3c d5 b1 eb 3d a0 01 fd 3c 9a ea e2 3d
       0.010691525 0.11508528 0.030884564 0.11079903
0002c0 52 9f 0c 3d 41 15 15 be 3f 6d 8a bd 86 17 09 be
       0.034331627 -0.14558889 -0.06759118 -0.1338788
0002d0 bc 36 f7 3d 84 b3 11 bd 31 47 e9 bd b1 c3 29 bd
       0.12070987 -0.03557159 -0.11390532 -0.04144639
0002e0 7c 33 db 3d 8f 1d c8 3d d7 5f e9 bc 34 26 0a 3e
       0.10703179 0.09771263 -0.028488083 0.13491136
0002f0 db 8a 30 3d 22 cf 13 3e 63 7e 17 be 6b ab dc 3c
       0.043101173 0.14434484 -0.14794306 0.026937207
000300 da ee d0 3d 19 eb 0d 3e 42 b7 95 3d ed 40 8e 3d
       0.10201807 0.13859214 0.07310344 0.06945977
000310 84 d5 cf 3c 13 06 a5 3d 0b 2f 3f bc 96 98 a3 bc
       0.025370367 0.08057799 -0.011668931 -0.01997022
000320 9e 13 fa bd ba be c9 3c 4a ac ef 3d c3 a2 66 be
       -0.12210773 0.024627078 0.117027834 -0.22523026
000330 f3 b0 b2 3d 0a c9 ee 3b 43 34 37 be 78 7f cc 3d
       0.08725157 0.0072871493 -0.1789103 0.0998525
000340 81 85 7d bd e7 72 65 bc 03 f2 79 bb dc eb 6c bd
       -0.061894897 -0.014004446 -0.0038138635 -0.05784212
000350 40 50 b2 bd 04 45 ba 3c c6 26 d0 3d 05 ba 01 be
       -0.08706713 0.022737987 0.101636454 -0.12668617
000360 bd c8 02 3e a1 0d 9d 3d 7c 1e c4 ba 39 11 dc 3d
       0.12771888 0.07668615 -0.0014962698 0.107454725
000370 37 99 df bc 3d 03 1c 3c 31 18 5b bd f8 5f 88 bd
       -0.027294738 0.009522256 -0.053489868 -0.066589296
000380 d0 d7 a8 bc 3a d7 25 be 61 1b 33 3b be f4 f9 3c
       -0.02061072 -0.16195384 0.0027329552 0.03051221
000390 dd 10 9f 3d 57 45 01 3e fa 3e 8b 3d fa ed a4 bc
       0.07766888 0.12624107 0.06799121 -0.020133007
0003a0 9f 89 69 be 98 46 21 3c a9 9e df bb 00 25 ee 3d
       -0.22806405 0.009843491 -0.0068243337 0.11628151
0003b0 60 91 09 bd 1f 29 f9 3d 6c f1 82 3d f9 ba 99 3d
       -0.033585906 0.12166046 0.06393704 0.07506365
0003c0 97 0d 9f 3d ba d4 1f be 0a a2 95 3d 2d 10 6c bd
       0.07766264 -0.15608492 0.07306297 -0.057632614
0003d0 46 d7 31 be b1 61 a2 bd cc 7c 88 be 97 65 f2 bd
       -0.17367277 -0.079287894 -0.26657712 -0.11835783
0003e0 d9 bd 0d bb 32 64 be bc 94 18 df 3d 73 b9 83 bd
       -0.002162805 -0.023241136 0.1089336 -0.06431856
0003f0 cb 5b 1e bd 88 93 a0 3c 01 3d d3 bd b7 eb e0 bc
       -0.03866176 0.019601598 -0.1031437 -0.027456148

fc2.bias f4 [150]
000000 53 8e 3e 3b 08 4e c3 bd ef 1e f1 3d 08 18 f8 bc
       0.002907653 -0.09536368 0.11773478 -0.030284896
000010 09 16 be 3d e1 60 d8 bd 44 be 9c 3d a6 f3 8e bc
       0.092815466 -0.10565353 0.07653478 -0.017450165
000020 dd 6e cc bc b4 6c 09 3d 2c a5 72 ba 57 56 7d bc
       -0.024955207 0.033550933 -0.000925618 -0.01546248
000030 5f c2 0a 3c f0 50 e0 3b 6c 2b 6f 3a 55 00 df bd
       0.008469193 0.006845586 0.0009123597 -0.10888735
000040 f1 33 92 bc a6 38 32 bd c0 64 e7 bc 2c d8 bf bc
       -0.017847033 -0.043511055 -0.028246284 -0.023418508
000050 03 72 06 3d 55 d7 93 3b f4 a3 52 bc d3 a1 4c 3d
       0.032823574 0.0045117536 -0.012856472 0.049959015
000060 a2 01 02 3e 22 be ce 3d 3f 19 19 3d ee 45 56 3d
       0.12695935 0.10094859 0.037377592 0.052312784
000070 4c 7a 01 3d bc 42 8a bd 04 e8 05 be cf d3 1b 3e
       0.031610772 -0.0675101 -0.13076788 0.15217517
000080 1a 94 34 3b fc 70 a4 bd 4c 58 7f bd e6 85 a0 bc
       0.0027554096 -0.080293626 -0.062340066 -0.019595098
000090 93 11 11 3c a3 5e 94 3d 01 48 25 3d 85 34 e5 bd
       0.008854288 0.07244613 0.04035187 -0.11191658
0000a0 50 92 c5 3d 26 8a a8 bd ad c0 b2 bd 7b bd b3 bd
       0.096470475 -0.08229475 -0.08728156 -0.08776375
0000b0 5f bb 2d 3d 59 ea 25 bc 76 6f 85 3d 6c 77 d3 3d
       0.04241502 -0.010126674 0.065154 0.10325512
0000c0 95 8c d7 3d d7 83 a5 bc 88 4a 5b be 10 4f 15 3c
       0.10524861 -0.020204468 -0.2141515 0.009113088
0000d0 7a 24 0f 3c bd 8e c5 3d da 5b 88 bc 10 b2 91 bc
       0.008736724 0.09646366 -0.01664536 -0.017785102
0000e0 47 12 b8 bc d1 70 b3 3a 81 6b 45 3d af ad 84 bd
       -0.022469653 0.0013690238 0.048198227 -0.0647844
0000f0 b7 28 3d bd 13 e3 42 bd 97 f7 9f bd 90 8e f6 3c
       -0.046181407 -0.047579836 -0.07810896 0.030097276
000100 05 0e 61 3c 1f 73 aa 3d a2 8c f5 3c 78 09 0c bd
       0.013736253 0.08322739 0.029974286 -0.034188718
000110 33 85 01 be d8 6a ff bc 55 0f 61 bd d8 91 bc 3c
       -0.12648468 -0.031178877 -0.054946262 0.023018762
000120 2b 9a e6 3d c8 5e 54 bc dd 27 c9 bd de 45 eb 3d
       0.11259874 -0.012962051 -0.098220564 0.114879355
000130 86 e0 64 3c 4e 5e be 3d c6 28 f0 bd 86 ab 95 bd
       0.013969546 0.09295331 -0.11726527 -0.07308106
000140 d3 3d b0 bd c2 a7 db bd 4b 94 46 bd da 66 9c 3c
       -0.08605542 -0.10725357 -0.048481267 0.019092012
000150 a4 d9 ff bc 79 26 1b 3d d7 b9 4a bc c8 6d 5b bd
       -0.031231709 0.037878487 -0.012373409 -0.053571492
000160 54 86 32 3d a2 ca c8 bd 46 c0 3a 3c 5b 64 c9 3b
       0.043585137 -0.09804274 0.011398381 0.0061459965
000170 b8 27 64 bd 08 3d c7 bb af f4 60 bc 5e 7b 61 bd
       -0.05570194 -0.0060802735 -0.013730212 -0.055049293
000180 81 7f a2 bd 5e dd 95 bd 90 15 a7 bd 46 83 3a bd
       -0.07934476 -0.07317613 -0.081584096 -0.04553535
000190 42 4f bb 3d 0c b5 8a bd 3b 8d b6 bc 55 47 35 bd
       0.091459766 -0.06772813 -0.02228414 -0.04425748
0001a0 a0 c2 5b bc d9 b7 09 be 74 18 2a 3d 2c 3a ad 3d
       -0.013413101 -0.13449039 0.041527227 0.08458361
0001b0 0a c0 e7 bd 7e 93 54 3d f9 31 39 bd ed 57 45 3d
       -0.113159254 0.051898472 -0.045213673 0.048179556
0001c0 68 99 63 3d 1f 64 b1 3b 5e 58 7f 3d 8f fa 8d bd
       0.05556622 0.0054135467 0.062340133 -0.06932556
0001d0 20 ce 0f 3b 3a d9 4d bd be 87 49 3d ff a3 62 3d
       0.0021942928 -0.05025599 0.04920172 0.05533218
0001e0 71 40 ce 3a ea 74 43 bd ae 9d ef bd 28 39 31 bd
       0.0015735758 -0.04771892 -0.11699997 -0.0432674
0001f0 af 8f ac 3c 35 98 fd bc 4c a2 29 3d f5 cf e7 bd
       0.021064607 -0.030956367 0.041414544 -0.113189615
000200 59 b1 79 bd 90 fd 81 3c 08 c8 54 bd 41 0d 02 bd
       -0.060960148 0.015867978 -0.051948577 -0.03175092
000210 c8 f4 30 3c a6 e8 69 bd 28 d3 b1 3d bf 82 8d 3d
       0.010800548 -0.057106636 0.08682853 0.069097035
000220 1e ec ab 3c 6e b0 f0 3d c6 ac 8b 3d 98 5a bd bc
       0.020986613 0.11752401 0.06820063 -0.023114488
000230 13 c4 db bd 08 51 1d 3c d4 c6 59 3d 6c d2 42 3d
       -0.107307576 0.009601839 0.053168133 0.047563955
000240 b4 d4 13 3d f0 2a 49 3d 04 e2 67 3d f2 1d 21 3d
       0.03609152 0.049113214 0.05661203 0.0393352
000250 73 2b 9d 3d d0 30 f7 ba
       0.07674303 -0.0018859152

fc3.weight f4 [2, 150]
000000 69 d9 55 3e b5 ec c4 bd 6f bc a1 3e bc 0e 41 bd
       0.20883717 -0.09615461 0.31589076 -0.047133192
000010 23 44 06 3e 4d 8d 16 be 28 c7 af 3d 70 35 17 3d
       0.1311193 -0.1470234 0.08582908 0.036916196
000020 92 c2 0b 3e 76 59 8d 3d a1 f3 de bd 10 62 39 3d
       0.13648441 0.06901829 -0.10886312 0.045259535
000030 79 7f 46 bd 9e a6 3a 3e b1 ce 41 3c 97 1a 18 be
       -0.04846141 0.18227622 0.011829064 -0.14853893
000040 fd 0a 07 bd 8a 15 9b bd a9 d2 f2 bc 11 18 77 bd
       -0.032969464 -0.075724676 -0.029641466 -0.060325686
000050 7b 4f 06 3e 80 b3 92 3d f1 1d 92 3d 73 8e 02 be
       0.13116257 0.07163143 0.07134617 -0.12749653
000060 d3 bc 3c 3e ab 86 10 3d 06 4a 24 bc bb 4b 2f bd
       0.18431406 0.03528468 -0.010027414 -0.04279683
000070 83 3f df bb 75 4c 3a be 3a 04 75 bd cb 4a 4a 3e
       -0.006812991 -0.18193229 -0.059818484 0.19755094
000080 97 69 cf 3d cc 74 75 bd 8a 51 17 bd 62 21 cf bc
       0.101275615 -0.05992584 -0.036942996 -0.025284473
000090 c0 53 1d bd 11 02 be 3d c4 d7 2e 3e a8 8f 0c bd
       -0.03840995 0.09277738 0.17074496 -0.03431669
0000a0 23 64 a2 3d 99 c0 bf bd b2 b4 5d bd 60 1e 17 bd
       0.07929256 -0.09362907 -0.054127403 -0.036894202
0000b0 65 02 32 3d ae d1 39 bd fa 71 a1 3e 8e 88 29 3e
       0.043459315 -0.04536598 0.3153227 0.16555998
0000c0 73 e0 15 3e 3a a2 01 bd a7 00 3a be ce 16 ad 3e
       0.14636402 -0.031648852 -0.18164311 0.3380646
0000d0 f9 39 9f 3e 76 52 31 3e b9 79 41 bc 11 ef 40 3e
       0.31098917 0.17316613 -0.011808806 0.18841197
0000e0 28 42 a2 bd 5e 35 55 3e 37 14 2a 3e c6 7c 94 3e
       -0.079227746 0.20821139 0.16609274 0.29001445
0000f0 89 e1 a2 bd 51 96 9e bd 41 13 7b bd 7d a6 99 bd
       -0.07953174 -0.07743514 -0.06129766 -0.07502458
000100 32 69 0d 3e aa 22 89 bc 9b e0 15 3e 5d 92 07 bd
       0.1380966 -0.016740162 0.14636461 -0.033098567
000110 74 22 45 bd d0 f3 10 be 60 ec b8 bd 81 8a 09 bd
       -0.04812856 -0.14155507 -0.0902946 -0.033579353
000120 e1 38 f4 3d 72 66 93 bc ae 29 81 bc 0b 69 74 3e
       0.11924911 -0.017993186 -0.015766945 0.23868196
000130 b2 31 3b 3e 3c 75 46 3e 3c 51 9b bc ad 73 e7 bd
       0.18280676 0.19380659 -0.018959634 -0.1130136
000140 df d6 43 bd 3c 43 61 bd 46 97 3b bd 74 ab f2 3d
       -0.04781234 -0.05499576 -0.045798562 0.11849108
000150 c5 9d 34 bd cc 2b 1c bd 15 58 e1 bc d0 a0 37 be
       -0.044095773 -0.038127705 -0.027507821 -0.17932439
000160 0a d1 44 3e 7a 6b 9c bd b1 82 0f 3e 4e 22 e5 bd
       0.19220367 -0.07637687 0.14014699 -0.11188184
000170 e1 58 bc bd 2b 18 cd bd 71 ea 00 bd 00 8f 0a be
       -0.0919664 -0.10014375 -0.03147358 -0.13531113
000180 4f 29 2c bb 58 9a 86 bd 20 33 c6 bd e6 62 1b 3e
       -0.002626974 -0.065724075 -0.0967772 0.15174446
000190 a3 91 a6 3e 31 5e 33 be b2 af 11 be 5c 64 d4 3c
       0.32532987 -0.175164 -0.14227179 0.025926761
0001a0 c7 56 3e bd 15 bd 58 bd fa 3e 85 3e ad 18 2f 3e
       -0.046469476 -0.052914698 0.2602461 0.17099257
0001b0 d3 3c 53 bd 2a da 96 3e aa 9c bc bd b3 8b ae 3e
       -0.05157168 0.2946332 -0.09209569 0.34090957
0001c0 8e 1f 09 3e ce 97 68 bd 90 0a a8 bc 53 3a 66 bd
       0.13390943 -0.056785397 -0.02051285 -0.056207966
0001d0 3b bd 45 bd 90 c4 a3 bd f4 f2 56 3d 76 23 9a 3e
       -0.048276167 -0.07996476 0.052477792 0.3010518
0001e0 66 99 cc bc 09 1d 42 be 37 32 11 be 22 ca 28 bd
       -0.02497549 -0.18956389 -0.14179312 -0.041208394
0001f0 40 b4 6a 3e 19 02 85 3b ed f6 cb bc 18 cd a7 bd
       0.22920322 0.004059088 -0.024898017 -0.081934154
000200 61 80 65 be 6c 6a eb 3c ba c2 65 bc e5 19 78 bd
       -0.22412254 0.02873727 -0.014023477 -0.06057157
000210 36 1c bd bd c0 58 52 3e 5d 13 8b 3d e3 77 dd 3d
       -0.092338964 0.20541668 0.06790803 0.10813882
000220 ab ba bc bc f4 9e 9a 3e d6 15 b4 3e f8 1a 8e bc
       -0.023038229 0.30199397 0.3517291 -0.017346844
000230 ef 3d da bd 69 9c 6b bc 47 4b 73 3d 8f 30 40 3d
       -0.10656344 -0.014380553 0.059397962 0.04692131
000240 cf 86 73 3e 80 bb 12 3a dd ab 1d 3e 28 1d 0f 3e
       0.23781894 0.00055973977 0.15397592 0.13975966
000250 34 3e 14 3e 73 0f 1d 3e f3 28 5e 3e 4c a3 bb be
       0.14476854 0.15337925 0.21695308 -0.36648023
000260 32 fa 9f 3e a1 fe 13 3e e4 0e 49 be 82 dc e0 3d
       0.3124557 0.14452602 -0.19634587 0.109795585
000270 c2 6e b7 3d ae 86 8a 3e 64 a0 ee bc 33 17 25 be
       0.08956672 0.27055877 -0.029129215 -0.16122131
000280 dc 7e 43 3d 7a 4b 3e 3d 72 ad 9d 3d 41 ad 2b bc
       0.047728404 0.0464587 0.07699098 -0.010478319
000290 50 50 86 3e e8 2a 87 bd 21 54 7b bd 35 eb ff 3c
       0.2623315 -0.065999806 -0.06135953 0.031240085
0002a0 ff 46 83 3d 4f c5 d5 bd 3d 0a 22 be f3 45 02 bd
       0.06410026 -0.10438024 -0.15824218 -0.03180499
0002b0 1a c5 79 be 60 34 17 be 3e d7 96 bd 42 79 17 be
       -0.24391595 -0.14766073 -0.07365273 -0.1479235
0002c0 be 43 4c be e0 ba af be 80 96 d6 bd 20 4d 0e 3e
       -0.19947717 -0.34322262 -0.10477924 0.13896608
0002d0 62 2c 23 3d 68 7a 57 be 2d fe 8a bc 95 4a 0e 3e
       0.03983725 -0.21042788 -0.016966904 0.13895638
0002e0 e5 48 9d be 79 a5 32 be b7 77 c1 3d d9 de d4 3d
       -0.30719677 -0.17445935 0.09446662 0.10394067
0002f0 5e fc bc 3d a5 e6 16 3d 5e c5 46 bd 39 12 a5 3d
       0.09227823 0.036841054 -0.048528068 0.08060116
000300 8b 31 9c 3c 76 a7 8c 3c 2e 45 95 3e d9 1b 60 3d
       0.019066593 0.017169695 0.29154342 0.054714058
000310 7a 98 7a be c2 b4 66 3d ae 89 13 3e 23 48 d5 bd
       -0.24472228 0.056324728 0.1440799 -0.104141496
000320 1a be 4a 3e c8 e8 b0 bd 69 9e 8d 3d 81 be a8 bd
       0.1979908 -0.086381495 0.0691498 -0.08239461
000330 27 99 97 3e f4 5e 9f be c3 89 3c 3d f3 31 d9 be
       0.29609033 -0.3112713 0.046029817 -0.4242092
000340 d2 25 11 3e e7 67 b6 bc 87 82 db 3d 76 17 88 3e
       0.14174584 -0.022266341 0.107182555 0.265804
000350 2b 9b 37 3c be a9 63 3e 52 ac 06 be cd 92 cc 3d
       0.0112064285 0.2223272 -0.13151672 0.099889375
000360 80 9c 75 3e 23 cc 9f 3c c3 f1 3c 3d b9 9b 56 3e
       0.23985481 0.01950652 0.046129 0.20957841
000370 fe 8f 7f 3c 29 de a6 bd f5 55 34 3e a9 6e a1 bd
       0.015598295 -0.081478424 0.17610915 -0.07882435
000380 7a 9c ac 3c 71 c5 27 bd a0 11 35 bc 38 97 2a 3e
       0.021070708 -0.04095978 -0.011051565 0.16659248
000390 08 5a fc bb c7 bf b8 3d 9d f4 9f 3d 71 cf 49 3e
       -0.0077011622 0.090209536 0.07810328 0.19708039
0003a0 7c b0 60 be 5e be b9 3c b9 41 53 3e 2c 71 b0 3d
       -0.21942323 0.022673782 0.2063054 0.08615336
0003b0 d5 74 05 bd 68 3b 53 3d 21 9f 09 bc 55 06 9e 3d
       -0.032582123 0.051570326 -0.008399756 0.077160515
0003c0 72 c8 10 be 8c 51 fa 3e c3 fb 25 3e 71 c5 9d bd
       -0.14138964 0.4889034 0.1620932 -0.077036746
0003d0 1c 8e 0e 3e 0f a5 41 3e 46 c2 c2 be 23 fc 8b bd
       0.13921398 0.18910621 -0.38038844 -0.06835201
0003e0 80 f2 bc bb af 4f 0c 3e 89 b8 fc 3d ef 51 46 3e
       -0.005766213 0.13702272 0.12339885 0.19367193
0003f0 06 e8 ae be db e1 b7 3e 33 da ed 3d 90 75 8e bd
       -0.34161395 0.35914502 0.11613884 -0.06956017

fc3.bias f4 [2]
000000 73 a4 19 bd 64 a9 82 3d
       -0.037510347 0.06379965
