collaboration_and_competition/agent1_checkpoint_actor.pth (torch_old, 142881 bytes, 6 tensors)

fc1.weight f4 [200, 24]
0	0xbd067881	-0.032829765
1	0xbe0dfc35	-0.1386574
2	0xbe0f859f	-0.14015816
3	0xbdefc8e5	-0.117082395
4	0x3e52bf9a	0.20580903
5	0xbd887d48	-0.066645205
6	0xbda662bf	-0.08124303
7	0xbe579631	-0.21053387
8	0x3cc367d2	0.023853216
9	0xbda0e99b	-0.07857057
10	0xba9ce7a7	-0.0011970893
11	0xbcb33986	-0.021878015
12	0x3cd698d5	0.026195923
13	0xbd901eea	-0.070371464
14	0x3c5734bc	0.013135131
15	0x3b34b1b5	0.0027571742
16	0xbd8474d0	-0.06467593
17	0xbe1e4a84	-0.15458113
18	0xbd92df53	-0.07171502
19	0x3b85ef70	0.004087381
20	0xbe43f1ef	-0.19135259
21	0x3c7ada59	0.015310847
22	0x3c9e82d7	0.019349499
23	0xbd94b4ba	-0.07261033
24	0xbdc3aa20	-0.09553933
25	0x3da7a564	0.08185843
26	0xbc697f56	-0.014251551
27	0x3dde9b28	0.108694375
28	0xbbf4bb68	-0.0074686296
29	0x3e06f6fb	0.13180153
30	0x3d48b995	0.04900511
31	0x3db49429	0.08817322
32	0xbcd3d2e6	-0.0258574
33	0x3e187c18	0.14891088
34	0xbcf44592	-0.02981833
35	0x3df0ad15	0.11751763
36	0x3df7aaea	0.12093146
37	0xbc97d14c	-0.018532418
38	0xbd0fd186	-0.035111926
39	0x3d83d484	0.064370185
40	0x3b72d5e2	0.0037053754
41	0x3e4cb481	0.19990732
42	0x3d943e0b	0.07238396
43	0x3d405693	0.046957564
44	0x3e216157	0.15759788
45	0xbe023f3c	-0.12719434
46	0x3d2d73e4	0.04234685
47	0x3cd97c89	0.02654864
48	0x3df6e700	0.120557785
49	0xbdc0eabe	-0.094197735
50	0x3d6dea97	0.05808505
51	0xbca52b5d	-0.020162279
52	0xbdbc2a45	-0.0918775
53	0xbc7688e4	-0.015047286
54	0x3d90a0f7	0.070619516
55	0xbc88a5f6	-0.016680699
56	0xbccb2582	-0.024798159
57	0xbde1b8e4	-0.11021593
58	0xbd15ff5c	-0.036620483
59	0x3dc1994a	0.09453066
60	0x3e48000f	0.19531272
61	0x3dc77553	0.09739175
62	0xbd4f7ae8	-0.050654322
63	0x3b9dcf74	0.00481599
64	0x3d9e09f6	0.07716744
65	0xbd86cb86	-0.06581788
66	0xbd858944	-0.06520322
67	0x3e598f5d	0.21246095
68	0x3e794c69	0.24345554
69	0xbd1d7eae	-0.03845089
70	0x3d47ca1d	0.048776735
71	0x3e7d3c71	0.24730088
72	0xbd5badeb	-0.053632658
73	0xbe5671e8	-0.2094189
74	0x3c849bc7	0.016187562
75	0xbdc2c1c4	-0.09509614
76	0xbd93909b	-0.07205316
77	0x3d7d4c6f	0.06184047
78	0x3c2146b7	0.00984352
79	0x3cfb3d67	0.030668927
80	0xbdc192ec	-0.09451851
81	0xbe25bad4	-0.1618455
82	0x3d0f9c3a	0.0350611
83	0x3c49cd0b	0.012316952
84	0xbe014281	-0.12623025
85	0xbcf2a5bf	-0.02962005
86	0x3c319c9a	0.010840559
87	0xbd1ea8b3	-0.038735103
88	0xbd968c1d	-0.07350943
89	0xbe3f14b8	-0.18660247
90	0x3d3f013a	0.04663203
91	0x3c3c8087	0.011505253
92	0xbe7ed7b2	-0.24886969
93	0x3c53309b	0.012890006
94	0xbcbc781a	-0.023006488
95	0xbd70dad9	-0.05880246
96	0xbd254b76	-0.04035517
97	0x3da8e0ab	0.08245977
98	0xbde755c0	-0.112956524
99	0xbd769a8a	-0.060205974
100	0xbdf9286b	-0.12165912
101	0x3ddc55e9	0.107585736
102	0xbd027dab	-0.031858128
103	0x3d10ec53	0.035381626
104	0xbcfd1df0	-0.030898064
105	0x3dfca852	0.12336792
106	0x3dafa411	0.08576215
107	0x3d1cdb4e	0.038295083
108	0x3d30c254	0.043154076
109	0xbe0796c5	-0.13241108
110	0x3c9cc929	0.01913889
111	0x3c2c5fc3	0.010520878
112	0xbda2da6a	-0.079518154
113	0x3e0248df	0.1272311
114	0xbcffc226	-0.031220507
115	0xbd99eb18	-0.07515544
116	0x3dee553c	0.11637351
117	0xbe7dfaca	-0.248027
118	0x3cab4d0f	0.020910768
119	0x3cac9640	0.021067739
120	0x3d9ba944	0.07600644
121	0xbdb5f98e	-0.088854894
122	0xbc96a6af	-0.018390028
123	0xbd8aa92f	-0.067705505
124	0x3ea12fa7	0.31481668
125	0xbdb91be7	-0.09038525
126	0xbd3c7630	-0.04601115
127	0xbe22f1f0	-0.15912604
128	0x3e319fb1	0.17346074
129	0x3d3e58a2	0.046471246
130	0x3b7c04ac	0.0038454933
131	0xbddbf0fa	-0.10739322
132	0x3e22c77e	0.15896413
133	0x3c7960d3	0.015220839
134	0xbc321551	-0.01086934
135	0x3c19e5ec	0.009393197
136	0x3da46a4c	0.08028087
137	0xbdcce441	-0.100044735
138	0x3d580782	0.052741535
139	0xbce1175f	-0.027476965
140	0x3ce8b905	0.028408537
141	0x3e5f2e56	0.2179502
142	0xbd43b5d6	-0.047780834
143	0xbd111a19	-0.03542528
144	0x3d80ae51	0.06283248
145	0xbe289199	-0.16461791
146	0x3e0fc20a	0.14038864
147	0x3d3a3e5f	0.045469638
148	0xbe04903d	-0.12945648
149	0xbe2586ab	-0.16164653
150	0x3ce1461d	0.027499253
151	0x3d8f262e	0.06989704
152	0x3db8b44f	0.09018766
153	0xbdbc3d9c	-0.091914386
154	0x3d92f465	0.07175521
155	0xbd87627e	-0.06610583
156	0xbcd30cc5	-0.025762925
157	0xbd656d01	-0.056012157
158	0xbbc78fb2	-0.006090128
159	0xbd0028c9	-0.031288896
160	0x3c004f35	0.007831384
161	0x3c08ab1c	0.008341577
162	0xbc9520a5	-0.018204043
163	0xbd09dbc4	-0.03365685
164	0x3dc6276f	0.0967549
165	0x3d9cb0b7	0.07650893
166	0x3d2d762f	0.042349037
167	0xbdcd54df	-0.100259535
168	0x3e3b2cef	0.1827886
169	0xbe9e69f2	-0.30940205
170	0x3da330b5	0.079682745
171	0xbca6a168	-0.020340636
172	0xbcbbfcc6	-0.02294768
173	0xbd231ef5	-0.039824445
174	0xbce37bcc	-0.027768992
175	0x3cee3695	0.029078761
176	0x3d248098	0.0401617
177	0xbe376cc7	-0.17912589
178	0xbc03eaac	-0.008051556
179	0x3df115f6	0.11771767
180	0xbd6dee6a	-0.058088697
181	0xbd54fe47	-0.05200031
182	0x3cdf679b	0.027271083
183	0x3e5c5a7c	0.21518892
184	0x3d9dca51	0.077046044
185	0xbd00ad1a	-0.031415083
186	0x3d41f379	0.047351334
187	0x3e440248	0.19141495
188	0xbdc26320	-0.09491563
189	0xbdf55206	-0.11978535
190	0xbd9f74e6	-0.077859685
191	0x3db04973	0.08607759
192	0xbd4513d3	-0.04811461
193	0xbd234b3f	-0.039866682
194	0x3c2dcef2	0.010608422
195	0x3db32022	0.08746363
196	0x3e0a6d63	0.1351829
197	0x3e13999d	0.14414068
198	0x3c9e293b	0.01930677
199	0xbc034455	-0.008011897
200	0xbddb4076	-0.10705654
201	0x3d52029e	0.051272027
202	0xbc882e7c	-0.016623728
203	0x3c49a4e1	0.012307377
204	0xbc65b815	-0.014020939
205	0xbd6587f9	-0.056037877
206	0x3d09ae3b	0.033613425
207	0x3d878fc3	0.06619217
208	0xbde914d8	-0.11380929
209	0xbd0a421c	-0.033754453
210	0xbcd2af64	-0.025718398
211	0xbd7967f9	-0.06089017
212	0xbd98f6b9	-0.074689336
213	0xbdd573a6	-0.10422449
214	0x3d060a26	0.032724522
215	0xbe0c1f23	-0.13683753
216	0xbdff5937	-0.12468188
217	0x3db8363b	0.08994719
218	0x3b482440	0.0030539185
219	0x3b120142	0.0022278582
220	0xbe1ae56e	-0.15126583
221	0xbc81b9ff	-0.01583576
222	0x3d36f6b9	0.044668887
223	0xbc91d760	-0.017802894
224	0x3d26ae99	0.040693853
225	0x3e790174	0.2431696
226	0x3dd66bae	0.10469757
227	0xbdc44ad1	-0.095845826
228	0xbd893fd8	-0.0670163
229	0x3c7bc93c	0.015367802
230	0xbc33ee58	-0.010982119
231	0xbdc1a0bd	-0.094544865
232	0x3c4f5a8e	0.012655867
233	0x3dd5c7e7	0.10438519
234	0x3bd0a77f	0.0063676233
235	0xbde9a7c1	-0.1140895
236	0x3e0c3046	0.1369029
237	0x3e12420a	0.14283004
238	0xbd6dc9e3	-0.058053862
239	0xbe2e5881	-0.17025949
240	0x3d680b2d	0.056651283
241	0x3e48c747	0.19607268
242	0xbe19f527	-0.15034924
243	0x3db24b84	0.0870581
244	0x3cac489b	0.021030715
245	0xbdea0134	-0.11426011
246	0xbe156e84	-0.1459294
247	0x3dee3840	0.116318226
248	0x3d3890fb	0.04506014
249	0x3e536351	0.20643355
250	0x3da2b322	0.07944323
251	0x3e0e4bfc	0.13896173
252	0x3da88a52	0.082295075
253	0xbe613c7d	-0.2199573
254	0xbd278898	-0.04090175
255	0x3d3a1504	0.0454302

fc1.bias f4 [200]
0	0x3e42a16e	0.19006893
1	0xbcf9aefc	-0.030478947
2	0x3e085512	0.13313702
3	0x3d6cf5ac	0.05785148
4	0xbdf8d62a	-0.121502236
5	0xbd2189b9	-0.039437983
6	0x3d59798a	0.053094424
7	0xbe63329f	-0.22187279
8	0x3e450056	0.1923841
9	0xbdd19f34	-0.10235444
10	0xbd822354	-0.063543946
11	0x3ca3880a	0.01996233
12	0x3e7c7292	0.2465308
13	0xbde266af	-0.110547416
14	0x3e974cb8	0.2955072
15	0x3e1a515e	0.15070102
16	0x3d83926c	0.06424412
17	0x3e38e81b	0.18057291
18	0x3df68ac8	0.12038189
19	0xbe560b5e	-0.20902774
20	0x3c09f934	0.008421231
21	0x3e8fd6db	0.2809361
22	0x3e093727	0.13399945
23	0xbd9ef883	-0.077622436
24	0xbe35cb85	-0.17753418
25	0x3dfd1190	0.123568654
26	0x3daae15d	0.08343766
27	0x3dcd12f2	0.10013379
28	0xbe57184a	-0.2100536
29	0xbdc7bafd	-0.09752462
30	0xbcd78820	-0.026310027
31	0x3e0f05df	0.13967083
32	0xbd0cf553	-0.034413647
33	0xbe84e358	-0.259547
34	0xbdb1e272	-0.08685769
35	0x3e7888ef	0.24270986
36	0xbe1cb64a	-0.15303913
37	0xbe577fed	-0.21044894
38	0x3e321ba3	0.17393355
39	0x3e4b924d	0.19880028
40	0xbe63059a	-0.22170106
41	0xbe5b306c	-0.2140519
42	0xbde321b4	-0.11090413
43	0x3e659fcf	0.22424243
44	0xbde85396	-0.11344068
45	0x3d6dc6c7	0.058050897
46	0x3dd4495b	0.10365554
47	0xbdd13cbc	-0.10216662
48	0x3bc55b2a	0.0060228305
49	0xbdb26883	-0.0871134
50	0x3d203383	0.039111625
51	0x3e6f6c9e	0.23381278
52	0x3da58ee6	0.08083896
53	0x3db0893c	0.086199254
54	0xbdae05b1	-0.08497179
55	0xbcb73ac7	-0.022366894
56	0x3d80e692	0.06293978
57	0x3e0e8a59	0.13919963
58	0xbd8c4630	-0.06849325
59	0xbdb591a4	-0.08865669
60	0xbdedab1c	-0.11604902
61	0xbafc84bc	-0.0019265632
62	0x3e566ef1	0.20940758
63	0xbd293cf2	-0.041317888
64	0xbea50ed5	-0.32237878
65	0xbe1a2e94	-0.1505683
66	0xbe46df8c	-0.19421214
67	0x3cb98859	0.022648023
68	0x3de8cc81	0.11367131
69	0x3e0fa8ac	0.14029187
70	0x3dd725df	0.1050527
71	0x3e008504	0.12550741
72	0x3e438b18	0.19096029
73	0x3e06aaf4	0.13151151
74	0x3dc25bf5	0.09490196
75	0x3cf47a8e	0.029843595
76	0x3e13ed25	0.14445932
77	0xbe0eafea	-0.13934293
78	0xbe43124f	-0.19049953
79	0x3db5320e	0.08847438
80	0x3dd8b148	0.10580689
81	0xbe968b12	-0.29402977
82	0xbe107c16	-0.14109835
83	0xbdff9e51	-0.12481368
84	0x3e29f41f	0.16597031
85	0x3e22d146	0.15900144
86	0xbe0505c7	-0.12990485
87	0xbd6aa16e	-0.057282858
88	0xbdcf44fa	-0.10120578
89	0x3e3ef748	0.18649018
90	0xbe0f5828	-0.13998473
91	0xbe812c01	-0.25228885
92	0xbe478121	-0.19482853
93	0x3e1e4dd0	0.1545937
94	0xbdc1927d	-0.094517685
95	0x3e25a708	0.16176999
96	0x3cb16273	0.02165339
97	0xbd86f640	-0.06589937
98	0xbcb28990	-0.02179411
99	0x3c731451	0.014836387
100	0x3e0b45bc	0.1360082
101	0xbd01f20c	-0.031724975
102	0x3d95e0ce	0.07318269
103	0x3cb097ee	0.02155682
104	0xbe2efa0c	-0.17087573
105	0xbdd769c5	-0.10518221
106	0xbe2c5268	-0.1682831
107	0x3d249abe	0.040186636
108	0x3d79e5c2	0.06101013
109	0x3d10d682	0.03536082
110	0xbd2b696e	-0.041848592
111	0xbe06474d	-0.13113137
112	0xbd3d3231	-0.046190444
113	0xbe23396f	-0.15939878
114	0xbe25351c	-0.16133541
115	0xbe2fc19b	-0.17163698
116	0xbdbb8b85	-0.091574706
117	0xbe96f206	-0.29481524
118	0x3d9105b1	0.07081164
119	0x3db082a7	0.0861867
120	0x3d92a620	0.07160592
121	0xbe75a4e7	-0.23988687
122	0x3e43f204	0.1913529
123	0xbca3d908	-0.02000095
124	0x3dc19acb	0.094533525
125	0xbb5612cb	-0.003266501
126	0x3d3a0dce	0.04542332
127	0xbe1fcf17	-0.15606342
128	0x3dbeae73	0.09310617
129	0x3e84fad4	0.25972617
130	0x3ba37259	0.0049879965
131	0xbe4d2e65	-0.2003723
132	0x3d0f4c66	0.03498497
133	0xbd76d182	-0.060258396
134	0x3d8c8080	0.06860447
135	0xbe1069a1	-0.14102794
136	0x3dc41dd2	0.09576
137	0x3cfade82	0.030623678
138	0xbd945a35	-0.07243768
139	0xbd24f437	-0.040271964
140	0xbdf34d16	-0.11879937
141	0xbe32b4b9	-0.17451753
142	0x3dacd935	0.084398665
143	0x3e2e89d6	0.17044768
144	0x3cbb4292	0.022858892
145	0x3e7b261c	0.24526256
146	0x3dfe3a0c	0.12413415
147	0xbe2a7a52	-0.16648224
148	0xbe37d1b6	-0.17951092
149	0xbe320f46	-0.17388639
150	0x3d844d8a	0.06460102
151	0xbdcbf0c3	-0.09958031
152	0xbdd2cfd4	-0.10293546
153	0x3e009389	0.1255628
154	0xbdf97840	-0.12181139
155	0xbd8a78f9	-0.06761355
156	0xbe52b15f	-0.20575474
157	0xbdd1c8f6	-0.102434084
158	0x3e717352	0.23579147
159	0xbdf502f7	-0.11963456
160	0xbd8aeaec	-0.06783089
161	0x3df70c2c	0.120628685
162	0xbe204cf5	-0.15654357
163	0xbe0e7318	-0.13911092
164	0x3daded9d	0.08492587
165	0xbe120111	-0.1425822
166	0xbda6b1d4	-0.08139387
167	0x3d376cd8	0.044781536
168	0x3d8dd0da	0.06924601
169	0x3df29b25	0.11845998
170	0x3d4236ca	0.047415532
171	0xbe234d15	-0.15947373
172	0x3e3f5f98	0.1868881
173	0xbe965e2d	-0.29368725
174	0x3e026465	0.1273361
175	0xbcffe639	-0.031237708
176	0xbe405c79	-0.18785276
177	0x3e017ec2	0.1264601
178	0xbe0ed840	-0.1394968
179	0xbd9bac5d	-0.07601235
180	0x3e3520c3	0.17688279
181	0x3e92e3e6	0.28689498
182	0xbe2f81f2	-0.17139414
183	0xbd1a5829	-0.037681732
184	0x3e7a5bc1	0.24449064
185	0xbe813421	-0.25235084
186	0x3dab914d	0.08377323
187	0xbc84465f	-0.016146837
188	0x3d2ad1ec	0.041704103
189	0xbe3521bb	-0.17688648
190	0x3dea813f	0.11450433
191	0xbcea03d8	-0.028566286
192	0x3e2a5179	0.16632642
193	0x3d6ca9e9	0.057779226
194	0xbc990672	-0.018679831
195	0xbdbf03c9	-0.09326894
196	0xbe062ec9	-0.13103785
197	0xbdafe881	-0.085892685
198	0x3c86639f	0.016404925
199	0xbd09b566	-0.03362026

fc2.weight f4 [150, 200]
0	0x3df96a43	0.12178471
1	0x3da43e23	0.08019664
2	0x3d4f8a1d	0.050668824
3	0x3d2ff646	0.042959474
4	0x3dec697d	0.11543558
5	0x3dae8f52	0.0852343
6	0x3cbd1824	0.0230828
7	0xbcfcfea9	-0.03088315
8	0xbd18c3d8	-0.037296146
9	0xbb85e1e7	-0.0040857675
10	0x3e071448	0.1319133
11	0x3d8cb6a3	0.06870773
12	0x3de30b8d	0.110861875
13	0xbb14ce44	-0.0022705952
14	0x3e04cd0d	0.12968846
15	0x3c2a32cd	0.010388088
16	0x3d68f7b7	0.056876864
17	0x3e1c51ea	0.15265623
18	0x3e0fd547	0.14046203
19	0x3cb34da0	0.0218876
20	0x3e246249	0.16053118
21	0x3cc96814	0.024585761
22	0xbaa44f8a	-0.0012535912
23	0x3d364a62	0.04450453
24	0x398e9c76	0.00027200923
25	0x3e099052	0.1343396
26	0x3d642852	0.055702515
27	0x3dc5d139	0.09659047
28	0xbda95d43	-0.082697414
29	0x3d12c2b6	0.035830222
30	0x3cb84c0f	0.022497205
31	0x3d004bfe	0.03132247
32	0x3d7a6c27	0.0611383
33	0xbda74bf2	-0.08168782
34	0x3ca333ba	0.019922126
35	0x3d6fc249	0.058534894
36	0x3e0f8876	0.140169
37	0xbdcd4ad7	-0.1002404
38	0xbc99ef9a	-0.018791009
39	0xbdd8adf0	-0.10580051
40	0xbc84de25	-0.016219208
41	0xbc7543f8	-0.014969818
42	0x3dab98e3	0.0837877
43	0x3c27dbc3	0.010245266
44	0x3b7185aa	0.0036853352
45	0xbe361da3	-0.17784743
46	0x3e75c51e	0.24000975
47	0xbd792f7c	-0.0608363
48	0x3c82da46	0.015973222
49	0xbd4d8f3c	-0.050185427
50	0x3cbc4196	0.022980493
51	0x3dc4f413	0.09616866
52	0xbd530d64	-0.051526442
53	0xbbc73374	-0.0060791317
54	0x3d2351bd	0.039872874
55	0xbd0d957c	-0.034566388
56	0xbc8bb6e2	-0.017054979
57	0xbdbb7c51	-0.09154571
58	0xbdb2d843	-0.08732655
59	0x3df274ac	0.1183866
60	0xbdea1b66	-0.11431007
61	0xbd604a54	-0.054758385
62	0xbcbe8565	-0.023256967
63	0xbd5bade9	-0.05363265
64	0xbd4dc4a3	-0.050236356
65	0x3d4cbaaa	0.049982704
66	0x3d437b1e	0.047724836
67	0x3ce0f218	0.02745919
68	0xbe78e975	-0.24307807
69	0x3d76edae	0.060285263
70	0xbd49e7f6	-0.04929348
71	0xbca536a7	-0.020167662
72	0xbe0d912f	-0.13824914
73	0xbceace45	-0.02866281
74	0x3cc50df7	0.02405451
75	0xbe0e3f60	-0.13891363
76	0x3c0ddc17	0.008658431
77	0x3b744407	0.0037271993
78	0xbd74184c	-0.059593484
79	0x3daa6b0e	0.083212
80	0x3d7a8fe0	0.061172366
81	0xbde001d2	-0.10937847
82	0xbd726e82	-0.05918742
83	0xbcb0d178	-0.021584257
84	0x3db2ee38	0.08736843
85	0x3d48560d	0.04891019
86	0x3d424a37	0.047434058
87	0xbc8170d7	-0.015800877
88	0xbe1d1fa7	-0.15344106
89	0xbcfc27e5	-0.030780742
90	0xbe75318e	-0.23944685
91	0x3cadcaed	0.021214927
92	0xbc4c2ffb	-0.012462611
93	0x3b3c897b	0.0028768468
94	0xbd381443	-0.044941198
95	0x3d5c99bf	0.05385756
96	0xbd885991	-0.066577084
97	0x3e171210	0.14752984
98	0x3dbde9ad	0.09273086
99	0x3d843283	0.06454947
100	0x3d82cd69	0.06386835
101	0x3cfb2163	0.030655568
102	0xbb4eb628	-0.003154168
103	0x3db9d51c	0.090738505
104	0x3dbe6e83	0.09298422
105	0xbcdeec23	-0.027212208
106	0x3d889346	0.06668715
107	0xbd36e359	-0.04465041
108	0xbe1024db	-0.14076559
109	0xbd6632f9	-0.056200955
110	0x3c096b48	0.008387394
111	0x3d37f9a1	0.0449158
112	0xbcbe2fe6	-0.0232162
113	0x3c817a88	0.015805498
114	0x3d94cdd0	0.07265818
115	0xbcd6b1e4	-0.026207872
116	0xbc58696d	-0.013208729
117	0xbb0a36da	-0.0021089823
118	0x3d8cd082	0.06875707
119	0xbb5d7329	-0.0033790565
120	0x3c45b800	0.012067795
121	0xbdbc1d26	-0.09185247
122	0x3b8f0d51	0.004365601
123	0xbcb75b4c	-0.0223824
124	0x3cc3ebf0	0.023916215
125	0x3d35ec81	0.044415
126	0xbdd066fe	-0.10175894
127	0xbd976a9e	-0.073933825
128	0x3e156caf	0.14592241
129	0xbd69c98a	-0.05707697
130	0xbde75194	-0.11294857
131	0xbe25e909	-0.16202177
132	0x3e006a8c	0.12540644
133	0xbd5b8044	-0.05358912
134	0xbdab0e6e	-0.083523616
135	0xbbeb0c00	-0.0071730614
136	0xbd9eaf71	-0.077483065
137	0x3dc67b54	0.09691492
138	0xbd8640e5	-0.065553464
139	0xbd3dcaf9	-0.046336148
140	0x3c443a23	0.0119767515
141	0x3d1c3c87	0.03814366
142	0x3d8ebcce	0.069696054
143	0x3dc2797f	0.0949583
144	0x3c9cd7f8	0.01914595
145	0x3da0956c	0.07841
146	0xbdd92b9f	-0.10604023
147	0x3d911589	0.07084186
148	0xbe018f7b	-0.1265239
149	0xbc338140	-0.010956109
150	0xbdf5a3fa	-0.11994167
151	0xbd6855f2	-0.05672259
152	0xbc138ba1	-0.009005458
153	0xbc947647	-0.018122805
154	0xbca25ea2	-0.019820515
155	0xbdc03a17	-0.0938608
156	0x3d5acf92	0.05342061
157	0x3de9cc67	0.1141594
158	0x3b6638c9	0.0035129061
159	0x3ba0d953	0.0049087196
160	0x3d065312	0.032794066
161	0xbd88eb3c	-0.066854924
162	0x3cdf5fa4	0.027267285
163	0xbd684f01	-0.05671597
164	0x3c965a6f	0.018353669
165	0x3d7b2b20	0.061320424
166	0xbcaf602a	-0.02140816
167	0xbdf8e0c2	-0.12152244
168	0x3d6b43dd	0.057437766
169	0x3e4f6899	0.20254745
170	0x3e042289	0.12903799
171	0x3d768e5e	0.060194366
172	0x3d1928ef	0.037392553
173	0x3cacc9c1	0.021092298
174	0x3d0f2a9e	0.034952752
175	0x3ddd2e2e	0.10799824
176	0xbc3eee73	-0.01165353
177	0xbdff3420	-0.12461114
178	0xbbc73f8a	-0.0060805725
179	0xbd9de1c1	-0.07709075
180	0x3d220701	0.03955746
181	0x3c6c371b	0.014417435
182	0xbdccf2f5	-0.10007278
183	0xbe2e5765	-0.17025526
184	0x3dfa2755	0.12214533
185	0xbd842299	-0.064519115
186	0x3d8d5f9a	0.06903
187	0xbb91f347	-0.0044540497
188	0x3db5fe41	0.08886386
189	0x3d1b59f2	0.037927575
190	0xbd2a1925	-0.041527886
191	0x3c1ff00a	0.00976182
192	0x3d65e8f6	0.056130372
193	0x3da124d3	0.07868352
194	0xbc985d59	-0.0185992
195	0x3c6b1ada	0.014349664
196	0xbc8ad2c7	-0.01694621
197	0x3d5b3bc8	0.05352381
198	0x3c9f6485	0.019457111
199	0xbd1adfc2	-0.03781105
200	0x3d2c98d1	0.042137925
201	0xbd58800b	-0.052856486
202	0xbe808420	-0.25100803
203	0xbe27d407	-0.16389476
204	0x3e38b2f5	0.18037017
205	0x3e5e2edc	0.21697563
206	0xbd3c37b2	-0.045951553
207	0x3e36ad63	0.1783958
208	0xba9a5cd1	-0.0011776929
209	0x3e26ab03	0.16276173
210	0x3d3c748e	0.046009593
211	0x3dc112d8	0.09427422
212	0xbdbae1b1	-0.091250785
213	0xbd24e8d4	-0.040261105
214	0x3df438d2	0.119249
215	0x3e07f3eb	0.13276641
216	0x3e0114d4	0.12605602
217	0x3de42f6a	0.11141856
218	0x3df01e09	0.11724479
219	0x3dcf0405	0.101081885
220	0xbe0d4ed8	-0.13799608
221	0x3be59027	0.0070057097
222	0xbe05c0f5	-0.13061889
223	0x3dcfe391	0.10150827
224	0xbb574734	-0.0032848837
225	0xbe44e13d	-0.19226547
226	0xbe1e0510	-0.15431619
227	0x3d724598	0.0591484
228	0x3df2e91d	0.11860869
229	0x3dbec2d7	0.093145065
230	0xbdb84601	-0.08997727
231	0x3cd5c297	0.026093764
232	0x3d64a731	0.05582351
233	0x3d1ea1e8	0.038728625
234	0xbd77a5d4	-0.06046088
235	0x3d43d917	0.047814455
236	0x3eb2660d	0.34843484
237	0x3da085b1	0.078379996
238	0x3d5eac96	0.05436381
239	0x3ea862ad	0.32887784
240	0x3ca5fe1b	0.020262768
241	0xbe524534	-0.20534211
242	0xbcb85cd9	-0.02250521
243	0xbc8517ff	-0.016246794
244	0xbdcdb6ad	-0.10044608
245	0xbe064c0d	-0.13114949
246	0xbcccd78d	-0.025005126
247	0xbc65badd	-0.014021602
248	0x3db742ea	0.0894831
249	0xbcf54494	-0.029939927
250	0xbd423117	-0.047410097
251	0x3e4ec6b8	0.20192993
252	0x3cd17d80	0.025572538
253	0xbc9f5b52	-0.019452725
254	0xbdb89dd7	-0.090144806
255	0x3daecf29	0.085356064

fc2.bias f4 [150]
0	0x3c9bbb4f	0.019010214
1	0x3d321284	0.04347469
2	0x3e05ff64	0.13085705
3	0xbd67e55a	-0.05661521
4	0x3dd6baa8	0.104848206
5	0xbe0df945	-0.1386462
6	0x3d9d6b1e	0.076864466
7	0x3c48ce5a	0.012256229
8	0xbd5ac976	-0.053414784
9	0x3d25ad13	0.04044826
10	0x3c77804d	0.015106273
11	0xbcf54236	-0.029938798
12	0x3da5db64	0.08098486
13	0xbc778072	-0.015106307
14	0xbb6db59f	-0.0036271585
15	0xbd551977	-0.05202624
16	0xbc5f03f4	-0.013611782
17	0xbd813684	-0.06309226
18	0x3d19d985	0.03756096
19	0xbd98db12	-0.07463659
20	0x3d6365c3	0.05551697
21	0xbcbf0151	-0.023316057
22	0x3c9f25c9	0.019427197
23	0x3c867079	0.016411053
24	0x3d42c407	0.047550227
25	0x3def0dc6	0.11672549
26	0x3c4022c3	0.011727038
27	0x3cc752a7	0.024331404
28	0x3d8be39a	0.06830521
29	0x3c3817c1	0.011236132
30	0xbe0681dc	-0.13135475
31	0x3c9f24a6	0.019426655
32	0xbd1e9c6f	-0.038723405
33	0xbd7796a8	-0.06044641
34	0x3d28a7d9	0.041175697
35	0x3c178fe9	0.009250619
36	0xbbb931cb	-0.0056516877
37	0x3db5a03e	0.088684544
38	0xbc68d518	-0.014210962
39	0xbde0c353	-0.10974755
40	0x3dafea04	0.08589557
41	0xbd670108	-0.056397468
42	0xbde6c260	-0.11267543
43	0xbe0eeb96	-0.13957056
44	0xbd09508c	-0.03352408
45	0x3c9cd083	0.019142395
46	0x3e03166a	0.12801519
47	0x3d0d3a69	0.034479532
48	0xbbca8483	-0.0061803474
49	0x3cd99913	0.02656225
50	0xbdf5dcf0	-0.12005031
51	0x3c158f3d	0.009128389
52	0xbbea0393	-0.0071415394
53	0x3db3580b	0.08757027
54	0xbd945fea	-0.07244857
55	0x3d0743f5	0.033023793
56	0x3a66ff88	0.0008811881
57	0x3dbc0f7d	0.09182642
58	0x3dd70fff	0.10501098
59	0xbd2d39cd	-0.04229145
60	0xbc8e2acc	-0.017354392
61	0x3e0de202	0.13855746
62	0xbcb8b0a6	-0.02254517
63	0xbd1df0f1	-0.038559858
64	0xbce56ff0	-0.028007478
65	0x3da31e3a	0.0796475
66	0x3d83fa90	0.064442754
67	0xbd3285e1	-0.043584708
68	0xbdfe98e9	-0.12431509
69	0xbd20bb73	-0.039241266
70	0xbd681ad9	-0.05666623
71	0x3d3cfd68	0.046140105
72	0x3deaaea0	0.11459088
73	0x3cb9ea07	0.0226946
74	0xbe1f8618	-0.15578496
75	0x3d5ea858	0.054359764
76	0x3d4fee3a	0.0507643
77	0x3e15f413	0.14643888
78	0xbe27fe4c	-0.164056
79	0xbd4ae2c8	-0.04953268
80	0xbd725eb5	-0.05917235
81	0x3acfcc78	0.0015853783
82	0xbdb2c5f7	-0.08729165
83	0x3cbb6b1a	0.022878218
84	0xbc6fe597	-0.014642141
85	0x3cc01e31	0.023451896
86	0x3c3fceeb	0.011707048
87	0xbd9d43fa	-0.07678981
88	0xbd16efeb	-0.036849897
89	0xbd7dfe49	-0.062010083
90	0x3d00205f	0.03128087
91	0xbccd3f1d	-0.025054509
92	0xbd851902	-0.064989105
93	0xbcb541e5	-0.022126148
94	0x3ca827c8	0.020526782
95	0xbd51ec1b	-0.05125056
96	0x3b193848	0.0023379494
97	0xbdc7bf04	-0.0975323
98	0xbd972bb0	-0.073813796
99	0x3d63afab	0.055587452
100	0x3e1dda3c	0.15415281
101	0xbd6b515e	-0.057450645
102	0x3c83f25f	0.016106782
103	0x39a84279	0.00032092983
104	0xbcb4ab89	-0.02205445
105	0xbe032232	-0.12806013
106	0xbc6c9888	-0.014440663
107	0x3d2c94d0	0.042134106
108	0xbdda6ad1	-0.10664905
109	0x3d212929	0.039345894
110	0x3db16de6	0.086635396
111	0x3d8e087e	0.069352135
112	0xbca1d22f	-0.019753544
113	0x3d1d86f3	0.038458776
114	0x3d97b9e1	0.074085005
115	0xbd10a219	-0.03531084
116	0xbda36285	-0.079777755
117	0xbc474db2	-0.01216452
118	0xbbb77f26	-0.005599874
119	0xbcb35809	-0.021892564
120	0xbd4bfc25	-0.04980101
121	0x3d871eff	0.06597709
122	0xbdc83fc7	-0.097777896
123	0xbda22b4a	-0.07918413
124	0x3b16d406	0.002301456
125	0xbc74de07	-0.014945514
126	0xbda6212c	-0.08111796
127	0xbdb10ed8	-0.08645409
128	0x3ded968d	0.11600981
129	0xbc04e46e	-0.0081111025
130	0xbd9a9c5a	-0.07549353
131	0xbd55fa35	-0.05224057
132	0x3d238428	0.039920956
133	0x3ccd1750	0.02503553
134	0x3d83a8c3	0.06428673
135	0x3dda95e0	0.10673118
136	0x3c84b1aa	0.016197998
137	0x3e296e2f	0.16545938
138	0x3d41c5c5	0.04730775
139	0xbd01268e	-0.03153091
140	0x3c0267bf	0.007959305
141	0xbda61e25	-0.08111218
142	0x3da1c3b9	0.07898659
143	0xbcc935da	-0.024561811
144	0x3cbd515b	0.023110082
145	0x3d48af4d	0.048995305
146	0x3db6510f	0.089021794
147	0x3ca37a97	0.019955916
148	0x3c2227d8	0.009897195
149	0x3abb0242	0.0014267641

fc3.weight f4 [2, 150]
0	0x3d39f100	0.04539585
1	0x3b9aa766	0.0047196625
2	0x3e3016f8	0.17196262
3	0xbdaefecd	-0.08544693
4	0x3da5cac7	0.08095317
5	0xbd4cb8d2	-0.049980946
6	0xb98151ec	-0.00024665834
7	0xbd26133a	-0.04054568
8	0x3e06fb46	0.1318179
9	0x3e4146c4	0.18874651
10	0xbd00a3fb	-0.031406384
11	0x3d969439	0.0735249
12	0xbdd2b1ef	-0.102878444
13	0x3ead0a42	0.3379689
14	0xbcc44d60	-0.023962677
15	0x3aa3afc5	0.0012488296
16	0x3d4904fa	0.04907701
17	0xbd3469b4	-0.04404612
18	0xbc79ea95	-0.015253683
19	0xbb60f055	-0.0034322937
20	0x3decc61e	0.11561225
21	0x3e8a02be	0.26955217
22	0x3d21fb51	0.039546315
23	0xbe1721e6	-0.14759025
24	0x3e4a990a	0.19784942
25	0x3e484892	0.19558933
26	0x3a98f937	0.0011670951
27	0x3c42a9b5	0.011881282
28	0x3e3ae20d	0.18250294
29	0xbd997479	-0.074929185
30	0xbe394906	-0.18094262
31	0x3e833eda	0.2563389
32	0x3e5177e3	0.2045589
33	0xbe192ea6	-0.14959201
34	0x3d56ca18	0.052438825
35	0x3c21e1a9	0.009880462
36	0xbe07d0d1	-0.13263251
37	0x3e14d3bc	0.14533895
38	0x3e35563c	0.17708677
39	0xbe1be37a	-0.15223494
40	0x3e571d78	0.21007335
41	0xbe35f3b8	-0.17768753
42	0xbd749f15	-0.059722025
43	0x3a94a52d	0.001134073
44	0xbe492cf8	-0.1964606
45	0xbdb818a0	-0.08989072
46	0x3d450ef7	0.048109975
47	0x3dfe04d1	0.124032624
48	0x3e94bf59	0.29052237
49	0x3ca6936d	0.02033397
50	0xbd096501	-0.03354359
51	0x3dac0410	0.08399212
52	0x3dbbd405	0.09171299
53	0x3d3df042	0.046371706
54	0xbc1c519c	-0.009540942
55	0x3dd1b70e	0.10239993
56	0xbc053af1	-0.0081317285
57	0x3dbe098e	0.09279166
58	0x3ddab020	0.106781244
59	0x3e4d03fe	0.20021054
60	0xbe4db4dd	-0.20088525
61	0x3d3e5a00	0.04647255
62	0x3dfd7fa6	0.12377863
63	0xbe158dea	-0.14604917
64	0x3de9e231	0.11420096
65	0xbb84a4c6	-0.004047963
66	0x3df9562f	0.12174641
67	0xbc3d3a61	-0.011549563
68	0xbe6e6c2c	-0.23283452
69	0xbded1775	-0.1157674
70	0xbdb6c7f9	-0.089248605
71	0xbe2b6f7c	-0.16741747
72	0x3e3b813d	0.18311019
73	0x3c5a22ed	0.013313991
74	0xbd195c60	-0.03744161
75	0x3e01459f	0.12624215
76	0x3d2b7663	0.04186095
77	0x3d667929	0.05626789
78	0xbba20440	-0.0049443543
79	0xbda7f0a2	-0.08200194
80	0xbd63e111	-0.055634562
81	0xbdae7013	-0.0851747
82	0xbca2cccc	-0.019873045
83	0x3d14c7b8	0.03632328
84	0xbe36a30d	-0.17835636
85	0x3ba11fe8	0.0049171336
86	0xbe1d4a58	-0.15360391
87	0xbc8737c3	-0.016506081
88	0xbe296251	-0.16541411
89	0xbddc2298	-0.10748786
90	0x3da020fb	0.078187905
91	0xbd4d5021	-0.050125245
92	0xbdc57910	-0.096422315
93	0xbca5cd43	-0.020239478
94	0xbc66deca	-0.014091203
95	0xbdee8896	-0.116471455
96	0x3bd0fc34	0.006377721
97	0xbd477fd9	-0.04870591
98	0xbe03c3db	-0.12867682
99	0x3e2a6c71	0.1664293
100	0x3d0e9079	0.03480575
101	0xbe0fec38	-0.14054954
102	0xbcb2e827	-0.021839214
103	0xbe86ce6b	-0.2632936
104	0xbc7aea73	-0.015314686
105	0xbdb2574c	-0.08708057
106	0x3ec3a196	0.38209218
107	0x3d97bb71	0.074087985
108	0xbdbdc47e	-0.092659935
109	0x3ea61d6b	0.3244432
110	0x3cfea739	0.031085597
111	0x3ca228fd	0.019794935
112	0x3be95036	0.0071201576
113	0x3d8753fe	0.06607817
114	0xbd963115	-0.073335804
115	0xbdbcefc8	-0.09225422
116	0xbe78e7e3	-0.24307208
117	0x3bb47a82	0.005507768
118	0x3e4dd85c	0.20102066
119	0xbdac3965	-0.08409385
120	0xbea2bd25	-0.3178493
121	0x3e2e0b27	0.16996442
122	0xbe449427	-0.1919714
123	0xbe058ee5	-0.13042791
124	0x3dbe39a7	0.0928834
125	0xbd7109a5	-0.05884709
126	0xbe9ed184	-0.31019223
127	0xbd689284	-0.056780353
128	0x3dc0a893	0.09407153
129	0x3e86dcc7	0.26340315
130	0xbd007537	-0.031361785
131	0xbd940b6b	-0.0722874
132	0xbd76c66e	-0.06024783
133	0x3d2b78d5	0.04186328
134	0x3deb5a60	0.11491847
135	0x3dfc6d69	0.12325556
136	0xbdd02be9	-0.10164625
137	0x3ec7ecee	0.3904795
138	0x3e78d4d3	0.24299936
139	0xbdc0e75a	-0.09419127
140	0xbca5bd3f	-0.020231841
141	0xbe1aea4f	-0.15128444
142	0x3e7e3bbb	0.24827473
143	0x3e46be94	0.19408637
144	0x3d607320	0.05479729
145	0x39255c3b	0.00015769985
146	0x3d823ba6	0.06359033
147	0x3d7f4e8d	0.06233077
148	0x3e97164a	0.29509193
149	0x3e12dde2	0.14342454
150	0x3dfb393b	0.12266775
151	0xbe7b7f3e	-0.24560258
152	0x3da7038a	0.08154972
153	0x3e4d43e5	0.20045431
154	0xbe1d5ae4	-0.15366703
155	0x3e96b7b0	0.29437017
156	0xbeed10e1	-0.4630194
157	0x3dbfc178	0.09363073
158	0xbebd2492	-0.36941963
159	0x3d7dd4b4	0.061970428
160	0x3e542e2f	0.20720743
161	0x3e73febf	0.23827647
162	0x3e68952d	0.22713156
163	0x3e630656	0.22170386
164	0x3e973351	0.2953134
165	0xbdfb5194	-0.12271419
166	0xbe7aaa46	-0.24479017
167	0xbe166770	-0.14687896
168	0x3e0d19cf	0.13779376
169	0xbcdc34c3	-0.026880627
170	0x3dff8b13	0.12477698
171	0xbe66b14c	-0.22528571
172	0xbdc95875	-0.09831325
173	0x3d21e4b4	0.03952475
174	0xbe8cac9c	-0.2747544
175	0xbe110d30	-0.14165187
176	0xbe07a3fe	-0.13246152
177	0xbe2c8665	-0.16848142
178	0xbeebe5a9	-0.46073654
179	0x3da96bf1	0.08272541
180	0x3d448fd3	0.047988724
181	0xbd306c3c	-0.04307197
182	0x3e0c5145	0.13702877
183	0x3e945bba	0.28976232
184	0xbdb6262e	-0.08894001
185	0xbe2928e1	-0.165195
186	0x3d13363d	0.035940398
187	0x3ac5681b	0.0015060933
188	0xbdb91ada	-0.09038325
189	0x3d9184f4	0.07105437
190	0xbe763aa6	-0.2404581
191	0xbd22f1be	-0.039781325
192	0xbd90b9d4	-0.07066694
193	0xbda107b2	-0.07862796
194	0x3e5f823a	0.21827021
195	0x3d36ae1a	0.04459963
196	0xbe017703	-0.12643056
197	0x3b5fe06b	0.0034160863
198	0xbbe1063a	-0.0068671973
199	0xbe19bc32	-0.15013197
200	0x3e702a7d	0.23453708
201	0xbd3d2982	-0.046182163
202	0x3cbc28c0	0.02296865
203	0xbddf4be3	-0.10903146
204	0x3c2c74bd	0.010525879
205	0x3d5d537c	0.054034695
206	0x3c448540	0.01199466
207	0xbd015e4f	-0.03158408
208	0x3cd19247	0.025582446
209	0x3d5852f8	0.0528135
210	0x3e02d6a6	0.12777194
211	0x3df3c5e6	0.119029805
212	0x3e934bb2	0.28768688
213	0x3e0edfe7	0.139526
214	0xbe4e3e1c	-0.2014088
215	0x3eb3a57e	0.35087198
216	0x3dd9aaeb	0.10628303
217	0x3c86e3b1	0.016465994
218	0x3e09bc84	0.13450819
219	0x3e4119ab	0.18857448
220	0x3df91494	0.12162128
221	0xbe72a66a	-0.23696294
222	0x3d014654	0.03156121
223	0xbe65562a	-0.2239615
224	0xbd5cab59	-0.053874347
225	0xbcea9ec0	-0.028640151
226	0x3e026353	0.12733202
227	0x3e09aee4	0.13445622
228	0xbd074929	-0.033028755
229	0x3db71c91	0.089409955
230	0x3e18e13a	0.14929667
231	0x3e408464	0.18800503
232	0xbde29784	-0.110640556
233	0x3e4fe041	0.2030039
234	0x3e0b5ac4	0.13608843
235	0x3e8d2ad7	0.27571747
236	0xbdfe20e8	-0.1240862
237	0x3cab8b8e	0.020940568
238	0xbe712144	-0.23547846
239	0x3df611f3	0.12015142
240	0xbd216562	-0.039403327
241	0x3d9164a4	0.07099274
242	0x3dff4202	0.12463762
243	0xbe000e1e	-0.12505385
244	0x3e41ec60	0.18937826
245	0x3deb1c5f	0.11480021
246	0xbeae3761	-0.34026626
247	0xbdd16fc9	-0.102263995
248	0xbc48b4ab	-0.012250106
249	0x3d0403ad	0.032230068
250	0x3d8388cf	0.064225785
251	0x3d882982	0.06648542
252	0xbe0acc03	-0.13554387
253	0xbd786d60	-0.060651183
254	0x3e1faea8	0.1559397
255	0x3d85e710	0.06538212

fc3.bias f4 [2]
0	0xbc8141d6	-0.015778463
1	0x3d91d2b7	0.07120269
