collaboration_and_competition/agent1_checkpoint_critic.pth (torch_old, 164679 bytes, 5 tensors)

fcs1.weight f4 [200, 52]
0.38889012 0.1755217 -0.11788644 0.32932603 -0.15223509 -0.27844724 -0.22502707 0.32873046
0.4966472 0.20825762 0.19191577 -0.0031972504 -0.22600691 -0.43486786 0.19345464 0.0025850483
0.36072028 0.1838094 -0.16233684 -0.25030363 -0.08796621 -0.38300017 -0.17341326 -0.29850385
0.15606043 -0.05225113 -0.12755154 -0.27397585 0.22919276 -0.377276 -0.12990348 -0.31881905
0.22373988 -0.039308265 -0.15804954 -0.025937198 0.14496757 -0.35725188 -0.16922404 -0.06726696
0.2167831 -0.07589118 0.015889766 -0.054706138 0.13883628 -0.34921747 0.06171399 -0.046324
0.5048667 -0.47057426 -0.1680149 -2.1926522 0.117596366 -0.4835027 -0.06054322 -0.12902799
-0.07529799 -0.82986426 0.009375632 -0.17358238 0.15439458 -0.44276452 -0.050376415 -0.025149293
-0.18197116 -0.8751951 0.054214492 -0.00028172028 0.32799187 -0.49953157 0.049574804 0.25954297
-0.1958895 -0.5602501 0.06989129 0.2635885 -0.1439695 0.84845114 -0.0064432365 0.28243402
0.090646535 -0.72481585 -0.018051753 0.2920496 -0.1916748 0.8117983 0.0056990683 0.26090074
0.2500505 -0.8539813 -0.017417667 0.27589908 -0.063931696 1.0062392 -0.14267384 0.3383925
0.102982014 -0.50396466 -0.07411334 0.32855368 -1.2476333 0.33648413 -0.77810156 0.28892758
0.044055566 -0.17271812 0.026720537 0.024450175 -0.7110663 -0.20340084 -0.051287517 -0.027467713
0.106048785 -0.06108298 -0.06022556 0.057827342 0.030467527 0.09585168 0.046732213 -0.03716004
0.14652966 0.06643801 -0.0011899958 0.139949 0.9535884 0.5119173 -0.009740762 0.20951805
-0.07049947 0.06716891 0.010179814 0.014383136 0.781611 -0.1776288 -0.009647928 -0.029599475
0.060845606 0.11221333 -0.01791086 0.036436617 -0.058381464 0.136971 0.0054524303 -0.03544968
0.094378024 0.016294751 -0.012073649 -0.081485584 -1.0020195 0.44191417 -0.0004584618 -0.14543758
-0.12809062 -0.010344153 -0.1112877 -0.054555494 0.09175748 0.96807635 -0.041123986 0.012530569
-0.29243988 0.22989962 0.05509357 -0.0041327705 0.025893733 1.1471043 0.006647651 0.14121866
-0.052417204 -0.023772242 -0.0076977457 0.15340127 0.005609959 1.234531 -0.04772534 0.58453375
0.37596118 -0.46971172 -0.029605206 0.55519325 0.066379346 -0.07631907 0.0034237702 -0.0049939775
0.2842736 0.31567162 -0.011421842 0.0024928255 0.07610423 -0.3703006 0.002503732 -0.31235796
-0.06049446 -0.05453004 -0.017738314 -0.26820454 0.10136639 -0.37261942 -0.06815197 -0.49692637
-0.3080439 -0.39893448 0.017484456 -0.46558434 -1.0387814 -0.004804517 -0.66534513 -0.05677516
-0.08784866 -0.20616268 -0.08954882 -0.21463202 0.077720284 -0.27946195 -0.11883807 -0.15043867
0.075931884 0.069164336 0.076426186 0.19903025 0.32233286 -0.6296243 0.12350294 0.21618238
0.071365654 0.2032378 0.009159805 -0.14215757 0.3208779 -1.1886126 -0.07635747 -0.18529381
0.38536572 1.1506349 0.05991393 0.2651593 -0.15484531 -0.25358957 0.08664744 0.23484272
0.45205593 0.9653433 -0.07775296 -0.05611855 -0.26105714 -0.57721627 -0.04584307 -0.10158677
0.6089052 0.76226753 0.087914 0.022295432 -0.30750892 -1.2094779 0.12623449 -0.0017260719
00000000: 9b1c c73e f6bb 333e 726e f1bd 6c9d a83e
00000010: 84e3 1bbe a390 8ebe 7f6d 66be 5c4f a83e
00000020: 8b48 fe3e 7c41 553e 9185 443e f688 51bb
00000030: 5b6e 67be 00a7 debe f918 463e ea69 293b
00000040: 54b0 b83e 8838 3c3e a13b 26be cc27 80be
00000050: a127 b4bd 9918 c4be 3f93 31be 7fd5 98be
00000060: 4ece 1f3e 4805 56bd df9c 02be 9046 8cbe
00000070: 82b1 6a3e 522a c1be 6b05 05be 403c a3be
00000080: 111c 653e b401 21bd bdd7 21be 3f7a d4bc
00000090: 6172 143e b8e9 b6be 1149 2dbe 43c3 89bd
000000a0: 64fc 5d3e d66c 9bbd 412b 823c 8b13 60bd
000000b0: 192b 0e3e a2cc b2be cfc7 7c3d 3cbe 3dbd
000000c0: f23e 013f 1cef f0be 190c 2cbe 6a54 0cc0
000000d0: 5dd6 f03d aa8d f7be 2bfc 77bd ea1f 04be
000000e0: d535 9abd fc71 54bf 409c 193c 94bf 31be
000000f0: 9d19 1e3e 08b2 e2be 8057 4ebd e405 cebc
00000100: a656 3abe c90c 60bf 0410 5e3d dbb3 93b9
00000110: 8dee a73e 9ac2 ffbe f30e 4b3d d1e2 843e
00000120: 4297 48be 8d6c 0fbf 2a23 8f3d 12f5 863e
00000130: be6c 13be 1834 593f c921 d3bb 319b 903e
00000140: e4a4 b93d 888d 39bf 45e1 93bc 8687 953e
00000150: 6646 44be 03d2 4f3f 40bf ba3b c894 853e
00000160: 9e06 803e 859e 5abf 7faf 8ebc a542 8d3e
00000170: 9fee 82bd 72cc 803f 1719 12be c841 ad3e
00000180: 3ce8 d23d d403 01bf bcc8 97bd 3038 a83e
00000190: 73b2 9fbf a647 ac3e aa31 47bf 51ee 933e
000001a0: 9c73 343d 05dd 30be 07e5 da3c bc4b c83c
000001b0: 7108 36bf 4f48 50be dc12 52bd f803 e1bc
000001c0: 1b30 d93d 2632 7abd 14af 76bd 5ddc 6c3d
000001d0: 0997 f93c e34d c43d 476a 3f3d 2035 18bd
000001e0: df0b 163e a710 883d a2f9 9bba ca4e 0f3e
000001f0: 5f1e 743f 030d 033f b897 1fbc e68b 563e
00000200: 0762 90bd da8f 893d 3cc9 263c 3fa7 6b3c
00000210: a917 483f 53e4 35be 5812 1ebc 997a f2bc
00000220: 3e39 793d 1ad0 e53d ccb9 92bc 903e 153d
00000230: 6721 6fbd 2042 0c3e 4daa b23b af33 11bd
00000240: 4449 c13d 927c 853c 8ed0 45bc eae1 a6bd
00000250: 2d42 80bf 9342 e23e b35d f0b9 97ed 14be
00000260: 302a 03be 867a 29bc ceea e3bd 9575 5fbd
00000270: 58eb bb3d dad3 773f a071 28bd 044d 4d3c
00000280: aeba 95be ce6a 6b3e cca9 613d 316c 87bb
00000290: 181f d43c 50d4 923f 8ad4 d93b a09b 103e
000002a0: 6cb3 56bd 01be c2bc 5f3d fcbb 3915 1d3e
000002b0: bfd3 b73b 1d05 9e3f a57b 43bd 01a4 153f
000002c0: fc7d c03e 0e7e f0be 9e86 f2bc 2521 0e3f
000002d0: e5f1 873d 2c4d 9cbd 5561 603b 85a4 a3bb
000002e0: 4f8c 913e b69f a13e ad22 3bbc ac5e 233b
000002f0: 89dc 9b3d 0a98 bdbe a715 243b 62ed 9fbe
00000300: 0ac9 77bd e45a 5fbd f14f 91bc 1b52 89be
00000310: 2f99 cf3d f9c7 bebe 4393 8bbd 226d febe
00000320: eeb7 9dbe 2441 ccbe 903b 8f3c 1261 eebe
00000330: caf6 84bf 366f 9dbb 0f54 2abf 128d 68bd
00000340: 00ea b3bd 4f1c 53be 5f65 b7bd 7fc8 5bbe
00000350: d02b 9f3d a315 8fbe 6061 f3bd 980c 1abe
00000360: 2d82 9b3d 08a6 8d3d 5585 9c3d 96ce 4b3e
00000370: d008 a53e 0f2f 21bf 1cef fc3d ea5e 5d3e
00000380: 2828 923d 921d 503e 0213 163c c191 11be
00000390: 1c4a a43e 7524 98bf 4e61 9cbd a9bd 3dbe
000003a0: a84e c53e 0148 933f 4f68 753d f6c2 873e
000003b0: c58f 1ebe 7ed6 81be 3774 b13d 9c7a 703e
000003c0: e073 e73e bd20 773f f23c 9fbd 91dc 65bd
000003d0: 48a9 85be 72c4 13bf f1c5 3bbd b90c d0bd
000003e0: 36e1 1b3f f723 433f 410c b43d e9a4 b63c
000003f0: cf71 9dbe 2cd0 9abf 9d43 013e 5d3d e2ba

fcs1.bias f4 [200]
-0.7839499 -0.7699181 -0.72479165 -0.18720284 -0.29956025 0.15471624 -0.5509617 0.4783897
-0.40264925 -0.44421163 -0.46255153 -0.118118696 -0.58427817 -0.442839 -0.5037418 -0.22358373
-0.22705902 0.018149942 -0.51511663 -0.485784 0.02946729 -0.104646236 -0.6929437 -0.81543314
-0.21423115 -0.5080189 -0.32325178 -0.6474802 -1.0476165 -0.21591923 0.7484455 -0.3506042
-0.39030147 -0.47325498 -0.78251153 -0.7171264 -0.16067046 -0.8169599 -0.33645734 -0.5499258
-0.29868373 -0.095567726 -0.1707857 -0.709666 -0.4566723 -0.6811315 -0.27537024 -0.78185457
-0.26409438 -0.19852656 -0.680893 -0.6524891 -0.29891735 0.9276057 -0.6324052 -0.69823444
-0.046057608 -0.057082675 -0.21738727 -0.2793619 -0.3938616 -0.2807106 -0.43823025 -0.8466536
-0.29101843 0.07023973 -0.6630969 -0.082857 0.03785153 0.09372908 0.038505394 0.40946075
-0.4395152 -0.17993012 -0.1647914 -0.34774363 -0.40595073 -0.018296538 -0.112366125 0.09438233
-0.57768214 -0.4087477 -0.6159672 -0.42500117 -0.2652664 -0.10034949 -0.020933725 0.29099748
-0.15415388 -0.36248034 -0.39624083 -1.282585 -0.0011446215 -0.3137071 0.23470333 -0.2784674
-0.35411733 0.0004773244 0.013766987 -0.5390313 -0.28770798 -0.266663 -0.058388855 0.009313287
-0.38073152 0.1365302 -0.14182076 -0.34765744 -0.39339724 -0.47267497 -0.31107926 -0.25332117
-0.18817082 -0.15786102 0.22461098 -0.08040181 -0.6378912 -0.22064263 -0.26715913 -0.5356226
-0.2698142 -0.72021216 -0.2180792 -0.1335753 -0.45329684 -0.52850646 -0.45051542 -0.80615276
-0.2678901 0.25424573 0.25316456 -0.062169757 -0.12606174 -0.3081533 -0.44889903 0.44092742
-0.98888427 0.5999499 -0.48591432 -0.5277434 -0.4095315 -0.30815652 -0.17605825 -0.27690563
-0.47578838 -0.09791874 -0.25860804 -0.52083695 -0.33492464 0.13321826 -0.42573443 -0.24241953
-0.54315394 0.017389204 -0.20263308 -0.8511468 -0.45314422 -0.27020523 -0.40809134 -0.31552073
0.4541878 -0.66821295 -0.7994198 0.59789485 -0.63398015 -0.30814874 -0.33333033 -0.21505196
-0.2244843 0.09097899 -0.53571224 -0.49828598 0.26894677 -0.3250832 0.17226675 0.1167577
-0.49587592 -0.15588923 -1.114394 -0.6540273 -0.16694708 -0.48961708 -0.20845304 -0.63445926
-0.15494734 0.009484771 -0.36594036 0.21590516 -0.4135821 0.22425142 -0.6856772 -0.77839035
-1.4118953 -0.74173033 -0.5441341 0.175957 -0.69356996 -0.32551512 0.23779866 0.089811884
00000000: f1b0 48bf 5a19 45bf f28b 39bf 1ab2 3fbe
00000010: f65f 99be ef6d 1e3e d30b 0dbf 7fef f43e
00000020: 0b28 cebe b56f e3be 8ed3 ecbe 37e8 f1bd
00000030: 4193 15bf cbbb e2be 39f5 00bf 22f3 64be
00000040: 2982 68be 30af 943c afde 03bf aeb8 f8be
00000050: 6365 f13c c450 d6bd c264 31bf 3ac0 50bf
00000060: 695f 5bbe 870d 02bf 4281 a5be 43c1 25bf
00000070: 4c18 86bf ee19 5dbe 209a 3f3f 6582 b3be
00000080: 98d5 c7be 7a4e f2be ad52 48bf 9995 37bf
00000090: cc86 24be 4924 51bf 2344 acbe f0c7 0cbf
000000a0: 13ed 98be 03b9 c3bd 72e2 2ebe acac 35bf
000000b0: f4d0 e9be a25e 2ebf 54fd 8cbe 9f27 48bf
000000c0: 6137 87be 8c4a 4bbe 014f 2ebf 8709 27bf
000000d0: b20b 99be 9177 6d3f 4fe5 21bf 7ebf 32bf
000000e0: e7a6 3cbd 86cf 69bd c59a 5ebe 8608 8fbe
000000f0: 3aa8 c9be 4db9 8fbe b75f e0be 4abe 58bf
00000100: 5e00 95be d9d9 8f3d b8c0 29bf eeb0 a9bd
00000110: 350a 1b3d 08f5 bf3d d5b7 1d3d d7a4 d13e
00000120: 2308 e1be 9a3f 38be 14bf 28be 740b b2be
00000130: c6d8 cfbe 9fe2 95bc 3620 e6bd 864b c13d
00000140: fae2 13bf 6147 d1be 07b0 1dbf c199 d9be
00000150: ffd0 87be 0984 cdbd 347d abbc 9ffd 943e
00000160: 84da 1dbe 0697 b9be 14e0 cabe bf2b a4bf
00000170: 2007 96ba 389e a0be 1256 703e 4793 8ebe
00000180: de4e b5be 6641 fa39 ee8e 613c f5fd 09bf
00000190: 764e 93be 0e88 88be 2729 6fbd c296 183c
000001a0: 3eef c2be 93ce 0b3e 7639 11be 2800 b2be
000001b0: 5d6b c9be 7402 f2be c845 9fbe 50b3 81be
000001c0: daaf 40be 52a6 21be 6c00 663e b4a9 a4bd
000001d0: d64c 23bf 24f0 61be 15c9 88be 901e 09bf
000001e0: 1625 8abe d35f 38bf 2750 5fbe f7c7 08be
000001f0: 8616 e8be 334c 07bf f5a9 e6be 0760 4ebf
00000200: e428 89be 7f2c 823e c99e 813e b7a5 7ebd
00000210: 5416 01be 45c6 9dbe 18d6 e5be 3dc1 e13e
00000220: 8527 7dbf 5196 193f c3c9 f8be 311a 07bf
00000230: 1dae d1be b1c6 9dbe 9d48 34be 93c6 8dbe
00000240: 899a f3be 9f89 c8bd 4668 84be 9255 05bf
00000250: 3e7b abbe 5e6a 083e ddf9 d9be d33c 78be
00000260: 230c 0bbf ce73 8e3c 0c7f 4fbe c2e4 59bf
00000270: 8502 e8be 5758 8abe 59f1 d0be ef8b a1be
00000280: 4e8b e83e 0110 2bbf c7a6 4cbf a30f 193f
00000290: 864c 22bf acc5 9dbe 46aa aabe 9536 5cbe
000002a0: 36df 65be 3153 ba3d 7024 09bf 571f ffbe
000002b0: 64b3 893e 4e71 a6be b266 303e a91e ef3d
000002c0: 73e3 fdbe 6da1 1fbe 76a4 8ebf 556e 27bf
000002d0: 2df4 2abe 17af fabe b774 55be ec6b 22bf
000002e0: 84aa 1ebe 0366 1b3c 895c bbbe 3e16 5d3e
000002f0: 08c1 d3be 2aa2 653e 8a88 2fbf 9744 47bf
00000300: fcb8 b4bf 0ae2 3dbf 5f4c 0bbf 122e 343e
00000310: cd8d 31bf eba9 a6be 7e81 733e 4bef b73d

fc2.weight f4 [150, 200]
0.027835064 -0.2420099 -0.24138157 -0.08550847 0.08841038 -0.0067566563 -0.10645877 -0.01258602
-0.10706101 -0.13179429 0.0028043145 0.018348945 -0.082068905 0.02648828 -0.09620558 -0.10091048
-0.28252864 0.01579784 -0.153068 0.014832954 0.05511797 -0.16088697 -0.12482275 -0.1083195
-0.11218639 0.22986805 -0.1425393 -0.032826304 -0.27522343 -0.09253968 0.115674004 -0.42807403
-0.09811727 -0.022035226 0.0006340002 -0.18573998 0.063789055 -0.1708599 0.013744017 -0.17574279
-0.069068156 -0.16182122 -0.2827998 -0.20002423 -0.028946815 -0.059386287 -0.0009134324 -0.08783021
-0.13531408 -0.2693306 -0.1655767 -0.2718623 -0.16381285 -0.4490934 -0.15353344 -0.0045570373
-0.19652411 -0.16068746 0.038377326 -0.12699859 -0.10425079 0.15650128 -0.17870285 -0.0812817
0.067497745 -0.06536319 -0.2239024 -0.11388587 0.027416835 -0.08752183 -0.1392427 -0.09650048
-0.028272387 -0.008157396 -0.033508793 -0.02095099 -0.010960215 -0.1703041 -0.39867967 -0.054875266
-0.009777663 -0.010276174 -0.10588551 -0.13408585 -0.048444577 -0.119190015 -0.34899873 -0.0700645
-0.10530063 -0.026414359 0.04780524 -0.17197423 0.0063747726 0.053239077 -0.05547221 -0.07337092
0.14400528 0.119586445 0.00619292 -0.1618501 -0.1668125 -0.03526657 -0.279873 -0.09453952
-0.04988866 -0.21109138 0.14526865 -0.14012976 -0.03221982 0.030479113 -0.16652718 -0.1885549
0.09805513 -0.15958177 0.060650676 -0.06480669 0.12429383 0.094800934 -0.3985656 -0.15106672
-0.032091312 -0.14811662 -0.05160018 -0.15975818 -0.18325238 -0.23733252 -0.110533506 -0.13881001
-0.18435657 0.012686458 -0.10094284 -0.09206505 -0.0074398816 0.014176007 -0.05827245 -0.30199775
-0.08243772 0.15222733 -0.08879686 -0.10840575 0.08859646 -0.07591497 -0.12228212 -0.26593846
-0.49835274 -0.18130547 -0.2823582 0.026427237 -0.0536656 -0.00697564 0.12561338 -0.052986085
0.18103774 -0.037086576 0.04843278 -0.31067088 -0.18408874 0.09447406 0.030179815 -0.22561826
-0.1565309 -0.13499938 0.06262118 0.0026474132 0.10205664 -0.102632105 0.046621 0.06837581
-0.09976801 -0.1682211 0.18691841 -0.18555908 0.1043108 0.031601757 -0.24643475 -0.19581853
-0.2441205 -0.057498023 -0.08583484 -0.116118714 -0.15439099 0.024913244 0.0336846 -0.06251367
-0.04896301 -0.3356877 -0.1971826 0.037082516 0.026083589 -0.16339849 0.0012207956 -0.18007942
0.054600094 -0.15419821 0.070666626 -0.0742271 -0.024012405 -0.0056331293 0.020534324 -0.1770098
-0.9464224 0.02405395 0.031128759 0.0076280627 -0.027103307 0.10257874 -0.2960414 0.004188508
-0.3692843 -0.41635555 0.10527846 -0.29977095 -0.059280306 -0.0706996 -0.2924969 0.15613055
0.012128243 -0.29724482 -0.20447297 0.3051866 -0.03739006 -0.06927014 -0.061373748 -0.04007231
0.008522605 -0.121158 0.1950975 -0.111091524 -0.20539065 -0.08760843 0.07404217 -0.11542668
0.43030754 -0.055198226 0.04924631 0.029324584 0.007838556 0.023973783 0.21516255 -0.05955271
-0.13054505 -0.05790279 -0.03951763 -0.013252288 -0.15910484 -0.07975601 -0.33288446 -0.29884318
-0.21889298 0.063346714 0.21786064 -0.13974446 -0.7041421 0.015739003 -0.03327307 0.37172297
00000000: 5c06 e43c 71d1 77be bb2c 77be 111f afbd
00000010: 8010 b53d f166 ddbb 0e07 dabd 9835 4ebc
00000020: ce42 dbbd 15f5 06be 97c8 373b 8750 963c
00000030: be13 a8bd f3fd d83c 6e07 c5bd 27aa cebd
00000040: 98a7 90be 796a 813c dcbd 1cbe eb05 733c
00000050: 61c3 613d 8ebf 24be 12a3 ffbd 9dd6 ddbd
00000060: fac1 e5bd 8862 6b3e d2f5 11be e074 06bd
00000070: 16ea 8cbe 7285 bdbd 7ee6 ec3d 852c dbbe
00000080: b5f1 c8bd 3883 b4bc 0833 263a 9f32 3ebe
00000090: d6a3 823d e6f5 2ebe 962e 613c ebf5 33be
000000a0: 9b73 8dbd 76b4 25be 23cb 90be 27d3 4cbe
000000b0: df21 edbc 093f 73bd 6973 6fba 53e0 b3bd
000000c0: c68f 0abe b3e5 89be f08c 29be 8931 8bbe
000000d0: 8ebe 27be 92ef e5be df37 1dbe 3353 95bb
000000e0: 9e3d 49be 418b 24be 8b31 1d3d eb0b 02be
000000f0: 7081 d5bd df41 203e e1fd 36be 0577 a6bd
00000100: 423c 8a3d 23dd 85bd ac46 65be ff3c e9bd
00000110: 4599 e03c a53e b3bd a395 0ebe 0ba2 c5bd
00000120: 7e9b e7bc 99a6 05bc 8440 09bd 69a1 abbc
00000130: 7992 33bc 3364 2ebe be1f ccbe e3c4 60bd
00000140: 7e32 20bc 665d 28bc 81da d8bd cd4d 09be
00000150: d26d 46bd e519 f4bd f6af b2be fa7d 8fbd
00000160: dba7 d7bd ed62 d8bc 6dcf 433d 031a 30be
00000170: 78e3 d03b 3811 5a3d d436 63bd 7e43 96bd
00000180: 1f76 133e bde9 f43d faed ca3b 08bc 25be
00000190: e5d0 2abe ae73 10bd 844b 8fbe f09d c1bd
000001a0: 0d58 4cbd 5728 58be 4ec1 143e 2d7e 0fbe
000001b0: eef8 03bd 55af f93c 1a86 2abe 8914 41be
000001c0: 21d1 c83d 6769 23be d86c 783d 5fb9 84bd
000001d0: c38d fe3d fe26 c23d ca10 ccbe 3cb1 1abe
000001e0: 2e72 03bd e2ab 17be b65a 53bd a697 23be
000001f0: 83a6 3bbe 4c07 73be 645f e2bd 3624 0ebe
00000200: f8c7 3cbe ddda 4f3c 1fbb cebd 9a8c bcbd
00000210: 40ca f3bb 7c42 683c 18af 6ebd 739f 9abe
00000220: 1bd5 a8bd 7be1 1b3e 21db b5bd d503 debd
00000230: 1072 b53d 4f79 9bbd 0c6f fabd 1629 88be
00000240: 1728 ffbe 24a8 39be 4191 90be ef7d d83c
00000250: 76d0 5bbd e993 e4bb cba0 003e f007 59bd
00000260: f561 393e 18e8 17bd 7361 463d 4110 9fbe
00000270: c281 3cbe 9e7b c13d a93b f73c 7908 67be
00000280: a349 20be 473d 0abe 893f 803d 3980 2d3b
00000290: 1203 d13d c830 d2bd a9f5 3e3d 9e08 8c3d
000002a0: 2c53 ccbd 2742 2cbe 8a67 3f3e 3303 3ebe
000002b0: e7a0 d53d d870 013d 6459 7cbe a784 48be
000002c0: b9fa 79be 0c83 6bbd 2dca afbd a6cf edbd
000002d0: ac18 1ebe dc16 cc3c ddf8 093d 2b07 80bd
000002e0: 708d 48bd 42df abbe 3cea 49be d6e3 173d
000002f0: 40ad d53c ef51 27be 1a03 a03a bd66 38be
00000300: 59a4 5f3d 23e6 1dbe aab9 903d 6104 98bd
00000310: aab5 c4bc 1d96 b8bb 9937 a83c 0f42 35be
00000320: bd48 72bf ca0c c53c bd01 ff3c d4f4 f93b
00000330: c107 debc cd14 d23d bd92 97be c03f 893b
00000340: d512 bdbe 8e2c d5be 3c9c d73d 947b 99be
00000350: e8cf 72bd f4ca 90bd 27c2 95be b0e0 1f3e
00000360: 8ab5 463c 7930 98be 5d61 51be 6b41 9c3e
00000370: 5226 19bd 81dd 8dbd 0a63 7bbd dd22 24bd
00000380: 65a2 0b3c af21 f8bd a4c7 473e f483 e3bd
00000390: ed51 52be 0c6c b3bd 6ca3 973d d364 ecbd
000003a0: 4551 dc3e 8917 62bd 80b6 493d 1c3a f03c
000003b0: 496d 003c ab64 c43c 9253 5c3e 8bed 73bd
000003c0: 9aad 05be 7a2b 6dbd 3ddd 21bd 2020 59bc
000003d0: 61ec 22be 1e57 a3bd d56f aabe f901 99be
000003e0: 7b25 60be ecbb 813d dc16 5f3e 2c19 0fbe
000003f0: a842 34bf 15ef 803c 5849 08bd 7952 be3e

fc2.bias f4 [150]
-0.17064112 0.1357231 -0.12367403 -0.1096364 0.11242895 0.19767623 -0.040658385 0.2017058
-0.53448546 -0.17885396 0.036766995 -0.0660556 -0.1837001 -0.102692455 -0.394933 0.41345948
-0.12956896 -0.08139359 -0.052302554 -0.23206133 -0.17680368 -0.12856156 0.28421292 -0.105526336
-0.10384302 -0.16434914 -0.15738226 -0.16133906 -0.18176472 -0.065807655 -0.45414406 0.118413545
-0.10814111 0.18374152 0.7152898 0.30772474 -0.18073066 0.05988713 -0.106545344 -0.19783947
-0.8986314 -0.23826702 -0.31558663 -0.47305366 -0.06838201 0.53467965 -0.13711423 -0.13838866
-0.06526243 -0.024542484 -0.2775282 -0.10360501 0.29339036 0.5355325 -0.39053485 -0.043604773
0.09416318 -0.021265429 -0.0036654333 -0.13101903 -0.16140658 -0.13063909 -0.09554871 -0.048745085
-0.12264226 -0.13031782 -0.248416 -0.15004489 0.109611936 -0.041946936 -0.048908807 -0.106351614
-0.036335643 -0.021696419 0.30486038 -0.40409452 -0.11328262 -0.17538393 -0.11945083 -0.28437322
-0.37916988 -0.30057445 -0.6839095 -0.03617822 -0.14452977 0.28633496 -0.15530707 -0.1708768
-0.22851792 -0.08221782 -0.07893286 -0.07446957 -0.06075727 -0.5060918 -0.17898016 -0.18783657
0.19782127 -0.13819054 -0.20239724 0.062484637 -0.1565043 0.28462732 0.66494644 -0.09339761
0.20995538 -0.07252033 -0.03542283 0.13645639 -0.5952061 -0.071620196 -0.1539164 0.73925877
-0.12627283 0.2973561 -0.17208649 -0.18469909 -0.15349679 -0.053235617 -0.17340924 -0.1510333
-0.13003318 0.9535076 -0.0019073434 0.33734417 -0.34351176 0.0836374 -0.0033120706 -0.13106962
-0.13871418 -0.16434355 0.30330142 0.13402909 -0.053128783 -0.051102962 -0.09407387 -0.20568153
-0.18717176 -0.08835235 -0.5042115 0.2241638 -1.2967932 -0.05472993 -0.059539456 -0.116431
-0.85497385 -0.48750186 -0.34935892 -0.0706837 0.27364126 -0.26062897
00000000: 8cbc 2ebe fffa 0a3e cf48 fdbd 0d89 e0bd
00000010: 2641 e63d a36b 4a3e 6889 26bd f78b 4e3e
00000020: 0ad4 08bf 7e25 37be fd98 163d 2948 87bd
00000030: e11b 3cbe 6c50 d2bd a834 cabe f6b0 d33e
00000040: baad 04be afb1 a6bd 343b 56bd 7ca1 6dbe
00000050: 060c 35be a4a5 03be 5b84 913e 311e d8bd
00000060: a6ab d4bd 244b 28be d128 21be 1136 25be
00000070: 8820 3abe 2ac6 86bd 9285 e8be cd82 f23d
00000080: 1679 ddbd bd26 3c3e 3b1d 373f 198e 9d3e
00000090: 7511 39be 354c 753d 7234 dabd 6e96 4abe
000000a0: b50c 66bf 45fc 73be 9294 a1be 1734 f2be
000000b0: de0b 8cbd c4e0 083f ac67 0cbe c2b5 0dbe
000000c0: 4fa8 85bd 520d c9bc 2d18 8ebe dd2e d4bd
000000d0: 4337 963e a818 093f 2ff4 c7be eb9a 32bd
000000e0: a0d8 c03d d634 aebc c437 70bb da29 06be
000000f0: c447 25be 41c6 05be 0baf c3bd eda8 47bd
00000100: dd2b fbbd 0972 05be c460 7ebe 5ea5 19be
00000110: 397c e03d 8dd0 2bbd 9a54 48bd e0ce d9bd
00000120: afd4 14bd b0bc b1bc a916 9c3e 7ae5 cebe
00000130: b800 e8bd d897 33be a3a2 f4bd 5e99 91be
00000140: 8e22 c2be e5e4 99be b114 2fbf 9d2f 14bd
00000150: 9dff 13be 7f9a 923e d108 1fbe 54fa 2ebe
00000160: 9a00 6abe d161 a8bd 8da7 a1bd 8083 98bd
00000170: 9ddc 78bd 3b8f 01bf 9346 37be 3b58 40be
00000180: a991 4a3e d281 0dbe 3941 4fbe e4ef 7f3d
00000190: aa42 20be acba 913e ee39 2a3f 3f47 bfbd
000001a0: 8bfe 563e 8a85 94bd 8817 11bd 39bb 0b3e
000001b0: 6d5f 18bf 9cad 92bd 439c 1dbe 1040 3d3f
000001c0: aa4d 01be 0f3f 983e 7137 30be c221 3dbe
000001d0: 432e 1dbe 970d 5abd 3192 31be 79a8 1abe
000001e0: 6b27 05be 1319 743f d3ff f9ba 60b8 ac3e
000001f0: c6e0 afbe 164a ab3d 530f 59bb 1d37 06be
00000200: 170b 0ebe ad49 28be 534a 9b3e ec3e 093e
00000210: 919d 59bd 5751 51bd cda9 c0bd 2e9e 52be
00000220: f4a9 3fbe 14f2 b4bd 0114 01bf 328b 653e
00000230: 52fd a5bf 7e2c 60bd a5df 73bd 6073 eebd
00000240: 91df 5abf d899 f9be 2cdf b2be 9ec2 90bd
00000250: b51a 8c3e 2971 85be

fc3.weight f4 [1, 150]
0.00034983142 -0.010956606 0.020760523 -0.022941858 -0.006095843 -0.009618993 -0.026984574 0.012096392
-0.018127037 0.023762215 0.007831105 -0.022436624 -0.017998708 0.003094046 -0.014485804 0.008220554
0.0042421655 0.009548284 0.04579697 -0.011852127 0.016972728 -0.02738061 0.014937178 -0.00021176592
0.014909686 -0.010768755 -0.014403213 0.0058461037 0.017515011 0.018804431 0.012981256 -0.012043867
0.0260448 -0.020246921 0.0055116643 -0.024347775 -0.011555639 -0.00814476 0.010708332 -0.016813232
-0.009606904 0.04876002 -0.01017005 -0.0013739673 -0.014202496 -0.019688498 0.004175447 0.026657475
0.0055159745 -0.009718761 0.0127393985 -0.012274528 0.0080246115 0.013416035 -0.025707906 -0.022238236
0.008640277 0.006414196 -0.009108547 0.0040000686 0.03000781 0.014915637 0.024502736 -0.01450629
0.007340511 -0.0018292586 -0.01711476 -0.008304022 -0.0127872545 0.012752906 -0.021995418 -0.015060482
-0.0059358454 -0.0029808704 0.012821868 -0.014307964 -0.020140335 0.003322448 -0.016330965 0.011012394
-0.016697831 -0.0015341027 -0.012353132 -0.013605095 0.03602067 0.007929122 0.004206847 0.000108024375
-0.016410396 0.005331435 0.030998293 0.010013566 0.015290934 -0.016138447 -0.021395216 -0.0007790943
-0.008469533 0.0010738833 -0.010528577 0.019471219 0.0151445065 -0.018098893 0.0057426137 0.012001892
-0.0057912883 0.016942257 0.044221018 0.011623092 -0.012727555 -0.0017232697 0.01634481 0.008681769
0.013255334 -0.0064418153 0.006536766 -0.009737036 0.011597429 0.022977304 0.021995677 0.007640586
0.008004545 0.008640395 0.012385378 0.0072447746 -0.02034768 -0.0054727304 -0.010015992 0.018723352
0.0142459795 0.0075027547 -0.021324825 0.012733519 0.016851835 -0.012194462 0.013200803 0.007249968
-0.0032772026 -0.0003188753 -0.019669216 -0.0060919006 -0.010462107 -0.0047798534 -0.008282505 0.004219174
-0.012555589 -0.011856907 0.029293863 0.04477032 0.005705418 -0.0073834285
00000000: 9469 b739 5683 33bc f911 aa3c 90f0 bbbc
00000010: a3bf c7bb fb98 1dbc c10e ddbc f22f 463c
00000020: 277f 94bc faa8 c23c 094e 003c 03cd b7bc
00000030: 0772 93bc 7ac5 4a3b de55 6dbc 81af 063c
00000040: dd01 8b3b 6870 1c3c 9b95 3b3d 6c2f 42bc
00000050: 640a 8b3c 4d4d e0bc 11bb 743c 7b0d 5eb9
00000060: c147 743c 6f6f 30bc 74fb 6bbc ac90 bf3b
00000070: a47b 8f3c c00b 9a3c 55af 543c a453 45bc
00000080: e85b d53c dfdc a5bc 319b b43b fc74 c7bc
00000090: dd53 3dbc 9971 05bc 0072 2f3c e7bb 89bc
000000a0: 4766 1dbc 96b8 473d 48a0 26bc b116 b4ba
000000b0: 96b1 68bc c649 a1bc 30d2 883b c760 da3c
000000c0: 59bf b43b 703b 1fbc e9b8 503c 1a1b 49bc
000000d0: a979 033c eece 5b3c 6399 d2bc f62c b6bc
000000e0: f38f 0d3c 2d2e d23b 043c 15bc 0213 833b
000000f0: f0d2 f53c b760 743c f6b9 c83c caab 6dbc
00000100: ab88 f03b bcc3 efba 4134 8cbc 980d 08bc
00000110: a281 51bc 91f1 503c bc2f b4bc 3dc0 76bc
00000120: 7b81 c2bb b55a 43bb d012 523c f36b 6abc
00000130: 58fd a4bc 6ebd 593b 84c8 85bc 546d 343c
00000140: e4c9 88bc f213 c9ba ca64 4abc e8e7 5ebc
00000150: 698a 133d 26e9 013c 97d9 893b 258b e238
00000160: 186f 86bc 51b3 ae3b 22f0 fd3c f10f 243c
00000170: d386 7a3c c734 84bc 0545 afbc 223c 4cba
00000180: ccc3 0abc 8bc1 8c3a 0d80 2cbc 1b82 9f3c
00000190: aa20 783c 2144 94bc 892c bc3b 95a3 443c
000001a0: d9c4 bdbb 7dca 8a3c 1921 353d c86e 3e3c
000001b0: 3c87 50bc 56df e1ba 8de5 853c fa3d 0e3c
000001c0: e72c 593c dd15 d3bb 5e32 d63b 1788 1fbc
000001d0: 2503 3e3c e63a bc3c 4730 b43c e15d fa3b
000001e0: 7f25 033c 7190 0d3c 0aec 4a3c 9365 ed3b
000001f0: 2eb0 a6bc 9754 b3bb 1e1a 24bc b761 993c
00000200: f867 693c abd9 f53b 66b1 aebc 40a0 503c
00000210: dc0c 8a3c 48cb 47bc 2e48 583c 2491 ed3b
00000220: 56c6 56bb b82e a7b9 5621 a1bc 919e c7bb
00000230: 4269 2bbc 51a0 9cbb 58b3 07bc ff40 8a3b
00000240: f5b5 4dbc 7943 42bc aff9 ef3c 1561 373d
00000250: 84f4 ba3b b0f0 f1bb
