collaboration_and_competition/agent2_checkpoint_critic.pth (torch_old, 164679 bytes, 5 tensors)

fcs1.weight f4 [200, 52]
0.40352967 1.0209157 -0.009161694 -0.21011576 0.15033472 0.033148974 -0.11630268 -0.21071108
0.46122926 0.739639 -0.057801593 -0.47685325 -0.009221074 -0.2134241 -0.056262333 -0.47107115
0.35278127 0.68359107 -0.005836432 -0.051764823 0.06322929 -0.29473686 -0.01691262 -0.09996306
-0.10718876 -0.21526179 0.05537194 -0.41531533 -0.07337804 -0.06568028 0.053020064 -0.46015707
0.044399995 -0.047133986 -0.016452296 0.050415054 -0.07181792 -0.13580598 -0.02762649 0.009085048
0.079578504 -0.16007838 0.07554092 -0.1462033 -0.012358846 -0.2609491 0.12136553 -0.13782133
-0.31944206 -1.0554881 1.6263344 -0.45327368 0.025721425 0.025650835 -0.066969365 -0.041908573
0.037453763 0.002193854 0.002949675 -0.086463824 -0.08121018 0.031904362 -0.058834743 -0.071289584
0.06847702 -0.18167004 0.04575512 -0.046421394 -0.1615779 -0.016225072 -0.02783862 0.39372382
-0.0345562 -0.68233365 -0.00752296 0.39776853 0.095134296 0.7382748 0.00707035 0.035644308
-0.022104904 0.107246935 -0.0045381235 0.045260083 0.11191493 0.6129236 -0.051749755 -0.21388048
-0.0003955833 -0.16045612 -0.07486718 -0.19888295 0.15038009 0.4849199 -0.13351816 0.031699587
-0.05835128 -0.6260483 -0.06495773 0.021861283 0.5297746 0.5750212 4.2157564 -0.22231746
0.15811126 0.1798449 0.026622513 0.020404205 -0.06563625 -0.28354165 -0.051385384 -0.031513803
0.23120242 0.3835859 -0.087864764 0.09155802 0.10842203 -0.19019164 0.01909173 -0.003428995
0.13985954 0.36686414 -0.02419514 -0.112168476 0.536916 0.032546394 -0.03274537 -0.04260016
-0.17387487 -0.2066342 -0.014074025 -0.08425856 0.13618019 -0.25776878 -0.033901554 -0.1282403
0.049682498 0.115638085 -0.03807878 -0.02621734 -0.13633704 -0.1490724 -0.014715843 -0.09810311
0.13043794 -0.016891338 -0.005745053 0.027745208 -0.5853481 -0.037454292 0.005869873 -0.03620835
-0.41877046 0.38513967 -4.1499453 -0.13836297 -0.026522456 0.9943239 -0.12808736 0.15464634
0.23355463 0.06722378 -0.031870365 0.13798262 0.04075702 1.0857972 0.017411916 -0.21837845
-0.08647282 -0.25401825 0.0030661116 -0.20619588 0.09751851 0.79599255 0.025795825 -0.20607786
-0.1899602 -0.7985272 0.04391548 -0.23541851 0.03326542 0.35175687 0.010646814 -0.03554252
-0.24172139 0.15299729 -0.004198693 -0.028055217 0.02581011 0.33911872 -0.009817205 -0.1323917
-0.026439115 -0.28477594 -0.030059462 -0.08823627 0.0032070484 0.5410671 -0.09629126 0.14105478
0.25787404 -0.72774875 -0.010655612 0.17239799 1.5321106 -0.49414814 -1.6640283 -0.106904596
-0.2443068 -0.036462296 0.04833022 0.122818716 0.1686637 -0.41850877 0.019040499 0.18700972
-0.043804597 0.3963119 0.02216863 0.48614058 0.2056903 -0.6358633 0.06924502 0.503293
-0.009506263 0.49061212 -0.06643135 0.18665108 0.0066705206 -0.8112224 -0.15194592 0.14351456
0.43417346 0.42574653 0.018704686 0.22425035 -0.24578843 -0.39263505 0.045438945 0.19393492
0.44851568 0.7192737 -0.00050833204 0.5472216 -0.14441481 -0.5834551 0.03140078 0.5017593
0.42899445 0.68800294 -0.085195914 -0.08105411 0.0066988245 -0.8320857 -0.04687448 -0.105075136
00000000: 719b ce3e 5ead 823f ee1a 16bc 9628 57be
00000010: 58f1 193e 38c7 073d 1930 eebd a5c4 57be
00000020: 3e26 ec3e fb58 3d3f 5dc1 6cbd 1c26 f4be
00000030: fd13 17bc d98b 5abe 5573 66bd 3d30 f1be
00000040: bf9f b43e d3ff 2e3f 8a3f bfbb 5a07 54bd
00000050: 5c7e 813d c0e7 96be 568c 8abc 6fb9 ccbd
00000060: c885 dbbd 966d 5cbe b0cd 623d 36a4 d4be
00000070: 3a47 96bd 6283 86bd 912b 593d b599 ebbe
00000080: c5dc 353d 910f 41bd f7c6 86bc 0480 4e3d
00000090: 4615 93bd b910 0bbe f350 e2bc 74d9 143c
000000a0: 0efa a23d 96eb 23be 33b5 9a3d 51b6 15be
000000b0: c27c 4abc 1f9b 85be 7e8e f83d 0921 0dbe
000000c0: e98d a3be 3c1a 87bf ba2b d03f 7d13 e8be
000000d0: bdb5 d23c b321 d23c 3c27 89bd 53a8 2bbd
000000e0: 1e69 193d c3c6 0f3b 564f 413b f213 b1bd
000000f0: 8651 a6bd 26ae 023d b3fc 70bd 4600 92bd
00000100: ae3d 8c3d b607 3abe b969 3b3d 5c24 3ebd
00000110: ad74 25be 71ea 84bc d10d e4bc 2b96 c93e
00000120: cd8a 0dbd 6bad 2ebf 2a83 f6bb 51a8 cb3e
00000130: c5d5 c23d 94ff 3c3f 65ae e73b c4ff 113d
00000140: 5815 b5bc 48a4 db3d 8ab4 94bb a362 393d
00000150: a833 e53d 90e8 1c3f 8df7 53bd 7c03 5bbe
00000160: 4b66 cfb9 9c4e 24be f753 99bd f9a7 4bbe
00000170: 3dfd 193e 6c47 f83e fcb8 08be 6dd7 013d
00000180: c001 6fbd b444 20bf 8f08 85bd 6f16 b33c
00000190: 4f9f 073f 9734 133f 7ae7 8640 30a7 63be
000001a0: ebe7 213e 4329 383e 7517 da3c b826 a73c
000001b0: 4c6c 86bd 5f2c 91be 7b79 52bd 9e14 01bd
000001c0: 54c0 6c3e 5f65 c43e 71f2 b3bd c582 bb3d
000001d0: 5f0c de3d 99c1 42be 4266 9c3c fdb8 60bb
000001e0: 5737 0f3e 9ed5 bb3e e334 c6bc 96b8 e5bd
000001f0: 5473 093f 5e4f 053d 0220 06bd 817d 2ebd
00000200: 410c 32be ea97 53be bd96 66bc c08f acbd
00000210: d272 0b3e 45fa 83be 5bdc 0abd 6d51 03be
00000220: e07f 4b3d a9d3 ec3d 7ff8 1bbd bfc5 d6bc
00000230: f09b 0bbe 6fa6 18be b81a 71bc 49ea c8bd
00000240: 8691 053e b45f 8abc ff40 bcbb eb49 e33c
00000250: 60d9 15bf ac69 19bd 1058 c03b 354f 14bd
00000260: 1569 d6be 0731 c53e 5acc 84c0 06af 0dbe
00000270: 9f45 d9bc 038c 7e3f 5529 03be 9c5b 1e3e
00000280: f228 6f3e 9fac 893d 808a 02bd 514b 0d3e
00000290: d5f0 263d 67fb 8a3f 6fa3 8e3c 9a9e 5fbe
000002a0: a918 b1bd ae0e 82be d1f0 483b 0325 53be
000002b0: c9b7 c73d 2bc6 4b3f c451 d33c 1306 53be
000002c0: ed84 42be 476c 4cbf b8e0 333d 8d11 71be
000002d0: 5241 083d 7a19 b43e f96f 2e3c 0995 11bd
000002e0: d085 77be 52ab 1c3e 3195 89bb 0ed4 e5bc
000002f0: b96f d33c f8a0 ad3e 58d8 20bc b191 07be
00000300: d896 d8bc 27ce 91be 433f f6bc 38b5 b4bd
00000310: 582d 523b 6083 0a3f 5a34 c5bd aa70 103e
00000320: 1108 843e be4d 3abf e094 2ebc 1989 303e
00000330: 331c c43f fc00 fdbe e1fe d4bf ccf0 dabd
00000340: 902b 7abe 7d59 15bd e9f5 453d 6188 fb3d
00000350: 2db6 2c3e c846 d6be d2fa 9b3c 7a7f 3f3e
00000360: 736c 33bd 65e9 ca3e fd9a b53c 6be7 f83e
00000370: 7aa0 523e f0c7 22bf 55d0 8d3d cfd7 003f
00000380: 28c0 1bbc 8331 fb3e 290d 88bd 7621 3f3e
00000390: 6294 da3b 45ac 4fbf b697 1bbe 7bf5 123e
000003a0: fc4b de3e 73fb d93e 923a 993c e2a1 653e
000003b0: f6af 7bbe 7607 c9be 301e 3a3d e096 463e
000003c0: d9a3 e53e 5222 383f 9641 05ba b716 0c3f
000003d0: 7ae1 13be 505d 15bf 1b9e 003d 4c73 003f
000003e0: 29a5 db3e f620 303f 327b aebd b2ff a5bd
000003f0: d081 db3b 9203 55bf 74ff 3fbd a231 d7bd

fcs1.bias f4 [200]
-0.075977474 -0.0057807164 -0.4825462 0.14538375 -0.5084846 0.04476592 -0.51967686 0.4509009
-0.7370709 -0.3468739 -0.6680762 -0.15272017 -0.15339601 -0.41173506 -0.7726177 -0.6152948
-0.50173056 -0.39390865 -0.1767859 -0.38970798 -0.20325287 -0.23108529 -0.33655256 0.24808314
-0.17111203 -0.37220934 -0.219514 -0.60441756 -1.0219252 0.03439528 0.759307 -0.86127675
-0.22461918 -0.060266137 -0.36894143 -0.24450497 -0.33871132 0.05408282 -0.5684401 -0.58824706
-0.64711636 -0.22968596 -0.10391931 -0.7388524 -0.5697376 -0.25666142 -0.24489854 -0.7126775
-0.08943915 -0.08935041 -0.3172192 -0.15618813 0.04766431 0.7687819 -0.24937084 -0.39087793
-0.7215087 -0.12801933 -0.29590502 -0.68281186 0.40016425 0.22335218 -0.46582985 -0.565728
0.0226504 -0.16004208 0.07443766 -0.051891837 -0.54182756 0.08301687 -0.06532581 0.14358279
-0.53037155 -0.39688906 0.13472858 0.07265423 -0.3835894 -0.009892302 -0.38512918 -0.13378832
-0.16708654 0.20524947 -0.41400793 0.048885766 -0.5001057 0.479617 -0.61926216 -0.24769515
0.02009919 -0.41962764 -0.28186092 -0.17175725 0.58383524 -0.29210046 -0.15481733 -0.60541475
-0.47701052 -0.33126497 0.24524267 -0.20444475 -0.31732118 -0.352551 -0.08134799 -0.31725964
-0.29301617 -0.506971 0.3630209 -0.2833097 -0.017512092 -0.35331964 -0.07695885 -0.55368567
-0.29827222 -0.25647244 -0.05962073 -0.22903033 -0.14641958 -0.42626807 -0.29200816 -0.62426907
-0.16726917 -0.27953878 -0.39557144 -0.23257057 -0.74882394 -0.12600929 -0.7348206 -0.35471362
-0.46178827 0.8477747 -0.25659835 0.013286274 -0.43162683 -0.4760485 -1.1452194 -0.06552977
-0.3561598 0.22989398 -0.22494157 -0.8561426 -0.28640634 -0.1952381 -0.16717178 -0.2117817
-0.56117755 -0.25241348 -0.24482317 -0.4144326 -0.10282673 -0.7941611 -0.7994314 0.5627138
-0.5953721 -0.31008968 -0.40117168 -0.17795345 -0.04729375 -0.31823552 0.6447572 -0.6588173
-0.09808794 -0.91634357 -0.7542875 -0.38918442 -0.77946526 -0.1919894 -0.33290628 -0.5704238
-0.77173364 0.24153294 -0.25646278 -0.008187805 0.12744418 -0.18476261 -0.276524 -0.50883466
-0.50767195 -0.29197136 -0.53564394 -0.6631572 -0.18089743 -0.8702499 -0.4569411 -0.5708555
-0.5296131 -0.047227774 -0.6561834 0.41595012 -0.6947537 -0.28372243 -0.75169784 -0.8639749
-1.3911498 -0.08517585 -0.7759858 0.054057077 -0.49244946 -0.4936456 -0.27242768 0.026419045
00000000: 149a 9bbd 2a6c bdbb 4c10 f7be 7adf 143e
00000010: 0c2c 02bf 785c 373d 8b09 05bf 7cdc e63e
00000020: aeb0 3cbf 7599 b1be 0b07 2bbf ad62 1cbe
00000030: d813 1dbe f0ce d2be 46ca 45bf f683 1dbf
00000040: 6a71 00bf 65ae c9be 5d07 35be ce87 c7be
00000050: 8521 50be 9fa1 6cbe 9e50 acbe 8209 7e3e
00000060: fe37 2fbe 3992 bebe 47c8 60be 1cbb 1abf
00000070: 72ce 82bf 11e2 0c3d f261 423f a27c 5cbf
00000080: 9202 66be a0d9 76bd e4e5 bcbe 835f 7abe
00000090: 926b adbe f285 5d3d 4a85 11bf 5c97 16bf
000000a0: 6ba9 25bf cc32 6bbe a6d3 d4bd 6e25 3dbf
000000b0: 53da 11bf 2069 83be afc6 7abe 0872 36bf
000000c0: e02b b7bd 59fd b6bd 8e6a a2be c8ef 1fbe
000000d0: a73b 433d e4ce 443f 125b 7fbe 2721 c8be
000000e0: cbb4 38bf 8017 03be dd80 97be c2cc 2ebf
000000f0: 54e2 cc3e 6fb6 643e 4081 eebe 8dd3 10bf
00000100: 558d b93c 12e2 23be c672 983d 898c 54bd
00000110: 36b5 0abf c004 aa3d 8ac9 85bd 5e07 133e
00000120: 6ec6 07bf 0b35 cbbe 4af6 093e becb 943d
00000130: d465 c4be 5213 22bc a72f c5be ceff 08be
00000140: bc18 2bbe eb2c 523e d9f8 d3be 713c 483d
00000150: ed06 00bf 5c90 f53e f787 1ebf cca3 7dbe
00000160: 0ea7 a43c 6fd9 d6be 1350 90be 22e1 2fbe
00000170: 3a76 153f 318e 95be 6f88 1ebe 76fc 1abf
00000180: b93a f4be 909b a9be e520 7b3e f759 51be
00000190: ec77 a2be 9181 b4be c699 a6bd db6f a2be
000001a0: 3706 96be dac8 01bf e0dd b93e f80d 91be
000001b0: 8575 8fbc 50e6 b4be 9a9c 9dbd 58be 0dbf
000001c0: 23b7 98be 5b50 83be de34 74bd ed86 6abe
000001d0: 04ef 15be cf3f dabe 1882 95be 19d0 1fbf
000001e0: 9c48 2bbe b51f 8fbe 5788 cabe fb26 6ebe
000001f0: edb2 3fbf 9408 01be 341d 3cbf 069d b5be
00000200: 836f ecbe c307 593f dc60 83be acae 593c
00000210: 31fe dcbe a1bc f3be 8d96 92bf 7934 86bd
00000220: 945a b6be 5469 6b3e 1557 66be 292c 5bbf
00000230: daa3 92be 7fec 47be 142f 2bbe 4ddd 58be
00000240: 55a9 0fbf 573c 81be edb2 7abe 8230 d4be
00000250: d296 d2bd 244e 4bbf 89a7 4cbf 030e 103f
00000260: 4e6a 18bf 13c4 9ebe 6066 cdbe 6e39 36be
00000270: 17b7 41bd c4ef a2be cf0e 253f 40a8 28bf
00000280: 54e2 c8bd 7e95 6abf fc18 41bf 2e43 c7be
00000290: 098b 47bf df98 44be b172 aabe 4b07 12bf
000002a0: 5690 45bf 6954 773e 174f 83be 2526 06bc
000002b0: ba80 023e 6932 3dbe 8e94 8dbe fd42 02bf
000002c0: caf6 01bf 457d 95be f61f 09bf acc4 29bf
000002d0: 2d3d 39be b3c8 5ebf 2ff4 e9be 9623 12bf
000002e0: b994 07bf e971 41bd a3fb 27bf 6af7 d43e
000002f0: 61db 31bf 1144 91be 456f 40bf 762d 5dbf
00000300: 3211 b2bf ad70 aebd 01a7 46bf f46a 5d3d
00000310: 5622 fcbe 1ebf fcbe a47b 8bbe c16c d83c

fc2.weight f4 [150, 200]
0.17936668 -0.41251037 0.31026196 -0.2680482 0.12989247 0.10112379 0.1304658 -0.090819
-0.36743087 -0.31818777 -0.22737874 -0.21401632 -0.26689234 0.1434079 -0.16915932 -0.6508248
-0.099915065 -0.553646 -0.013035799 0.084177226 -0.15762801 -0.37147006 -0.10653368 -0.094441466
-0.25396436 -0.128846 -0.40447634 -0.20796575 -0.38789576 -0.6730625 0.105012074 -0.30691576
0.038027715 -0.18961833 -0.08275139 -0.19495656 -0.098657615 -0.15204602 -0.031168928 -0.19645604
-0.30235323 -0.11236996 0.09724931 -0.1648858 -0.39141542 -0.004162714 0.030407386 -0.442959
-0.4336891 -0.9934944 -0.41169032 -1.0265961 -0.103838965 -0.01565076 -0.82617384 -0.049372103
-0.21612422 -0.113393225 -0.010493878 0.10698154 -0.123405136 0.11124091 0.2178455 -0.051032096
0.15034616 -0.11824419 0.11541785 -0.2339602 -0.4511595 0.16344391 -0.19990939 -0.9700883
-0.27757996 -0.20578039 -0.022284329 -0.18606986 -0.083025225 -0.3772658 -0.14146365 0.00031761502
-0.17502774 0.008183988 -0.0652466 -0.34758297 -0.3963776 0.3736935 0.071614094 -0.28048944
-0.15306176 -0.17897768 -0.1750504 0.1215144 0.350998 -0.013149392 0.029384565 -0.23820785
-0.60688955 -0.16340333 -0.061554205 -0.07547064 -0.052865237 -0.113259375 -0.5514589 -0.431333
-0.33799747 0.18237716 0.09511627 -0.1025912 -0.1944716 -0.34974295 -0.43747756 -0.2642674
-0.086867265 -0.7266289 0.04694582 0.10727657 0.069267265 -0.31717792 0.102562025 0.14200966
-0.20682743 0.06250948 -0.663603 -0.76518255 0.01585925 -0.020254383 0.0765826 0.02773123
-0.05519597 -0.07177941 -0.15632752 -0.13831405 -0.19627231 0.02268591 -0.19442463 -0.4657104
0.30435225 0.62114626 -0.18459743 -0.31383803 -0.09503557 0.18340153 -0.39399013 -0.45607758
-0.59616965 -0.10600809 -0.085758194 0.47685146 0.26194122 0.108721584 -0.40222326 -0.18577035
-0.111704335 -0.6836431 -0.14696419 -0.43919733 -0.3008558 -0.308053 -0.01614645 -0.08822359
-0.14518385 -0.15895236 -0.040881433 0.18667708 -0.03860395 -0.20441958 -0.27755874 -0.30389917
0.10534991 -0.10014685 -0.062809534 0.04811995 -0.37120324 0.08386134 -0.17991053 -0.5924366
0.08642915 0.16565894 -0.34700966 -0.36324275 0.06341795 0.042238366 -0.22196834 -0.15713403
-0.10295962 -0.48228776 -0.13241042 -0.24063793 -0.1360436 -0.16365513 0.10643468 -0.17189364
-0.22031361 0.05957008 -0.1234634 -0.74403614 -0.06189991 0.13541281 -0.06726825 -0.16397557
0.007339278 0.12582314 0.018420758 0.040244102 -0.15253012 -0.012247531 -0.04976173 0.21774076
-0.19133215 -0.018026002 -0.000103149345 0.068905436 -0.14968789 0.091270655 -0.006440728 -0.00013842624
0.059435286 0.05119407 0.18929337 0.083305866 -0.10502975 0.26531273 -0.11535511 0.09236982
0.017151993 -0.14554991 0.015197219 0.006028829 -0.1776719 0.14407195 0.2553519 -0.3361325
0.004355494 -0.0023889928 -0.014091761 0.31664875 0.012108072 0.017363163 -0.2048402 0.09668187
0.0004116547 -0.18095784 0.17492774 -0.007989518 -0.6321984 0.023425186 0.03369247 0.11998314
0.22958134 0.016127368 0.11911738 0.067128174 -0.23286505 0.12603417 -0.19782312 0.10399053
00000000: e6ab 373e 8f34 d3be a8da 9e3e 9d3d 89be
00000010: 8802 053e fd19 cf3d d498 053e 50ff b9bd
00000020: e61f bcbe 82e9 a2be f9d5 68be 1827 5bbe
00000030: 1da6 88be 85d9 123e 1a38 2dbe 749c 26bf
00000040: 45a0 ccbd bfbb 0dbf 1b94 55bc 1c65 ac3d
00000050: 3d69 21be 5331 bebe 542e dabd 876a c1bd
00000060: 9e07 82be 35f0 03be 8617 cfbe f9f4 54be
00000070: 469a c6be d34d 2cbf 9210 d73d 1024 9dbe
00000080: f3c2 1b3d 4f2b 42be 9079 a9bd b1a2 47be
00000090: 010d cabd f4b1 1bbe fb55 ffbc c62b 49be
000000a0: 0bce 9abe 3922 e6bd a52a c73d d3d7 28be
000000b0: 9a67 c8be 6067 88bb e918 f93c 86cb e2be
000000c0: 7f0c debe a655 7ebf 13c9 d2be 8067 83bf
000000d0: 86a9 d4bd 0636 80bc 2180 53bf 673a 4abd
000000e0: ab4f 5dbe b53a e8bd 84ee 2bbc 2319 db3d
000000f0: d5bb fcbd 46d2 e33d e412 5f3e 0807 51bd
00000100: 58f4 193e 032a f2bd 3260 ec3d 4393 6fbe
00000110: 61fe e6be d75d 273e 0cb5 4cbe b557 78bf
00000120: f61e 8ebe 18b8 52be a08d b6bc 1989 3ebe
00000130: 2109 aabd fc28 c1be d9db 10be 9185 a639
00000140: 793a 33be 2216 063c 02a0 85bd 65f6 b1be
00000150: 01f2 cabe c154 bf3e 69aa 923d 509c 8fbe
00000160: 39bc 1cbe ed45 37be 6940 33be 8bdc f83d
00000170: 03b6 b33e 8c70 57bc e6b7 f03c c2ec 73be
00000180: 1d5d 1bbf 3453 27be 4320 7cbd 5a90 9abd
00000190: 3889 58bd 88f4 e7bd 692c 0dbf aed7 dcbe
000001a0: 010e adbe 14c1 3a3e 52cc c23d 561b d2bd
000001b0: 9023 47be 8211 b3be 0ffd dfbe 0f4e 87be
000001c0: 77e7 b1bd 5a04 3abf 434a 403d d1b3 db3d
000001d0: ffdb 8d3d 2565 a2be 0a0c d23d fb6a 113e
000001e0: 92ca 53be f804 803d e3e1 29bf 01e3 43bf
000001f0: 42eb 813c 85ec a5bc 57d7 9c3d 9b2c e33c
00000200: 2b15 62bd 1501 93bd 5214 20be 33a2 0dbe
00000210: 9cfb 48be cdd7 b93c 4017 47be 9871 eebe
00000220: 0fd4 9b3e 7103 1f3f 1c07 3dbe 61af a0be
00000230: 02a2 c2bd 9ccd 3b3e 13b9 c9be 0083 e9be
00000240: 939e 18bf c51a d9bd fea1 afbd e025 f43e
00000250: 291d 863e 6ca9 de3d 35f0 cdbe 953a 3ebe
00000260: 3ec5 e4bd 3c03 2fbf c87d 16be 79de e0be
00000270: c509 9abe 1fb9 9dbe 8f45 84bc 92ae b4bd
00000280: 13ab 14be 68c4 22be 4a73 27bd 4728 3f3e
00000290: 2d1f 1ebd 5e53 51be 2e1c 8ebe ac98 9bbe
000002a0: b2c1 d73d cb19 cdbd 49a2 80bd 6d19 453d
000002b0: 5a0e bebe 7fbf ab3d 773a 38be eda9 17bf
000002c0: c401 b13d 7fa2 293e 40ab b1be f4fa b9be
000002d0: 45e1 813d 2302 2d3d ab4b 63be bee7 20be
000002e0: 7edc d2bd 6cee f6be 9996 07be ca69 76be
000002f0: 034f 0bbe 3695 27be 6dfa d93d e304 30be
00000300: e499 61be c2ff 733d 61da fcbd 2779 3ebf
00000310: c38a 7dbd a8a9 0a3e f0c3 89bd 36e9 27be
00000320: 537e f03b c8d7 003e 21e7 963c 00d7 243d
00000330: db30 1cbe dea9 48bc f5d2 4bbd 6ff7 5e3e
00000340: 93ec 43be 44ab 93bc e251 d8b8 4b1e 8d3d
00000350: c847 19be 1cec ba3d be0c d3bb 8326 11b9
00000360: 6a72 733d e0b0 513d 1fd6 413e 449c aa3d
00000370: d619 d7bd 12d7 873e 4d3f ecbd 632c bd3d
00000380: 5682 8c3c 090b 15be c2fd 783c 7c8d c53b
00000390: 9fef 35be 9987 133e 7cbd 823e 8f19 acbe
000003a0: 88b8 8e3b a690 1cbb 21e1 66bc c91f a23e
000003b0: ef60 463c 313d 8e3c a1c1 51be 2501 c63d
000003c0: 5cd3 d739 034d 39be 4220 333e 78e6 02bc
000003d0: c1d7 21bf 2de6 bf3c 1e01 0a3d b8b9 f53d
000003e0: 5f17 6b3e 8b1d 843c d0f3 f33d 7f7a 893d
000003f0: 2d74 6ebe 1a0f 013e 2592 4abe fdf8 d43d

fc2.bias f4 [150]
-0.27785897 0.123015836 -0.5185426 -0.08953788 -0.2793481 -1.2733622 0.25085646 0.2475904
-0.08927948 -0.6060877 -0.16484822 -0.47689432 -0.14906582 -0.086368814 -0.14198782 -0.077508956
-0.16657363 -0.09745055 0.36853853 -0.4689815 -0.16863759 -0.5168233 -0.08679713 -0.50340855
-0.17286056 -0.1112496 -0.016933087 0.025833605 0.06067316 -0.013253307 -0.11687348 -0.11320253
-0.112547025 -0.0734402 -0.042827033 -0.052215766 -0.22759667 0.21226123 -0.110882804 -0.1980655
-0.17055196 0.9573014 0.99552166 -0.27240205 -0.14857092 -0.08545989 -0.2665424 -0.22616234
-0.74067175 -0.41685587 0.08953956 -0.51021975 0.35546368 -0.06510916 -0.61060965 -0.0784779
-0.1407521 0.24704173 -0.34101936 -0.16202037 -0.17831382 0.06645692 0.4071376 -0.10203654
0.5224542 -0.29202375 -0.078154035 -0.059481166 -0.40039465 0.021094592 0.025056839 -0.1195927
0.013318805 0.09615338 -0.15087496 -0.13070928 -0.16243209 -0.14094293 -0.09388654 -0.18286741
-0.1428346 -0.7684308 -0.20748603 0.4419563 -0.09501714 -0.54903054 -0.15793583 -0.38613275
-0.19200285 0.80443084 -0.019242832 -0.044622738 0.12833403 -0.16584091 -0.19587274 -0.15971698
0.2040007 -0.23902927 -0.29441354 0.046120685 -0.22495987 0.22246861 -0.025818747 0.13045926
-0.28793043 -0.56729347 -0.8619236 -0.16249797 -0.44174004 -0.5697245 -0.17057522 1.3333783
-0.16023815 0.058850396 -0.14506805 -0.13497843 -0.11888531 -0.04526424 -0.076442935 -0.0861993
-0.11441681 -0.13948293 0.9421156 -0.1705314 -0.16376927 -0.055284053 -0.10632149 -0.1325172
-0.1583197 -0.16142166 -0.19218229 0.13708676 0.38454455 -0.14639266 -0.11024255 -0.06549941
-0.19300279 -0.071801014 -0.8323096 -0.34218752 -0.027902456 -0.059389625 -0.06161621 -0.12582603
-0.070249885 0.053009883 -0.20723072 -0.059608404 -0.036621023 -0.15116262
00000000: 8843 8ebe baef fb3d 35bf 04bf a35f b7bd
00000010: b706 8fbe 88fd a2bf 4270 803e 5688 7d3e
00000020: 29d8 b6bd 9028 1bbf f9cd 28be 7e2b f4be
00000030: b6a4 18be 22e2 b0bd 4165 11be 04bd 9ebd
00000040: 4792 2abe 2794 c7bd 15b1 bc3e 581e f0be
00000050: 55af 2cbe 884e 04bf b2c2 b1bd 62df 00bf
00000060: 5c02 31be d5d6 e3bd 42b7 8abc ffa0 d33c
00000070: 6b84 783d 6624 59bc 5d5b efbd bad6 e7bd
00000080: 0e7f e6bd d167 96bd 666b 2fbd 33e0 55bd
00000090: 1a0f 69be 025b 593e 8616 e3bd afd1 4abe
000000a0: 2ca5 2ebe b411 753f 82da 7e3f 4878 8bbe
000000b0: fa22 18be 9805 afbd 3f78 88be 1a97 67be
000000c0: aa9c 3dbf 226e d5be 8460 b73d c39d 02bf
000000d0: 56ff b53e f457 85bd ea50 1cbf 05b9 a0bd
000000e0: 5221 10be 82f8 7c3e 179a aebe abe8 25be
000000f0: e697 36be 911a 883d 5774 d03e 89f8 d0bd
00000100: 8fbf 053f 2384 95be 390f a0bd 86a2 73bd
00000110: 8700 cdbe 91ce ac3c 0044 cd3c 04ed f4bd
00000120: 1e37 5a3c 10ec c43d f77e 1abe a7d8 05be
00000130: 9954 26be 5853 10be 9647 c0bd 9841 3bbe
00000140: 3c43 12be e2b7 44bf 3877 54be 1948 e23e
00000150: 5998 c2bd 448d 0cbf eeb9 21be 31b3 c5be
00000160: 659c 44be 2eef 4d3f 25a3 9dbc 55c6 36bd
00000170: ff69 033e 33d2 29be dd92 48be d98c 23be
00000180: 8fe5 503e 17c4 74be 5fbd 96be 0be9 3c3d
00000190: e15b 66be d0ce 633e d681 d3bc 1d97 053e
000001a0: 9e6b 93be 253a 11bf 06a7 5cbf de65 26be
000001b0: c02b e2be 77d9 11bf 45ab 2ebe 24ac aa3f
000001c0: 7815 24be 1d0d 713d b88c 14be c937 0abe
000001d0: 247a f3bd ff66 39bd 1d8e 9cbd 4289 b0bd
000001e0: 5c53 eabd 9dd4 0ebe 7d2e 713f c99f 2ebe
000001f0: 22b3 27be 8871 62bd 15bf d9bd 97b2 07be
00000200: 8f1e 22be b84b 25be 6fcb 44be 7960 0c3e
00000210: 06e3 c43e f5e7 15be d9c6 e1bd 8e24 86bd
00000220: 86a2 45be 690c 93bd 3e12 55bf 3433 afbe
00000230: b193 e4bc 8942 73bd 4761 7cbd 8ad8 00be
00000240: 2cdf 8fbd e420 593d 4a34 54be f127 74bd
00000250: edff 15bd 60ca 1abe

fc3.weight f4 [1, 150]
-0.0013668915 -0.00853775 -0.003530756 -0.005926116 -0.014007562 -0.01247321 0.006487525 0.007145897
-0.007021315 -0.014068399 -0.011682942 0.0015837352 0.01127232 -0.024850024 -0.02023414 -0.0031431552
-0.013841148 -0.006580623 0.012997143 -0.014740034 0.02522104 -0.015127619 -0.00716627 -0.011540707
-0.0057161474 0.016087426 0.06506849 -0.01248707 0.027212452 -0.006567492 0.019616226 -0.016881721
-0.002829136 0.018594451 0.0050755627 -0.01870842 -0.017656567 -0.007542814 -0.026893614 -0.0042083515
-0.014949333 0.0056320922 -0.024226435 0.024943534 0.015603566 -0.021944502 -0.015387914 -0.04104398
-0.010259391 -0.019536272 0.014376859 -0.007907513 0.011588892 -0.0038218251 0.021815548 -0.002943559
0.009488269 0.0131561635 -0.01809382 -0.004642772 0.023347083 0.018661238 -0.01760605 0.010825929
0.007573 -0.03688152 -0.025160518 0.02749582 -0.016061973 0.025703052 -0.009034288 -0.00046570782
-0.020055005 -0.0145342965 -0.011906073 -0.031248257 -0.016233154 0.014252924 -0.030651895 -0.01624377
0.026641332 -0.008155492 0.0069124945 0.006978692 0.009277202 -0.009514591 0.0042402865 -0.02135884
0.022019112 0.007960493 -0.0006780956 0.00010607361 0.056885585 -0.005847075 -0.0143725015 -0.0072001596
0.00850567 -0.02067404 -0.010353178 0.009975091 -0.014023978 -0.014004264 0.024397392 -0.009139782
-0.010683332 -0.013789014 -0.010639909 -0.00034256635 0.004284108 -0.037727106 -0.004018602 0.010571402
0.027453588 -0.008287201 0.0026360971 0.022166995 0.0010698298 0.0048179664 0.020674525 -0.0035549887
0.0128917135 -0.011422468 0.0057610734 -0.029143585 0.004572069 -0.0049401093 0.004208489 0.014085929
-0.0015238611 -0.0014225317 -0.0138999345 0.0096699875 -0.024393994 -0.0063357144 -0.0017412773 -0.015477136
0.008056699 -0.0009402092 -0.013685878 -0.011086714 -0.00700465 -0.010019688 0.011635207 0.018218229
0.041675482 -0.019295562 0.023894263 -0.0053828885 0.015687672 0.020388482
00000000: 4529 b3ba ebe1 0bbc 4264 67bb dd2f c2bb
00000010: f97f 65bc 6f5c 4cbc 4e95 d43b 2128 ea3b
00000020: 0f13 e6bb 247f 66bc cf69 3fbc 5695 cf3a
00000030: 89af 383c 4792 cbbc 11c2 a5bc 65fd 4dbb
00000040: fbc5 62bc 44a2 d7bb f8f1 543c 2f80 71bc
00000050: 5b9c ce3c d5d9 77bc 08d3 eabb 3c15 3dbc
00000060: 854e bbbb c7c9 833c a142 853d 9196 4cbc
00000070: a6ec de3c 1e34 d7bb 35b2 a03c 894b 8abc
00000080: 0769 39bb 6453 983c e850 a63b 6742 99bc
00000090: 81a4 90bc b629 f7bb ff4f dcbc 36e6 89bb
000000a0: 0cee 74bc 6a8d b83b 8476 c6bc 6256 cc3c
000000b0: 19a6 7f3c f5c4 b3bc 971d 7cbc bb1d 28bd
000000c0: 0117 28bc 880a a0bc eb8c 6b3c 838e 01bc
000000d0: 56df 3d3c 9677 7abb 85b6 b23c bae8 40bb
000000e0: af74 1b3c f38c 573c 7e39 94bc 6522 98bb
000000f0: 6242 bf3c 74df 983c 903a 90bc 3d5f 313c
00000100: ee26 f83b 1411 17bd 6e1d cebc ea3e e13c
00000110: 6694 83bc 358f d23c 8d04 14bc 3f2a f4b9
00000120: 654a a4bc 4221 6ebc b111 43bc 58fc ffbc
00000130: 64fb 84bc 1985 693c af19 fbbc a811 85bc
00000140: ec3e da3c 9d9e 05bc 3582 e23b 83ad e43b
00000150: 68ff 173c 16e3 1bbc 1af2 8a3b bcf8 aebc
00000160: 6d61 b43c ba6c 023c 3ac2 31ba d673 de38
00000170: dc00 693d d298 bfbb a47a 6bbc 51ef ebbb
00000180: 5e5b 0b3c 9b5c a9bc 60a0 29bc 906e 233c
00000190: d4c4 65bc 2472 65bc 0add c73c 06bf 15bc
000001a0: 2409 2fbc 51eb 61bc 0353 2ebc 7a9a b3b9
000001b0: b461 8c3b bd87 1abd 7aae 83bb ac33 2d3c
000001c0: 59e6 e03c 0ac7 07bc 5fc2 2c3b 8f97 b53c
000001d0: 8839 8c3a 08e0 9d3b 9f5d a93c d0fa 68bb
000001e0: c437 533c 4e25 3bbc 63c7 bc3b 87be eebc
000001f0: 4bd1 953b a4e0 a1bb 5de7 893b abc8 663c
00000200: 4bbc c7ba 3e74 baba 8dbc 63bc de6e 1e3c
00000210: ead5 c7bc d39b cfbb 923b e4ba d093 7dbc
00000220: 3f00 043c 5f78 76ba bc3a 60bc 0da5 35bc
00000230: 4387 e5bb 9e29 24bc 98a1 3e3c 653e 953c
00000240: e9b3 2a3d ba11 9ebc e7bd c33c f162 b0bb
00000250: 6f83 803c bf05 a73c
